<?xml version="1.0" ?>
<net name="saved_model" version="10">
	<layers>
		<layer id="0" name="input" type="Parameter" version="opset1">
			<data element_type="f16" shape="1, 3, 128, 128"/>
			<output>
				<port id="0" names="input:0" precision="FP16">
					<dim>1</dim>
					<dim>3</dim>
					<dim>128</dim>
					<dim>128</dim>
				</port>
			</output>
		</layer>
		<layer id="1" name="data_mul_3399" type="Const" version="opset1">
			<data element_type="f16" offset="0" shape="1, 3, 1, 1" size="6"/>
			<output>
				<port id="0" precision="FP16">
					<dim>1</dim>
					<dim>3</dim>
					<dim>1</dim>
					<dim>1</dim>
				</port>
			</output>
		</layer>
		<layer id="2" name="input/scale/Fused_Mul_" type="Multiply" version="opset1">
			<data auto_broadcast="numpy"/>
			<input>
				<port id="0" precision="FP16">
					<dim>1</dim>
					<dim>3</dim>
					<dim>128</dim>
					<dim>128</dim>
				</port>
				<port id="1" precision="FP16">
					<dim>1</dim>
					<dim>3</dim>
					<dim>1</dim>
					<dim>1</dim>
				</port>
			</input>
			<output>
				<port id="2" precision="FP16">
					<dim>1</dim>
					<dim>3</dim>
					<dim>128</dim>
					<dim>128</dim>
				</port>
			</output>
		</layer>
		<layer id="3" name="data_add_3401" type="Const" version="opset1">
			<data element_type="f16" offset="6" shape="1, 3, 1, 1" size="6"/>
			<output>
				<port id="0" precision="FP16">
					<dim>1</dim>
					<dim>3</dim>
					<dim>1</dim>
					<dim>1</dim>
				</port>
			</output>
		</layer>
		<layer id="4" name="input/mean/Fused_Add_" type="Add" version="opset1">
			<data auto_broadcast="numpy"/>
			<input>
				<port id="0" precision="FP16">
					<dim>1</dim>
					<dim>3</dim>
					<dim>128</dim>
					<dim>128</dim>
				</port>
				<port id="1" precision="FP16">
					<dim>1</dim>
					<dim>3</dim>
					<dim>1</dim>
					<dim>1</dim>
				</port>
			</input>
			<output>
				<port id="2" precision="FP16">
					<dim>1</dim>
					<dim>3</dim>
					<dim>128</dim>
					<dim>128</dim>
				</port>
			</output>
		</layer>
		<layer id="5" name="Conv2D/filter" type="Const" version="opset1">
			<data element_type="f16" offset="12" shape="24, 3, 5, 5" size="3600"/>
			<output>
				<port id="0" names="Conv2D/filter:0" precision="FP16">
					<dim>24</dim>
					<dim>3</dim>
					<dim>5</dim>
					<dim>5</dim>
				</port>
			</output>
		</layer>
		<layer id="6" name="Conv2D" type="Convolution" version="opset1">
			<data auto_pad="same_upper" dilations="1, 1" pads_begin="1, 1" pads_end="2, 2" strides="2, 2"/>
			<input>
				<port id="0" precision="FP16">
					<dim>1</dim>
					<dim>3</dim>
					<dim>128</dim>
					<dim>128</dim>
				</port>
				<port id="1" precision="FP16">
					<dim>24</dim>
					<dim>3</dim>
					<dim>5</dim>
					<dim>5</dim>
				</port>
			</input>
			<output>
				<port id="2" names="Conv2D:0" precision="FP16">
					<dim>1</dim>
					<dim>24</dim>
					<dim>64</dim>
					<dim>64</dim>
				</port>
			</output>
		</layer>
		<layer id="7" name="conv2d_1/y" type="Const" version="opset1">
			<data element_type="f16" offset="3612" shape="1, 24, 1, 1" size="48"/>
			<output>
				<port id="0" names="conv2d_1/y:0" precision="FP16">
					<dim>1</dim>
					<dim>24</dim>
					<dim>1</dim>
					<dim>1</dim>
				</port>
			</output>
		</layer>
		<layer id="8" name="conv2d_1" type="Add" version="opset1">
			<data auto_broadcast="numpy"/>
			<input>
				<port id="0" precision="FP16">
					<dim>1</dim>
					<dim>24</dim>
					<dim>64</dim>
					<dim>64</dim>
				</port>
				<port id="1" precision="FP16">
					<dim>1</dim>
					<dim>24</dim>
					<dim>1</dim>
					<dim>1</dim>
				</port>
			</input>
			<output>
				<port id="2" names="conv2d_1:0" precision="FP16">
					<dim>1</dim>
					<dim>24</dim>
					<dim>64</dim>
					<dim>64</dim>
				</port>
			</output>
		</layer>
		<layer id="9" name="activation" type="ReLU" version="opset1">
			<input>
				<port id="0" precision="FP16">
					<dim>1</dim>
					<dim>24</dim>
					<dim>64</dim>
					<dim>64</dim>
				</port>
			</input>
			<output>
				<port id="1" names="activation:0" precision="FP16">
					<dim>1</dim>
					<dim>24</dim>
					<dim>64</dim>
					<dim>64</dim>
				</port>
			</output>
		</layer>
		<layer id="10" name="depthwise/filter_in" type="Const" version="opset1">
			<data element_type="f16" offset="3660" shape="24, 1, 1, 3, 3" size="432"/>
			<output>
				<port id="0" names="depthwise/filter_in:0" precision="FP16">
					<dim>24</dim>
					<dim>1</dim>
					<dim>1</dim>
					<dim>3</dim>
					<dim>3</dim>
				</port>
			</output>
		</layer>
		<layer id="11" name="depthwise" type="GroupConvolution" version="opset1">
			<data auto_pad="same_upper" dilations="1, 1" pads_begin="1, 1" pads_end="1, 1" strides="1, 1"/>
			<input>
				<port id="0" precision="FP16">
					<dim>1</dim>
					<dim>24</dim>
					<dim>64</dim>
					<dim>64</dim>
				</port>
				<port id="1" precision="FP16">
					<dim>24</dim>
					<dim>1</dim>
					<dim>1</dim>
					<dim>3</dim>
					<dim>3</dim>
				</port>
			</input>
			<output>
				<port id="2" names="depthwise:0" precision="FP16">
					<dim>1</dim>
					<dim>24</dim>
					<dim>64</dim>
					<dim>64</dim>
				</port>
			</output>
		</layer>
		<layer id="12" name="depthwise_conv2d/y" type="Const" version="opset1">
			<data element_type="f16" offset="4092" shape="1, 24, 1, 1" size="48"/>
			<output>
				<port id="0" names="depthwise_conv2d/y:0" precision="FP16">
					<dim>1</dim>
					<dim>24</dim>
					<dim>1</dim>
					<dim>1</dim>
				</port>
			</output>
		</layer>
		<layer id="13" name="depthwise_conv2d" type="Add" version="opset1">
			<data auto_broadcast="numpy"/>
			<input>
				<port id="0" precision="FP16">
					<dim>1</dim>
					<dim>24</dim>
					<dim>64</dim>
					<dim>64</dim>
				</port>
				<port id="1" precision="FP16">
					<dim>1</dim>
					<dim>24</dim>
					<dim>1</dim>
					<dim>1</dim>
				</port>
			</input>
			<output>
				<port id="2" names="depthwise_conv2d:0" precision="FP16">
					<dim>1</dim>
					<dim>24</dim>
					<dim>64</dim>
					<dim>64</dim>
				</port>
			</output>
		</layer>
		<layer id="14" name="Conv2D_2/filter" type="Const" version="opset1">
			<data element_type="f16" offset="4140" shape="24, 24, 1, 1" size="1152"/>
			<output>
				<port id="0" names="Conv2D_2/filter:0" precision="FP16">
					<dim>24</dim>
					<dim>24</dim>
					<dim>1</dim>
					<dim>1</dim>
				</port>
			</output>
		</layer>
		<layer id="15" name="Conv2D_2" type="Convolution" version="opset1">
			<data auto_pad="valid" dilations="1, 1" pads_begin="0, 0" pads_end="0, 0" strides="1, 1"/>
			<input>
				<port id="0" precision="FP16">
					<dim>1</dim>
					<dim>24</dim>
					<dim>64</dim>
					<dim>64</dim>
				</port>
				<port id="1" precision="FP16">
					<dim>24</dim>
					<dim>24</dim>
					<dim>1</dim>
					<dim>1</dim>
				</port>
			</input>
			<output>
				<port id="2" names="Conv2D_2:0" precision="FP16">
					<dim>1</dim>
					<dim>24</dim>
					<dim>64</dim>
					<dim>64</dim>
				</port>
			</output>
		</layer>
		<layer id="16" name="conv2d_1_1/y" type="Const" version="opset1">
			<data element_type="f16" offset="5292" shape="1, 24, 1, 1" size="48"/>
			<output>
				<port id="0" names="conv2d_1_1/y:0" precision="FP16">
					<dim>1</dim>
					<dim>24</dim>
					<dim>1</dim>
					<dim>1</dim>
				</port>
			</output>
		</layer>
		<layer id="17" name="conv2d_1_1" type="Add" version="opset1">
			<data auto_broadcast="numpy"/>
			<input>
				<port id="0" precision="FP16">
					<dim>1</dim>
					<dim>24</dim>
					<dim>64</dim>
					<dim>64</dim>
				</port>
				<port id="1" precision="FP16">
					<dim>1</dim>
					<dim>24</dim>
					<dim>1</dim>
					<dim>1</dim>
				</port>
			</input>
			<output>
				<port id="2" names="conv2d_1_1:0" precision="FP16">
					<dim>1</dim>
					<dim>24</dim>
					<dim>64</dim>
					<dim>64</dim>
				</port>
			</output>
		</layer>
		<layer id="18" name="add__xeno_compat__1" type="Add" version="opset1">
			<data auto_broadcast="numpy"/>
			<input>
				<port id="0" precision="FP16">
					<dim>1</dim>
					<dim>24</dim>
					<dim>64</dim>
					<dim>64</dim>
				</port>
				<port id="1" precision="FP16">
					<dim>1</dim>
					<dim>24</dim>
					<dim>64</dim>
					<dim>64</dim>
				</port>
			</input>
			<output>
				<port id="2" names="add__xeno_compat__1:0" precision="FP16">
					<dim>1</dim>
					<dim>24</dim>
					<dim>64</dim>
					<dim>64</dim>
				</port>
			</output>
		</layer>
		<layer id="19" name="activation_1" type="ReLU" version="opset1">
			<input>
				<port id="0" precision="FP16">
					<dim>1</dim>
					<dim>24</dim>
					<dim>64</dim>
					<dim>64</dim>
				</port>
			</input>
			<output>
				<port id="1" names="activation_1:0" precision="FP16">
					<dim>1</dim>
					<dim>24</dim>
					<dim>64</dim>
					<dim>64</dim>
				</port>
			</output>
		</layer>
		<layer id="20" name="51568751" type="Const" version="opset1">
			<data element_type="i64" offset="5340" shape="4" size="32"/>
			<output>
				<port id="0" precision="I64">
					<dim>4</dim>
				</port>
			</output>
		</layer>
		<layer id="21" name="51628898" type="Const" version="opset1">
			<data element_type="i64" offset="5372" shape="4" size="32"/>
			<output>
				<port id="0" precision="I64">
					<dim>4</dim>
				</port>
			</output>
		</layer>
		<layer id="22" name="Constant_45" type="Const" version="opset1">
			<data element_type="f16" offset="5404" shape="" size="2"/>
			<output>
				<port id="0" precision="FP16"/>
			</output>
		</layer>
		<layer id="23" name="channel_padding" type="Pad" version="opset1">
			<data pad_mode="constant"/>
			<input>
				<port id="0" precision="FP16">
					<dim>1</dim>
					<dim>24</dim>
					<dim>64</dim>
					<dim>64</dim>
				</port>
				<port id="1" precision="I64">
					<dim>4</dim>
				</port>
				<port id="2" precision="I64">
					<dim>4</dim>
				</port>
				<port id="3" precision="FP16"/>
			</input>
			<output>
				<port id="4" names="channel_padding:0" precision="FP16">
					<dim>1</dim>
					<dim>28</dim>
					<dim>64</dim>
					<dim>64</dim>
				</port>
			</output>
		</layer>
		<layer id="24" name="depthwise_1/filter_in" type="Const" version="opset1">
			<data element_type="f16" offset="5406" shape="24, 1, 1, 3, 3" size="432"/>
			<output>
				<port id="0" names="depthwise_1/filter_in:0" precision="FP16">
					<dim>24</dim>
					<dim>1</dim>
					<dim>1</dim>
					<dim>3</dim>
					<dim>3</dim>
				</port>
			</output>
		</layer>
		<layer id="25" name="depthwise_1" type="GroupConvolution" version="opset1">
			<data auto_pad="same_upper" dilations="1, 1" pads_begin="1, 1" pads_end="1, 1" strides="1, 1"/>
			<input>
				<port id="0" precision="FP16">
					<dim>1</dim>
					<dim>24</dim>
					<dim>64</dim>
					<dim>64</dim>
				</port>
				<port id="1" precision="FP16">
					<dim>24</dim>
					<dim>1</dim>
					<dim>1</dim>
					<dim>3</dim>
					<dim>3</dim>
				</port>
			</input>
			<output>
				<port id="2" names="depthwise_1:0" precision="FP16">
					<dim>1</dim>
					<dim>24</dim>
					<dim>64</dim>
					<dim>64</dim>
				</port>
			</output>
		</layer>
		<layer id="26" name="depthwise_conv2d_1/y" type="Const" version="opset1">
			<data element_type="f16" offset="4092" shape="1, 24, 1, 1" size="48"/>
			<output>
				<port id="0" names="depthwise_conv2d_1/y:0" precision="FP16">
					<dim>1</dim>
					<dim>24</dim>
					<dim>1</dim>
					<dim>1</dim>
				</port>
			</output>
		</layer>
		<layer id="27" name="depthwise_conv2d_1" type="Add" version="opset1">
			<data auto_broadcast="numpy"/>
			<input>
				<port id="0" precision="FP16">
					<dim>1</dim>
					<dim>24</dim>
					<dim>64</dim>
					<dim>64</dim>
				</port>
				<port id="1" precision="FP16">
					<dim>1</dim>
					<dim>24</dim>
					<dim>1</dim>
					<dim>1</dim>
				</port>
			</input>
			<output>
				<port id="2" names="depthwise_conv2d_1:0" precision="FP16">
					<dim>1</dim>
					<dim>24</dim>
					<dim>64</dim>
					<dim>64</dim>
				</port>
			</output>
		</layer>
		<layer id="28" name="Conv2D_3/filter" type="Const" version="opset1">
			<data element_type="f16" offset="5838" shape="28, 24, 1, 1" size="1344"/>
			<output>
				<port id="0" names="Conv2D_3/filter:0" precision="FP16">
					<dim>28</dim>
					<dim>24</dim>
					<dim>1</dim>
					<dim>1</dim>
				</port>
			</output>
		</layer>
		<layer id="29" name="Conv2D_3" type="Convolution" version="opset1">
			<data auto_pad="valid" dilations="1, 1" pads_begin="0, 0" pads_end="0, 0" strides="1, 1"/>
			<input>
				<port id="0" precision="FP16">
					<dim>1</dim>
					<dim>24</dim>
					<dim>64</dim>
					<dim>64</dim>
				</port>
				<port id="1" precision="FP16">
					<dim>28</dim>
					<dim>24</dim>
					<dim>1</dim>
					<dim>1</dim>
				</port>
			</input>
			<output>
				<port id="2" names="Conv2D_3:0" precision="FP16">
					<dim>1</dim>
					<dim>28</dim>
					<dim>64</dim>
					<dim>64</dim>
				</port>
			</output>
		</layer>
		<layer id="30" name="conv2d_2_1/y" type="Const" version="opset1">
			<data element_type="f16" offset="7182" shape="1, 28, 1, 1" size="56"/>
			<output>
				<port id="0" names="conv2d_2_1/y:0" precision="FP16">
					<dim>1</dim>
					<dim>28</dim>
					<dim>1</dim>
					<dim>1</dim>
				</port>
			</output>
		</layer>
		<layer id="31" name="conv2d_2_1" type="Add" version="opset1">
			<data auto_broadcast="numpy"/>
			<input>
				<port id="0" precision="FP16">
					<dim>1</dim>
					<dim>28</dim>
					<dim>64</dim>
					<dim>64</dim>
				</port>
				<port id="1" precision="FP16">
					<dim>1</dim>
					<dim>28</dim>
					<dim>1</dim>
					<dim>1</dim>
				</port>
			</input>
			<output>
				<port id="2" names="conv2d_2_1:0" precision="FP16">
					<dim>1</dim>
					<dim>28</dim>
					<dim>64</dim>
					<dim>64</dim>
				</port>
			</output>
		</layer>
		<layer id="32" name="add_1__xeno_compat__1" type="Add" version="opset1">
			<data auto_broadcast="numpy"/>
			<input>
				<port id="0" precision="FP16">
					<dim>1</dim>
					<dim>28</dim>
					<dim>64</dim>
					<dim>64</dim>
				</port>
				<port id="1" precision="FP16">
					<dim>1</dim>
					<dim>28</dim>
					<dim>64</dim>
					<dim>64</dim>
				</port>
			</input>
			<output>
				<port id="2" names="add_1__xeno_compat__1:0" precision="FP16">
					<dim>1</dim>
					<dim>28</dim>
					<dim>64</dim>
					<dim>64</dim>
				</port>
			</output>
		</layer>
		<layer id="33" name="activation_2" type="ReLU" version="opset1">
			<input>
				<port id="0" precision="FP16">
					<dim>1</dim>
					<dim>28</dim>
					<dim>64</dim>
					<dim>64</dim>
				</port>
			</input>
			<output>
				<port id="1" names="activation_2:0" precision="FP16">
					<dim>1</dim>
					<dim>28</dim>
					<dim>64</dim>
					<dim>64</dim>
				</port>
			</output>
		</layer>
		<layer id="34" name="max_pooling2d" type="MaxPool" version="opset1">
			<data auto_pad="same_upper" kernel="2, 2" pads_begin="0, 0" pads_end="0, 0" rounding_type="floor" strides="2, 2"/>
			<input>
				<port id="0" precision="FP16">
					<dim>1</dim>
					<dim>28</dim>
					<dim>64</dim>
					<dim>64</dim>
				</port>
			</input>
			<output>
				<port id="1" names="max_pooling2d:0" precision="FP16">
					<dim>1</dim>
					<dim>28</dim>
					<dim>32</dim>
					<dim>32</dim>
				</port>
			</output>
		</layer>
		<layer id="35" name="51688862" type="Const" version="opset1">
			<data element_type="i64" offset="5340" shape="4" size="32"/>
			<output>
				<port id="0" precision="I64">
					<dim>4</dim>
				</port>
			</output>
		</layer>
		<layer id="36" name="51748655" type="Const" version="opset1">
			<data element_type="i64" offset="5372" shape="4" size="32"/>
			<output>
				<port id="0" precision="I64">
					<dim>4</dim>
				</port>
			</output>
		</layer>
		<layer id="37" name="Constant_74" type="Const" version="opset1">
			<data element_type="f16" offset="5404" shape="" size="2"/>
			<output>
				<port id="0" precision="FP16"/>
			</output>
		</layer>
		<layer id="38" name="channel_padding_1" type="Pad" version="opset1">
			<data pad_mode="constant"/>
			<input>
				<port id="0" precision="FP16">
					<dim>1</dim>
					<dim>28</dim>
					<dim>32</dim>
					<dim>32</dim>
				</port>
				<port id="1" precision="I64">
					<dim>4</dim>
				</port>
				<port id="2" precision="I64">
					<dim>4</dim>
				</port>
				<port id="3" precision="FP16"/>
			</input>
			<output>
				<port id="4" names="channel_padding_1:0" precision="FP16">
					<dim>1</dim>
					<dim>32</dim>
					<dim>32</dim>
					<dim>32</dim>
				</port>
			</output>
		</layer>
		<layer id="39" name="depthwise_2/filter_in" type="Const" version="opset1">
			<data element_type="f16" offset="7238" shape="28, 1, 1, 3, 3" size="504"/>
			<output>
				<port id="0" names="depthwise_2/filter_in:0" precision="FP16">
					<dim>28</dim>
					<dim>1</dim>
					<dim>1</dim>
					<dim>3</dim>
					<dim>3</dim>
				</port>
			</output>
		</layer>
		<layer id="40" name="depthwise_2" type="GroupConvolution" version="opset1">
			<data auto_pad="same_upper" dilations="1, 1" pads_begin="0, 0" pads_end="1, 1" strides="2, 2"/>
			<input>
				<port id="0" precision="FP16">
					<dim>1</dim>
					<dim>28</dim>
					<dim>64</dim>
					<dim>64</dim>
				</port>
				<port id="1" precision="FP16">
					<dim>28</dim>
					<dim>1</dim>
					<dim>1</dim>
					<dim>3</dim>
					<dim>3</dim>
				</port>
			</input>
			<output>
				<port id="2" names="depthwise_2:0" precision="FP16">
					<dim>1</dim>
					<dim>28</dim>
					<dim>32</dim>
					<dim>32</dim>
				</port>
			</output>
		</layer>
		<layer id="41" name="depthwise_conv2d_2/y" type="Const" version="opset1">
			<data element_type="f16" offset="7742" shape="1, 28, 1, 1" size="56"/>
			<output>
				<port id="0" names="depthwise_conv2d_2/y:0" precision="FP16">
					<dim>1</dim>
					<dim>28</dim>
					<dim>1</dim>
					<dim>1</dim>
				</port>
			</output>
		</layer>
		<layer id="42" name="depthwise_conv2d_2" type="Add" version="opset1">
			<data auto_broadcast="numpy"/>
			<input>
				<port id="0" precision="FP16">
					<dim>1</dim>
					<dim>28</dim>
					<dim>32</dim>
					<dim>32</dim>
				</port>
				<port id="1" precision="FP16">
					<dim>1</dim>
					<dim>28</dim>
					<dim>1</dim>
					<dim>1</dim>
				</port>
			</input>
			<output>
				<port id="2" names="depthwise_conv2d_2:0" precision="FP16">
					<dim>1</dim>
					<dim>28</dim>
					<dim>32</dim>
					<dim>32</dim>
				</port>
			</output>
		</layer>
		<layer id="43" name="Conv2D_4/filter" type="Const" version="opset1">
			<data element_type="f16" offset="7798" shape="32, 28, 1, 1" size="1792"/>
			<output>
				<port id="0" names="Conv2D_4/filter:0" precision="FP16">
					<dim>32</dim>
					<dim>28</dim>
					<dim>1</dim>
					<dim>1</dim>
				</port>
			</output>
		</layer>
		<layer id="44" name="Conv2D_4" type="Convolution" version="opset1">
			<data auto_pad="valid" dilations="1, 1" pads_begin="0, 0" pads_end="0, 0" strides="1, 1"/>
			<input>
				<port id="0" precision="FP16">
					<dim>1</dim>
					<dim>28</dim>
					<dim>32</dim>
					<dim>32</dim>
				</port>
				<port id="1" precision="FP16">
					<dim>32</dim>
					<dim>28</dim>
					<dim>1</dim>
					<dim>1</dim>
				</port>
			</input>
			<output>
				<port id="2" names="Conv2D_4:0" precision="FP16">
					<dim>1</dim>
					<dim>32</dim>
					<dim>32</dim>
					<dim>32</dim>
				</port>
			</output>
		</layer>
		<layer id="45" name="conv2d_3_1/y" type="Const" version="opset1">
			<data element_type="f16" offset="9590" shape="1, 32, 1, 1" size="64"/>
			<output>
				<port id="0" names="conv2d_3_1/y:0" precision="FP16">
					<dim>1</dim>
					<dim>32</dim>
					<dim>1</dim>
					<dim>1</dim>
				</port>
			</output>
		</layer>
		<layer id="46" name="conv2d_3_1" type="Add" version="opset1">
			<data auto_broadcast="numpy"/>
			<input>
				<port id="0" precision="FP16">
					<dim>1</dim>
					<dim>32</dim>
					<dim>32</dim>
					<dim>32</dim>
				</port>
				<port id="1" precision="FP16">
					<dim>1</dim>
					<dim>32</dim>
					<dim>1</dim>
					<dim>1</dim>
				</port>
			</input>
			<output>
				<port id="2" names="conv2d_3_1:0" precision="FP16">
					<dim>1</dim>
					<dim>32</dim>
					<dim>32</dim>
					<dim>32</dim>
				</port>
			</output>
		</layer>
		<layer id="47" name="add_2__xeno_compat__1" type="Add" version="opset1">
			<data auto_broadcast="numpy"/>
			<input>
				<port id="0" precision="FP16">
					<dim>1</dim>
					<dim>32</dim>
					<dim>32</dim>
					<dim>32</dim>
				</port>
				<port id="1" precision="FP16">
					<dim>1</dim>
					<dim>32</dim>
					<dim>32</dim>
					<dim>32</dim>
				</port>
			</input>
			<output>
				<port id="2" names="add_2__xeno_compat__1:0" precision="FP16">
					<dim>1</dim>
					<dim>32</dim>
					<dim>32</dim>
					<dim>32</dim>
				</port>
			</output>
		</layer>
		<layer id="48" name="activation_3" type="ReLU" version="opset1">
			<input>
				<port id="0" precision="FP16">
					<dim>1</dim>
					<dim>32</dim>
					<dim>32</dim>
					<dim>32</dim>
				</port>
			</input>
			<output>
				<port id="1" names="activation_3:0" precision="FP16">
					<dim>1</dim>
					<dim>32</dim>
					<dim>32</dim>
					<dim>32</dim>
				</port>
			</output>
		</layer>
		<layer id="49" name="51808958" type="Const" version="opset1">
			<data element_type="i64" offset="5340" shape="4" size="32"/>
			<output>
				<port id="0" precision="I64">
					<dim>4</dim>
				</port>
			</output>
		</layer>
		<layer id="50" name="51868892" type="Const" version="opset1">
			<data element_type="i64" offset="5372" shape="4" size="32"/>
			<output>
				<port id="0" precision="I64">
					<dim>4</dim>
				</port>
			</output>
		</layer>
		<layer id="51" name="Constant_101" type="Const" version="opset1">
			<data element_type="f16" offset="5404" shape="" size="2"/>
			<output>
				<port id="0" precision="FP16"/>
			</output>
		</layer>
		<layer id="52" name="channel_padding_2" type="Pad" version="opset1">
			<data pad_mode="constant"/>
			<input>
				<port id="0" precision="FP16">
					<dim>1</dim>
					<dim>32</dim>
					<dim>32</dim>
					<dim>32</dim>
				</port>
				<port id="1" precision="I64">
					<dim>4</dim>
				</port>
				<port id="2" precision="I64">
					<dim>4</dim>
				</port>
				<port id="3" precision="FP16"/>
			</input>
			<output>
				<port id="4" names="channel_padding_2:0" precision="FP16">
					<dim>1</dim>
					<dim>36</dim>
					<dim>32</dim>
					<dim>32</dim>
				</port>
			</output>
		</layer>
		<layer id="53" name="depthwise_3/filter_in" type="Const" version="opset1">
			<data element_type="f16" offset="9654" shape="32, 1, 1, 3, 3" size="576"/>
			<output>
				<port id="0" names="depthwise_3/filter_in:0" precision="FP16">
					<dim>32</dim>
					<dim>1</dim>
					<dim>1</dim>
					<dim>3</dim>
					<dim>3</dim>
				</port>
			</output>
		</layer>
		<layer id="54" name="depthwise_3" type="GroupConvolution" version="opset1">
			<data auto_pad="same_upper" dilations="1, 1" pads_begin="1, 1" pads_end="1, 1" strides="1, 1"/>
			<input>
				<port id="0" precision="FP16">
					<dim>1</dim>
					<dim>32</dim>
					<dim>32</dim>
					<dim>32</dim>
				</port>
				<port id="1" precision="FP16">
					<dim>32</dim>
					<dim>1</dim>
					<dim>1</dim>
					<dim>3</dim>
					<dim>3</dim>
				</port>
			</input>
			<output>
				<port id="2" names="depthwise_3:0" precision="FP16">
					<dim>1</dim>
					<dim>32</dim>
					<dim>32</dim>
					<dim>32</dim>
				</port>
			</output>
		</layer>
		<layer id="55" name="depthwise_conv2d_3/y" type="Const" version="opset1">
			<data element_type="f16" offset="10230" shape="1, 32, 1, 1" size="64"/>
			<output>
				<port id="0" names="depthwise_conv2d_3/y:0" precision="FP16">
					<dim>1</dim>
					<dim>32</dim>
					<dim>1</dim>
					<dim>1</dim>
				</port>
			</output>
		</layer>
		<layer id="56" name="depthwise_conv2d_3" type="Add" version="opset1">
			<data auto_broadcast="numpy"/>
			<input>
				<port id="0" precision="FP16">
					<dim>1</dim>
					<dim>32</dim>
					<dim>32</dim>
					<dim>32</dim>
				</port>
				<port id="1" precision="FP16">
					<dim>1</dim>
					<dim>32</dim>
					<dim>1</dim>
					<dim>1</dim>
				</port>
			</input>
			<output>
				<port id="2" names="depthwise_conv2d_3:0" precision="FP16">
					<dim>1</dim>
					<dim>32</dim>
					<dim>32</dim>
					<dim>32</dim>
				</port>
			</output>
		</layer>
		<layer id="57" name="Conv2D_5/filter" type="Const" version="opset1">
			<data element_type="f16" offset="10294" shape="36, 32, 1, 1" size="2304"/>
			<output>
				<port id="0" names="Conv2D_5/filter:0" precision="FP16">
					<dim>36</dim>
					<dim>32</dim>
					<dim>1</dim>
					<dim>1</dim>
				</port>
			</output>
		</layer>
		<layer id="58" name="Conv2D_5" type="Convolution" version="opset1">
			<data auto_pad="valid" dilations="1, 1" pads_begin="0, 0" pads_end="0, 0" strides="1, 1"/>
			<input>
				<port id="0" precision="FP16">
					<dim>1</dim>
					<dim>32</dim>
					<dim>32</dim>
					<dim>32</dim>
				</port>
				<port id="1" precision="FP16">
					<dim>36</dim>
					<dim>32</dim>
					<dim>1</dim>
					<dim>1</dim>
				</port>
			</input>
			<output>
				<port id="2" names="Conv2D_5:0" precision="FP16">
					<dim>1</dim>
					<dim>36</dim>
					<dim>32</dim>
					<dim>32</dim>
				</port>
			</output>
		</layer>
		<layer id="59" name="conv2d_4_1/y" type="Const" version="opset1">
			<data element_type="f16" offset="12598" shape="1, 36, 1, 1" size="72"/>
			<output>
				<port id="0" names="conv2d_4_1/y:0" precision="FP16">
					<dim>1</dim>
					<dim>36</dim>
					<dim>1</dim>
					<dim>1</dim>
				</port>
			</output>
		</layer>
		<layer id="60" name="conv2d_4_1" type="Add" version="opset1">
			<data auto_broadcast="numpy"/>
			<input>
				<port id="0" precision="FP16">
					<dim>1</dim>
					<dim>36</dim>
					<dim>32</dim>
					<dim>32</dim>
				</port>
				<port id="1" precision="FP16">
					<dim>1</dim>
					<dim>36</dim>
					<dim>1</dim>
					<dim>1</dim>
				</port>
			</input>
			<output>
				<port id="2" names="conv2d_4_1:0" precision="FP16">
					<dim>1</dim>
					<dim>36</dim>
					<dim>32</dim>
					<dim>32</dim>
				</port>
			</output>
		</layer>
		<layer id="61" name="add_3__xeno_compat__1" type="Add" version="opset1">
			<data auto_broadcast="numpy"/>
			<input>
				<port id="0" precision="FP16">
					<dim>1</dim>
					<dim>36</dim>
					<dim>32</dim>
					<dim>32</dim>
				</port>
				<port id="1" precision="FP16">
					<dim>1</dim>
					<dim>36</dim>
					<dim>32</dim>
					<dim>32</dim>
				</port>
			</input>
			<output>
				<port id="2" names="add_3__xeno_compat__1:0" precision="FP16">
					<dim>1</dim>
					<dim>36</dim>
					<dim>32</dim>
					<dim>32</dim>
				</port>
			</output>
		</layer>
		<layer id="62" name="activation_4" type="ReLU" version="opset1">
			<input>
				<port id="0" precision="FP16">
					<dim>1</dim>
					<dim>36</dim>
					<dim>32</dim>
					<dim>32</dim>
				</port>
			</input>
			<output>
				<port id="1" names="activation_4:0" precision="FP16">
					<dim>1</dim>
					<dim>36</dim>
					<dim>32</dim>
					<dim>32</dim>
				</port>
			</output>
		</layer>
		<layer id="63" name="51928676" type="Const" version="opset1">
			<data element_type="i64" offset="5340" shape="4" size="32"/>
			<output>
				<port id="0" precision="I64">
					<dim>4</dim>
				</port>
			</output>
		</layer>
		<layer id="64" name="51988880" type="Const" version="opset1">
			<data element_type="i64" offset="12670" shape="4" size="32"/>
			<output>
				<port id="0" precision="I64">
					<dim>4</dim>
				</port>
			</output>
		</layer>
		<layer id="65" name="Constant_128" type="Const" version="opset1">
			<data element_type="f16" offset="5404" shape="" size="2"/>
			<output>
				<port id="0" precision="FP16"/>
			</output>
		</layer>
		<layer id="66" name="channel_padding_3" type="Pad" version="opset1">
			<data pad_mode="constant"/>
			<input>
				<port id="0" precision="FP16">
					<dim>1</dim>
					<dim>36</dim>
					<dim>32</dim>
					<dim>32</dim>
				</port>
				<port id="1" precision="I64">
					<dim>4</dim>
				</port>
				<port id="2" precision="I64">
					<dim>4</dim>
				</port>
				<port id="3" precision="FP16"/>
			</input>
			<output>
				<port id="4" names="channel_padding_3:0" precision="FP16">
					<dim>1</dim>
					<dim>42</dim>
					<dim>32</dim>
					<dim>32</dim>
				</port>
			</output>
		</layer>
		<layer id="67" name="depthwise_4/filter_in" type="Const" version="opset1">
			<data element_type="f16" offset="12702" shape="36, 1, 1, 3, 3" size="648"/>
			<output>
				<port id="0" names="depthwise_4/filter_in:0" precision="FP16">
					<dim>36</dim>
					<dim>1</dim>
					<dim>1</dim>
					<dim>3</dim>
					<dim>3</dim>
				</port>
			</output>
		</layer>
		<layer id="68" name="depthwise_4" type="GroupConvolution" version="opset1">
			<data auto_pad="same_upper" dilations="1, 1" pads_begin="1, 1" pads_end="1, 1" strides="1, 1"/>
			<input>
				<port id="0" precision="FP16">
					<dim>1</dim>
					<dim>36</dim>
					<dim>32</dim>
					<dim>32</dim>
				</port>
				<port id="1" precision="FP16">
					<dim>36</dim>
					<dim>1</dim>
					<dim>1</dim>
					<dim>3</dim>
					<dim>3</dim>
				</port>
			</input>
			<output>
				<port id="2" names="depthwise_4:0" precision="FP16">
					<dim>1</dim>
					<dim>36</dim>
					<dim>32</dim>
					<dim>32</dim>
				</port>
			</output>
		</layer>
		<layer id="69" name="depthwise_conv2d_4/y" type="Const" version="opset1">
			<data element_type="f16" offset="13350" shape="1, 36, 1, 1" size="72"/>
			<output>
				<port id="0" names="depthwise_conv2d_4/y:0" precision="FP16">
					<dim>1</dim>
					<dim>36</dim>
					<dim>1</dim>
					<dim>1</dim>
				</port>
			</output>
		</layer>
		<layer id="70" name="depthwise_conv2d_4" type="Add" version="opset1">
			<data auto_broadcast="numpy"/>
			<input>
				<port id="0" precision="FP16">
					<dim>1</dim>
					<dim>36</dim>
					<dim>32</dim>
					<dim>32</dim>
				</port>
				<port id="1" precision="FP16">
					<dim>1</dim>
					<dim>36</dim>
					<dim>1</dim>
					<dim>1</dim>
				</port>
			</input>
			<output>
				<port id="2" names="depthwise_conv2d_4:0" precision="FP16">
					<dim>1</dim>
					<dim>36</dim>
					<dim>32</dim>
					<dim>32</dim>
				</port>
			</output>
		</layer>
		<layer id="71" name="Conv2D_6/filter" type="Const" version="opset1">
			<data element_type="f16" offset="13422" shape="42, 36, 1, 1" size="3024"/>
			<output>
				<port id="0" names="Conv2D_6/filter:0" precision="FP16">
					<dim>42</dim>
					<dim>36</dim>
					<dim>1</dim>
					<dim>1</dim>
				</port>
			</output>
		</layer>
		<layer id="72" name="Conv2D_6" type="Convolution" version="opset1">
			<data auto_pad="valid" dilations="1, 1" pads_begin="0, 0" pads_end="0, 0" strides="1, 1"/>
			<input>
				<port id="0" precision="FP16">
					<dim>1</dim>
					<dim>36</dim>
					<dim>32</dim>
					<dim>32</dim>
				</port>
				<port id="1" precision="FP16">
					<dim>42</dim>
					<dim>36</dim>
					<dim>1</dim>
					<dim>1</dim>
				</port>
			</input>
			<output>
				<port id="2" names="Conv2D_6:0" precision="FP16">
					<dim>1</dim>
					<dim>42</dim>
					<dim>32</dim>
					<dim>32</dim>
				</port>
			</output>
		</layer>
		<layer id="73" name="conv2d_5_1/y" type="Const" version="opset1">
			<data element_type="f16" offset="16446" shape="1, 42, 1, 1" size="84"/>
			<output>
				<port id="0" names="conv2d_5_1/y:0" precision="FP16">
					<dim>1</dim>
					<dim>42</dim>
					<dim>1</dim>
					<dim>1</dim>
				</port>
			</output>
		</layer>
		<layer id="74" name="conv2d_5_1" type="Add" version="opset1">
			<data auto_broadcast="numpy"/>
			<input>
				<port id="0" precision="FP16">
					<dim>1</dim>
					<dim>42</dim>
					<dim>32</dim>
					<dim>32</dim>
				</port>
				<port id="1" precision="FP16">
					<dim>1</dim>
					<dim>42</dim>
					<dim>1</dim>
					<dim>1</dim>
				</port>
			</input>
			<output>
				<port id="2" names="conv2d_5_1:0" precision="FP16">
					<dim>1</dim>
					<dim>42</dim>
					<dim>32</dim>
					<dim>32</dim>
				</port>
			</output>
		</layer>
		<layer id="75" name="add_4__xeno_compat__1" type="Add" version="opset1">
			<data auto_broadcast="numpy"/>
			<input>
				<port id="0" precision="FP16">
					<dim>1</dim>
					<dim>42</dim>
					<dim>32</dim>
					<dim>32</dim>
				</port>
				<port id="1" precision="FP16">
					<dim>1</dim>
					<dim>42</dim>
					<dim>32</dim>
					<dim>32</dim>
				</port>
			</input>
			<output>
				<port id="2" names="add_4__xeno_compat__1:0" precision="FP16">
					<dim>1</dim>
					<dim>42</dim>
					<dim>32</dim>
					<dim>32</dim>
				</port>
			</output>
		</layer>
		<layer id="76" name="activation_5" type="ReLU" version="opset1">
			<input>
				<port id="0" precision="FP16">
					<dim>1</dim>
					<dim>42</dim>
					<dim>32</dim>
					<dim>32</dim>
				</port>
			</input>
			<output>
				<port id="1" names="activation_5:0" precision="FP16">
					<dim>1</dim>
					<dim>42</dim>
					<dim>32</dim>
					<dim>32</dim>
				</port>
			</output>
		</layer>
		<layer id="77" name="max_pooling2d_1" type="MaxPool" version="opset1">
			<data auto_pad="same_upper" kernel="2, 2" pads_begin="0, 0" pads_end="0, 0" rounding_type="floor" strides="2, 2"/>
			<input>
				<port id="0" precision="FP16">
					<dim>1</dim>
					<dim>42</dim>
					<dim>32</dim>
					<dim>32</dim>
				</port>
			</input>
			<output>
				<port id="1" names="max_pooling2d_1:0" precision="FP16">
					<dim>1</dim>
					<dim>42</dim>
					<dim>16</dim>
					<dim>16</dim>
				</port>
			</output>
		</layer>
		<layer id="78" name="52048910" type="Const" version="opset1">
			<data element_type="i64" offset="5340" shape="4" size="32"/>
			<output>
				<port id="0" precision="I64">
					<dim>4</dim>
				</port>
			</output>
		</layer>
		<layer id="79" name="52108877" type="Const" version="opset1">
			<data element_type="i64" offset="12670" shape="4" size="32"/>
			<output>
				<port id="0" precision="I64">
					<dim>4</dim>
				</port>
			</output>
		</layer>
		<layer id="80" name="Constant_157" type="Const" version="opset1">
			<data element_type="f16" offset="5404" shape="" size="2"/>
			<output>
				<port id="0" precision="FP16"/>
			</output>
		</layer>
		<layer id="81" name="channel_padding_4" type="Pad" version="opset1">
			<data pad_mode="constant"/>
			<input>
				<port id="0" precision="FP16">
					<dim>1</dim>
					<dim>42</dim>
					<dim>16</dim>
					<dim>16</dim>
				</port>
				<port id="1" precision="I64">
					<dim>4</dim>
				</port>
				<port id="2" precision="I64">
					<dim>4</dim>
				</port>
				<port id="3" precision="FP16"/>
			</input>
			<output>
				<port id="4" names="channel_padding_4:0" precision="FP16">
					<dim>1</dim>
					<dim>48</dim>
					<dim>16</dim>
					<dim>16</dim>
				</port>
			</output>
		</layer>
		<layer id="82" name="depthwise_5/filter_in" type="Const" version="opset1">
			<data element_type="f16" offset="16530" shape="42, 1, 1, 3, 3" size="756"/>
			<output>
				<port id="0" names="depthwise_5/filter_in:0" precision="FP16">
					<dim>42</dim>
					<dim>1</dim>
					<dim>1</dim>
					<dim>3</dim>
					<dim>3</dim>
				</port>
			</output>
		</layer>
		<layer id="83" name="depthwise_5" type="GroupConvolution" version="opset1">
			<data auto_pad="same_upper" dilations="1, 1" pads_begin="0, 0" pads_end="1, 1" strides="2, 2"/>
			<input>
				<port id="0" precision="FP16">
					<dim>1</dim>
					<dim>42</dim>
					<dim>32</dim>
					<dim>32</dim>
				</port>
				<port id="1" precision="FP16">
					<dim>42</dim>
					<dim>1</dim>
					<dim>1</dim>
					<dim>3</dim>
					<dim>3</dim>
				</port>
			</input>
			<output>
				<port id="2" names="depthwise_5:0" precision="FP16">
					<dim>1</dim>
					<dim>42</dim>
					<dim>16</dim>
					<dim>16</dim>
				</port>
			</output>
		</layer>
		<layer id="84" name="depthwise_conv2d_5/y" type="Const" version="opset1">
			<data element_type="f16" offset="17286" shape="1, 42, 1, 1" size="84"/>
			<output>
				<port id="0" names="depthwise_conv2d_5/y:0" precision="FP16">
					<dim>1</dim>
					<dim>42</dim>
					<dim>1</dim>
					<dim>1</dim>
				</port>
			</output>
		</layer>
		<layer id="85" name="depthwise_conv2d_5" type="Add" version="opset1">
			<data auto_broadcast="numpy"/>
			<input>
				<port id="0" precision="FP16">
					<dim>1</dim>
					<dim>42</dim>
					<dim>16</dim>
					<dim>16</dim>
				</port>
				<port id="1" precision="FP16">
					<dim>1</dim>
					<dim>42</dim>
					<dim>1</dim>
					<dim>1</dim>
				</port>
			</input>
			<output>
				<port id="2" names="depthwise_conv2d_5:0" precision="FP16">
					<dim>1</dim>
					<dim>42</dim>
					<dim>16</dim>
					<dim>16</dim>
				</port>
			</output>
		</layer>
		<layer id="86" name="Conv2D_7/filter" type="Const" version="opset1">
			<data element_type="f16" offset="17370" shape="48, 42, 1, 1" size="4032"/>
			<output>
				<port id="0" names="Conv2D_7/filter:0" precision="FP16">
					<dim>48</dim>
					<dim>42</dim>
					<dim>1</dim>
					<dim>1</dim>
				</port>
			</output>
		</layer>
		<layer id="87" name="Conv2D_7" type="Convolution" version="opset1">
			<data auto_pad="valid" dilations="1, 1" pads_begin="0, 0" pads_end="0, 0" strides="1, 1"/>
			<input>
				<port id="0" precision="FP16">
					<dim>1</dim>
					<dim>42</dim>
					<dim>16</dim>
					<dim>16</dim>
				</port>
				<port id="1" precision="FP16">
					<dim>48</dim>
					<dim>42</dim>
					<dim>1</dim>
					<dim>1</dim>
				</port>
			</input>
			<output>
				<port id="2" names="Conv2D_7:0" precision="FP16">
					<dim>1</dim>
					<dim>48</dim>
					<dim>16</dim>
					<dim>16</dim>
				</port>
			</output>
		</layer>
		<layer id="88" name="conv2d_6_1/y" type="Const" version="opset1">
			<data element_type="f16" offset="21402" shape="1, 48, 1, 1" size="96"/>
			<output>
				<port id="0" names="conv2d_6_1/y:0" precision="FP16">
					<dim>1</dim>
					<dim>48</dim>
					<dim>1</dim>
					<dim>1</dim>
				</port>
			</output>
		</layer>
		<layer id="89" name="conv2d_6_1" type="Add" version="opset1">
			<data auto_broadcast="numpy"/>
			<input>
				<port id="0" precision="FP16">
					<dim>1</dim>
					<dim>48</dim>
					<dim>16</dim>
					<dim>16</dim>
				</port>
				<port id="1" precision="FP16">
					<dim>1</dim>
					<dim>48</dim>
					<dim>1</dim>
					<dim>1</dim>
				</port>
			</input>
			<output>
				<port id="2" names="conv2d_6_1:0" precision="FP16">
					<dim>1</dim>
					<dim>48</dim>
					<dim>16</dim>
					<dim>16</dim>
				</port>
			</output>
		</layer>
		<layer id="90" name="add_5__xeno_compat__1" type="Add" version="opset1">
			<data auto_broadcast="numpy"/>
			<input>
				<port id="0" precision="FP16">
					<dim>1</dim>
					<dim>48</dim>
					<dim>16</dim>
					<dim>16</dim>
				</port>
				<port id="1" precision="FP16">
					<dim>1</dim>
					<dim>48</dim>
					<dim>16</dim>
					<dim>16</dim>
				</port>
			</input>
			<output>
				<port id="2" names="add_5__xeno_compat__1:0" precision="FP16">
					<dim>1</dim>
					<dim>48</dim>
					<dim>16</dim>
					<dim>16</dim>
				</port>
			</output>
		</layer>
		<layer id="91" name="activation_6" type="ReLU" version="opset1">
			<input>
				<port id="0" precision="FP16">
					<dim>1</dim>
					<dim>48</dim>
					<dim>16</dim>
					<dim>16</dim>
				</port>
			</input>
			<output>
				<port id="1" names="activation_6:0" precision="FP16">
					<dim>1</dim>
					<dim>48</dim>
					<dim>16</dim>
					<dim>16</dim>
				</port>
			</output>
		</layer>
		<layer id="92" name="52168742" type="Const" version="opset1">
			<data element_type="i64" offset="5340" shape="4" size="32"/>
			<output>
				<port id="0" precision="I64">
					<dim>4</dim>
				</port>
			</output>
		</layer>
		<layer id="93" name="52228823" type="Const" version="opset1">
			<data element_type="i64" offset="21498" shape="4" size="32"/>
			<output>
				<port id="0" precision="I64">
					<dim>4</dim>
				</port>
			</output>
		</layer>
		<layer id="94" name="Constant_184" type="Const" version="opset1">
			<data element_type="f16" offset="5404" shape="" size="2"/>
			<output>
				<port id="0" precision="FP16"/>
			</output>
		</layer>
		<layer id="95" name="channel_padding_5" type="Pad" version="opset1">
			<data pad_mode="constant"/>
			<input>
				<port id="0" precision="FP16">
					<dim>1</dim>
					<dim>48</dim>
					<dim>16</dim>
					<dim>16</dim>
				</port>
				<port id="1" precision="I64">
					<dim>4</dim>
				</port>
				<port id="2" precision="I64">
					<dim>4</dim>
				</port>
				<port id="3" precision="FP16"/>
			</input>
			<output>
				<port id="4" names="channel_padding_5:0" precision="FP16">
					<dim>1</dim>
					<dim>56</dim>
					<dim>16</dim>
					<dim>16</dim>
				</port>
			</output>
		</layer>
		<layer id="96" name="depthwise_6/filter_in" type="Const" version="opset1">
			<data element_type="f16" offset="21530" shape="48, 1, 1, 3, 3" size="864"/>
			<output>
				<port id="0" names="depthwise_6/filter_in:0" precision="FP16">
					<dim>48</dim>
					<dim>1</dim>
					<dim>1</dim>
					<dim>3</dim>
					<dim>3</dim>
				</port>
			</output>
		</layer>
		<layer id="97" name="depthwise_6" type="GroupConvolution" version="opset1">
			<data auto_pad="same_upper" dilations="1, 1" pads_begin="1, 1" pads_end="1, 1" strides="1, 1"/>
			<input>
				<port id="0" precision="FP16">
					<dim>1</dim>
					<dim>48</dim>
					<dim>16</dim>
					<dim>16</dim>
				</port>
				<port id="1" precision="FP16">
					<dim>48</dim>
					<dim>1</dim>
					<dim>1</dim>
					<dim>3</dim>
					<dim>3</dim>
				</port>
			</input>
			<output>
				<port id="2" names="depthwise_6:0" precision="FP16">
					<dim>1</dim>
					<dim>48</dim>
					<dim>16</dim>
					<dim>16</dim>
				</port>
			</output>
		</layer>
		<layer id="98" name="depthwise_conv2d_6/y" type="Const" version="opset1">
			<data element_type="f16" offset="22394" shape="1, 48, 1, 1" size="96"/>
			<output>
				<port id="0" names="depthwise_conv2d_6/y:0" precision="FP16">
					<dim>1</dim>
					<dim>48</dim>
					<dim>1</dim>
					<dim>1</dim>
				</port>
			</output>
		</layer>
		<layer id="99" name="depthwise_conv2d_6" type="Add" version="opset1">
			<data auto_broadcast="numpy"/>
			<input>
				<port id="0" precision="FP16">
					<dim>1</dim>
					<dim>48</dim>
					<dim>16</dim>
					<dim>16</dim>
				</port>
				<port id="1" precision="FP16">
					<dim>1</dim>
					<dim>48</dim>
					<dim>1</dim>
					<dim>1</dim>
				</port>
			</input>
			<output>
				<port id="2" names="depthwise_conv2d_6:0" precision="FP16">
					<dim>1</dim>
					<dim>48</dim>
					<dim>16</dim>
					<dim>16</dim>
				</port>
			</output>
		</layer>
		<layer id="100" name="Conv2D_8/filter" type="Const" version="opset1">
			<data element_type="f16" offset="22490" shape="56, 48, 1, 1" size="5376"/>
			<output>
				<port id="0" names="Conv2D_8/filter:0" precision="FP16">
					<dim>56</dim>
					<dim>48</dim>
					<dim>1</dim>
					<dim>1</dim>
				</port>
			</output>
		</layer>
		<layer id="101" name="Conv2D_8" type="Convolution" version="opset1">
			<data auto_pad="valid" dilations="1, 1" pads_begin="0, 0" pads_end="0, 0" strides="1, 1"/>
			<input>
				<port id="0" precision="FP16">
					<dim>1</dim>
					<dim>48</dim>
					<dim>16</dim>
					<dim>16</dim>
				</port>
				<port id="1" precision="FP16">
					<dim>56</dim>
					<dim>48</dim>
					<dim>1</dim>
					<dim>1</dim>
				</port>
			</input>
			<output>
				<port id="2" names="Conv2D_8:0" precision="FP16">
					<dim>1</dim>
					<dim>56</dim>
					<dim>16</dim>
					<dim>16</dim>
				</port>
			</output>
		</layer>
		<layer id="102" name="conv2d_7_1/y" type="Const" version="opset1">
			<data element_type="f16" offset="27866" shape="1, 56, 1, 1" size="112"/>
			<output>
				<port id="0" names="conv2d_7_1/y:0" precision="FP16">
					<dim>1</dim>
					<dim>56</dim>
					<dim>1</dim>
					<dim>1</dim>
				</port>
			</output>
		</layer>
		<layer id="103" name="conv2d_7_1" type="Add" version="opset1">
			<data auto_broadcast="numpy"/>
			<input>
				<port id="0" precision="FP16">
					<dim>1</dim>
					<dim>56</dim>
					<dim>16</dim>
					<dim>16</dim>
				</port>
				<port id="1" precision="FP16">
					<dim>1</dim>
					<dim>56</dim>
					<dim>1</dim>
					<dim>1</dim>
				</port>
			</input>
			<output>
				<port id="2" names="conv2d_7_1:0" precision="FP16">
					<dim>1</dim>
					<dim>56</dim>
					<dim>16</dim>
					<dim>16</dim>
				</port>
			</output>
		</layer>
		<layer id="104" name="add_6__xeno_compat__1" type="Add" version="opset1">
			<data auto_broadcast="numpy"/>
			<input>
				<port id="0" precision="FP16">
					<dim>1</dim>
					<dim>56</dim>
					<dim>16</dim>
					<dim>16</dim>
				</port>
				<port id="1" precision="FP16">
					<dim>1</dim>
					<dim>56</dim>
					<dim>16</dim>
					<dim>16</dim>
				</port>
			</input>
			<output>
				<port id="2" names="add_6__xeno_compat__1:0" precision="FP16">
					<dim>1</dim>
					<dim>56</dim>
					<dim>16</dim>
					<dim>16</dim>
				</port>
			</output>
		</layer>
		<layer id="105" name="activation_7" type="ReLU" version="opset1">
			<input>
				<port id="0" precision="FP16">
					<dim>1</dim>
					<dim>56</dim>
					<dim>16</dim>
					<dim>16</dim>
				</port>
			</input>
			<output>
				<port id="1" names="activation_7:0" precision="FP16">
					<dim>1</dim>
					<dim>56</dim>
					<dim>16</dim>
					<dim>16</dim>
				</port>
			</output>
		</layer>
		<layer id="106" name="52288808" type="Const" version="opset1">
			<data element_type="i64" offset="5340" shape="4" size="32"/>
			<output>
				<port id="0" precision="I64">
					<dim>4</dim>
				</port>
			</output>
		</layer>
		<layer id="107" name="52348922" type="Const" version="opset1">
			<data element_type="i64" offset="21498" shape="4" size="32"/>
			<output>
				<port id="0" precision="I64">
					<dim>4</dim>
				</port>
			</output>
		</layer>
		<layer id="108" name="Constant_211" type="Const" version="opset1">
			<data element_type="f16" offset="5404" shape="" size="2"/>
			<output>
				<port id="0" precision="FP16"/>
			</output>
		</layer>
		<layer id="109" name="channel_padding_6" type="Pad" version="opset1">
			<data pad_mode="constant"/>
			<input>
				<port id="0" precision="FP16">
					<dim>1</dim>
					<dim>56</dim>
					<dim>16</dim>
					<dim>16</dim>
				</port>
				<port id="1" precision="I64">
					<dim>4</dim>
				</port>
				<port id="2" precision="I64">
					<dim>4</dim>
				</port>
				<port id="3" precision="FP16"/>
			</input>
			<output>
				<port id="4" names="channel_padding_6:0" precision="FP16">
					<dim>1</dim>
					<dim>64</dim>
					<dim>16</dim>
					<dim>16</dim>
				</port>
			</output>
		</layer>
		<layer id="110" name="depthwise_7/filter_in" type="Const" version="opset1">
			<data element_type="f16" offset="27978" shape="56, 1, 1, 3, 3" size="1008"/>
			<output>
				<port id="0" names="depthwise_7/filter_in:0" precision="FP16">
					<dim>56</dim>
					<dim>1</dim>
					<dim>1</dim>
					<dim>3</dim>
					<dim>3</dim>
				</port>
			</output>
		</layer>
		<layer id="111" name="depthwise_7" type="GroupConvolution" version="opset1">
			<data auto_pad="same_upper" dilations="1, 1" pads_begin="1, 1" pads_end="1, 1" strides="1, 1"/>
			<input>
				<port id="0" precision="FP16">
					<dim>1</dim>
					<dim>56</dim>
					<dim>16</dim>
					<dim>16</dim>
				</port>
				<port id="1" precision="FP16">
					<dim>56</dim>
					<dim>1</dim>
					<dim>1</dim>
					<dim>3</dim>
					<dim>3</dim>
				</port>
			</input>
			<output>
				<port id="2" names="depthwise_7:0" precision="FP16">
					<dim>1</dim>
					<dim>56</dim>
					<dim>16</dim>
					<dim>16</dim>
				</port>
			</output>
		</layer>
		<layer id="112" name="depthwise_conv2d_7/y" type="Const" version="opset1">
			<data element_type="f16" offset="28986" shape="1, 56, 1, 1" size="112"/>
			<output>
				<port id="0" names="depthwise_conv2d_7/y:0" precision="FP16">
					<dim>1</dim>
					<dim>56</dim>
					<dim>1</dim>
					<dim>1</dim>
				</port>
			</output>
		</layer>
		<layer id="113" name="depthwise_conv2d_7" type="Add" version="opset1">
			<data auto_broadcast="numpy"/>
			<input>
				<port id="0" precision="FP16">
					<dim>1</dim>
					<dim>56</dim>
					<dim>16</dim>
					<dim>16</dim>
				</port>
				<port id="1" precision="FP16">
					<dim>1</dim>
					<dim>56</dim>
					<dim>1</dim>
					<dim>1</dim>
				</port>
			</input>
			<output>
				<port id="2" names="depthwise_conv2d_7:0" precision="FP16">
					<dim>1</dim>
					<dim>56</dim>
					<dim>16</dim>
					<dim>16</dim>
				</port>
			</output>
		</layer>
		<layer id="114" name="Conv2D_9/filter" type="Const" version="opset1">
			<data element_type="f16" offset="29098" shape="64, 56, 1, 1" size="7168"/>
			<output>
				<port id="0" names="Conv2D_9/filter:0" precision="FP16">
					<dim>64</dim>
					<dim>56</dim>
					<dim>1</dim>
					<dim>1</dim>
				</port>
			</output>
		</layer>
		<layer id="115" name="Conv2D_9" type="Convolution" version="opset1">
			<data auto_pad="valid" dilations="1, 1" pads_begin="0, 0" pads_end="0, 0" strides="1, 1"/>
			<input>
				<port id="0" precision="FP16">
					<dim>1</dim>
					<dim>56</dim>
					<dim>16</dim>
					<dim>16</dim>
				</port>
				<port id="1" precision="FP16">
					<dim>64</dim>
					<dim>56</dim>
					<dim>1</dim>
					<dim>1</dim>
				</port>
			</input>
			<output>
				<port id="2" names="Conv2D_9:0" precision="FP16">
					<dim>1</dim>
					<dim>64</dim>
					<dim>16</dim>
					<dim>16</dim>
				</port>
			</output>
		</layer>
		<layer id="116" name="conv2d_8_1/y" type="Const" version="opset1">
			<data element_type="f16" offset="36266" shape="1, 64, 1, 1" size="128"/>
			<output>
				<port id="0" names="conv2d_8_1/y:0" precision="FP16">
					<dim>1</dim>
					<dim>64</dim>
					<dim>1</dim>
					<dim>1</dim>
				</port>
			</output>
		</layer>
		<layer id="117" name="conv2d_8_1" type="Add" version="opset1">
			<data auto_broadcast="numpy"/>
			<input>
				<port id="0" precision="FP16">
					<dim>1</dim>
					<dim>64</dim>
					<dim>16</dim>
					<dim>16</dim>
				</port>
				<port id="1" precision="FP16">
					<dim>1</dim>
					<dim>64</dim>
					<dim>1</dim>
					<dim>1</dim>
				</port>
			</input>
			<output>
				<port id="2" names="conv2d_8_1:0" precision="FP16">
					<dim>1</dim>
					<dim>64</dim>
					<dim>16</dim>
					<dim>16</dim>
				</port>
			</output>
		</layer>
		<layer id="118" name="add_7__xeno_compat__1" type="Add" version="opset1">
			<data auto_broadcast="numpy"/>
			<input>
				<port id="0" precision="FP16">
					<dim>1</dim>
					<dim>64</dim>
					<dim>16</dim>
					<dim>16</dim>
				</port>
				<port id="1" precision="FP16">
					<dim>1</dim>
					<dim>64</dim>
					<dim>16</dim>
					<dim>16</dim>
				</port>
			</input>
			<output>
				<port id="2" names="add_7__xeno_compat__1:0" precision="FP16">
					<dim>1</dim>
					<dim>64</dim>
					<dim>16</dim>
					<dim>16</dim>
				</port>
			</output>
		</layer>
		<layer id="119" name="activation_8" type="ReLU" version="opset1">
			<input>
				<port id="0" precision="FP16">
					<dim>1</dim>
					<dim>64</dim>
					<dim>16</dim>
					<dim>16</dim>
				</port>
			</input>
			<output>
				<port id="1" names="activation_8:0" precision="FP16">
					<dim>1</dim>
					<dim>64</dim>
					<dim>16</dim>
					<dim>16</dim>
				</port>
			</output>
		</layer>
		<layer id="120" name="52408652" type="Const" version="opset1">
			<data element_type="i64" offset="5340" shape="4" size="32"/>
			<output>
				<port id="0" precision="I64">
					<dim>4</dim>
				</port>
			</output>
		</layer>
		<layer id="121" name="52468871" type="Const" version="opset1">
			<data element_type="i64" offset="21498" shape="4" size="32"/>
			<output>
				<port id="0" precision="I64">
					<dim>4</dim>
				</port>
			</output>
		</layer>
		<layer id="122" name="Constant_238" type="Const" version="opset1">
			<data element_type="f16" offset="5404" shape="" size="2"/>
			<output>
				<port id="0" precision="FP16"/>
			</output>
		</layer>
		<layer id="123" name="channel_padding_7" type="Pad" version="opset1">
			<data pad_mode="constant"/>
			<input>
				<port id="0" precision="FP16">
					<dim>1</dim>
					<dim>64</dim>
					<dim>16</dim>
					<dim>16</dim>
				</port>
				<port id="1" precision="I64">
					<dim>4</dim>
				</port>
				<port id="2" precision="I64">
					<dim>4</dim>
				</port>
				<port id="3" precision="FP16"/>
			</input>
			<output>
				<port id="4" names="channel_padding_7:0" precision="FP16">
					<dim>1</dim>
					<dim>72</dim>
					<dim>16</dim>
					<dim>16</dim>
				</port>
			</output>
		</layer>
		<layer id="124" name="depthwise_8/filter_in" type="Const" version="opset1">
			<data element_type="f16" offset="36394" shape="64, 1, 1, 3, 3" size="1152"/>
			<output>
				<port id="0" names="depthwise_8/filter_in:0" precision="FP16">
					<dim>64</dim>
					<dim>1</dim>
					<dim>1</dim>
					<dim>3</dim>
					<dim>3</dim>
				</port>
			</output>
		</layer>
		<layer id="125" name="depthwise_8" type="GroupConvolution" version="opset1">
			<data auto_pad="same_upper" dilations="1, 1" pads_begin="1, 1" pads_end="1, 1" strides="1, 1"/>
			<input>
				<port id="0" precision="FP16">
					<dim>1</dim>
					<dim>64</dim>
					<dim>16</dim>
					<dim>16</dim>
				</port>
				<port id="1" precision="FP16">
					<dim>64</dim>
					<dim>1</dim>
					<dim>1</dim>
					<dim>3</dim>
					<dim>3</dim>
				</port>
			</input>
			<output>
				<port id="2" names="depthwise_8:0" precision="FP16">
					<dim>1</dim>
					<dim>64</dim>
					<dim>16</dim>
					<dim>16</dim>
				</port>
			</output>
		</layer>
		<layer id="126" name="depthwise_conv2d_8/y" type="Const" version="opset1">
			<data element_type="f16" offset="37546" shape="1, 64, 1, 1" size="128"/>
			<output>
				<port id="0" names="depthwise_conv2d_8/y:0" precision="FP16">
					<dim>1</dim>
					<dim>64</dim>
					<dim>1</dim>
					<dim>1</dim>
				</port>
			</output>
		</layer>
		<layer id="127" name="depthwise_conv2d_8" type="Add" version="opset1">
			<data auto_broadcast="numpy"/>
			<input>
				<port id="0" precision="FP16">
					<dim>1</dim>
					<dim>64</dim>
					<dim>16</dim>
					<dim>16</dim>
				</port>
				<port id="1" precision="FP16">
					<dim>1</dim>
					<dim>64</dim>
					<dim>1</dim>
					<dim>1</dim>
				</port>
			</input>
			<output>
				<port id="2" names="depthwise_conv2d_8:0" precision="FP16">
					<dim>1</dim>
					<dim>64</dim>
					<dim>16</dim>
					<dim>16</dim>
				</port>
			</output>
		</layer>
		<layer id="128" name="Conv2D_10/filter" type="Const" version="opset1">
			<data element_type="f16" offset="37674" shape="72, 64, 1, 1" size="9216"/>
			<output>
				<port id="0" names="Conv2D_10/filter:0" precision="FP16">
					<dim>72</dim>
					<dim>64</dim>
					<dim>1</dim>
					<dim>1</dim>
				</port>
			</output>
		</layer>
		<layer id="129" name="Conv2D_10" type="Convolution" version="opset1">
			<data auto_pad="valid" dilations="1, 1" pads_begin="0, 0" pads_end="0, 0" strides="1, 1"/>
			<input>
				<port id="0" precision="FP16">
					<dim>1</dim>
					<dim>64</dim>
					<dim>16</dim>
					<dim>16</dim>
				</port>
				<port id="1" precision="FP16">
					<dim>72</dim>
					<dim>64</dim>
					<dim>1</dim>
					<dim>1</dim>
				</port>
			</input>
			<output>
				<port id="2" names="Conv2D_10:0" precision="FP16">
					<dim>1</dim>
					<dim>72</dim>
					<dim>16</dim>
					<dim>16</dim>
				</port>
			</output>
		</layer>
		<layer id="130" name="conv2d_9_1/y" type="Const" version="opset1">
			<data element_type="f16" offset="46890" shape="1, 72, 1, 1" size="144"/>
			<output>
				<port id="0" names="conv2d_9_1/y:0" precision="FP16">
					<dim>1</dim>
					<dim>72</dim>
					<dim>1</dim>
					<dim>1</dim>
				</port>
			</output>
		</layer>
		<layer id="131" name="conv2d_9_1" type="Add" version="opset1">
			<data auto_broadcast="numpy"/>
			<input>
				<port id="0" precision="FP16">
					<dim>1</dim>
					<dim>72</dim>
					<dim>16</dim>
					<dim>16</dim>
				</port>
				<port id="1" precision="FP16">
					<dim>1</dim>
					<dim>72</dim>
					<dim>1</dim>
					<dim>1</dim>
				</port>
			</input>
			<output>
				<port id="2" names="conv2d_9_1:0" precision="FP16">
					<dim>1</dim>
					<dim>72</dim>
					<dim>16</dim>
					<dim>16</dim>
				</port>
			</output>
		</layer>
		<layer id="132" name="add_8__xeno_compat__1" type="Add" version="opset1">
			<data auto_broadcast="numpy"/>
			<input>
				<port id="0" precision="FP16">
					<dim>1</dim>
					<dim>72</dim>
					<dim>16</dim>
					<dim>16</dim>
				</port>
				<port id="1" precision="FP16">
					<dim>1</dim>
					<dim>72</dim>
					<dim>16</dim>
					<dim>16</dim>
				</port>
			</input>
			<output>
				<port id="2" names="add_8__xeno_compat__1:0" precision="FP16">
					<dim>1</dim>
					<dim>72</dim>
					<dim>16</dim>
					<dim>16</dim>
				</port>
			</output>
		</layer>
		<layer id="133" name="activation_9" type="ReLU" version="opset1">
			<input>
				<port id="0" precision="FP16">
					<dim>1</dim>
					<dim>72</dim>
					<dim>16</dim>
					<dim>16</dim>
				</port>
			</input>
			<output>
				<port id="1" names="activation_9:0" precision="FP16">
					<dim>1</dim>
					<dim>72</dim>
					<dim>16</dim>
					<dim>16</dim>
				</port>
			</output>
		</layer>
		<layer id="134" name="52528838" type="Const" version="opset1">
			<data element_type="i64" offset="5340" shape="4" size="32"/>
			<output>
				<port id="0" precision="I64">
					<dim>4</dim>
				</port>
			</output>
		</layer>
		<layer id="135" name="52588775" type="Const" version="opset1">
			<data element_type="i64" offset="21498" shape="4" size="32"/>
			<output>
				<port id="0" precision="I64">
					<dim>4</dim>
				</port>
			</output>
		</layer>
		<layer id="136" name="Constant_265" type="Const" version="opset1">
			<data element_type="f16" offset="5404" shape="" size="2"/>
			<output>
				<port id="0" precision="FP16"/>
			</output>
		</layer>
		<layer id="137" name="channel_padding_8" type="Pad" version="opset1">
			<data pad_mode="constant"/>
			<input>
				<port id="0" precision="FP16">
					<dim>1</dim>
					<dim>72</dim>
					<dim>16</dim>
					<dim>16</dim>
				</port>
				<port id="1" precision="I64">
					<dim>4</dim>
				</port>
				<port id="2" precision="I64">
					<dim>4</dim>
				</port>
				<port id="3" precision="FP16"/>
			</input>
			<output>
				<port id="4" names="channel_padding_8:0" precision="FP16">
					<dim>1</dim>
					<dim>80</dim>
					<dim>16</dim>
					<dim>16</dim>
				</port>
			</output>
		</layer>
		<layer id="138" name="depthwise_9/filter_in" type="Const" version="opset1">
			<data element_type="f16" offset="47034" shape="72, 1, 1, 3, 3" size="1296"/>
			<output>
				<port id="0" names="depthwise_9/filter_in:0" precision="FP16">
					<dim>72</dim>
					<dim>1</dim>
					<dim>1</dim>
					<dim>3</dim>
					<dim>3</dim>
				</port>
			</output>
		</layer>
		<layer id="139" name="depthwise_9" type="GroupConvolution" version="opset1">
			<data auto_pad="same_upper" dilations="1, 1" pads_begin="1, 1" pads_end="1, 1" strides="1, 1"/>
			<input>
				<port id="0" precision="FP16">
					<dim>1</dim>
					<dim>72</dim>
					<dim>16</dim>
					<dim>16</dim>
				</port>
				<port id="1" precision="FP16">
					<dim>72</dim>
					<dim>1</dim>
					<dim>1</dim>
					<dim>3</dim>
					<dim>3</dim>
				</port>
			</input>
			<output>
				<port id="2" names="depthwise_9:0" precision="FP16">
					<dim>1</dim>
					<dim>72</dim>
					<dim>16</dim>
					<dim>16</dim>
				</port>
			</output>
		</layer>
		<layer id="140" name="depthwise_conv2d_9/y" type="Const" version="opset1">
			<data element_type="f16" offset="48330" shape="1, 72, 1, 1" size="144"/>
			<output>
				<port id="0" names="depthwise_conv2d_9/y:0" precision="FP16">
					<dim>1</dim>
					<dim>72</dim>
					<dim>1</dim>
					<dim>1</dim>
				</port>
			</output>
		</layer>
		<layer id="141" name="depthwise_conv2d_9" type="Add" version="opset1">
			<data auto_broadcast="numpy"/>
			<input>
				<port id="0" precision="FP16">
					<dim>1</dim>
					<dim>72</dim>
					<dim>16</dim>
					<dim>16</dim>
				</port>
				<port id="1" precision="FP16">
					<dim>1</dim>
					<dim>72</dim>
					<dim>1</dim>
					<dim>1</dim>
				</port>
			</input>
			<output>
				<port id="2" names="depthwise_conv2d_9:0" precision="FP16">
					<dim>1</dim>
					<dim>72</dim>
					<dim>16</dim>
					<dim>16</dim>
				</port>
			</output>
		</layer>
		<layer id="142" name="Conv2D_11/filter" type="Const" version="opset1">
			<data element_type="f16" offset="48474" shape="80, 72, 1, 1" size="11520"/>
			<output>
				<port id="0" names="Conv2D_11/filter:0" precision="FP16">
					<dim>80</dim>
					<dim>72</dim>
					<dim>1</dim>
					<dim>1</dim>
				</port>
			</output>
		</layer>
		<layer id="143" name="Conv2D_11" type="Convolution" version="opset1">
			<data auto_pad="valid" dilations="1, 1" pads_begin="0, 0" pads_end="0, 0" strides="1, 1"/>
			<input>
				<port id="0" precision="FP16">
					<dim>1</dim>
					<dim>72</dim>
					<dim>16</dim>
					<dim>16</dim>
				</port>
				<port id="1" precision="FP16">
					<dim>80</dim>
					<dim>72</dim>
					<dim>1</dim>
					<dim>1</dim>
				</port>
			</input>
			<output>
				<port id="2" names="Conv2D_11:0" precision="FP16">
					<dim>1</dim>
					<dim>80</dim>
					<dim>16</dim>
					<dim>16</dim>
				</port>
			</output>
		</layer>
		<layer id="144" name="conv2d_10_1/y" type="Const" version="opset1">
			<data element_type="f16" offset="59994" shape="1, 80, 1, 1" size="160"/>
			<output>
				<port id="0" names="conv2d_10_1/y:0" precision="FP16">
					<dim>1</dim>
					<dim>80</dim>
					<dim>1</dim>
					<dim>1</dim>
				</port>
			</output>
		</layer>
		<layer id="145" name="conv2d_10_1" type="Add" version="opset1">
			<data auto_broadcast="numpy"/>
			<input>
				<port id="0" precision="FP16">
					<dim>1</dim>
					<dim>80</dim>
					<dim>16</dim>
					<dim>16</dim>
				</port>
				<port id="1" precision="FP16">
					<dim>1</dim>
					<dim>80</dim>
					<dim>1</dim>
					<dim>1</dim>
				</port>
			</input>
			<output>
				<port id="2" names="conv2d_10_1:0" precision="FP16">
					<dim>1</dim>
					<dim>80</dim>
					<dim>16</dim>
					<dim>16</dim>
				</port>
			</output>
		</layer>
		<layer id="146" name="add_9__xeno_compat__1" type="Add" version="opset1">
			<data auto_broadcast="numpy"/>
			<input>
				<port id="0" precision="FP16">
					<dim>1</dim>
					<dim>80</dim>
					<dim>16</dim>
					<dim>16</dim>
				</port>
				<port id="1" precision="FP16">
					<dim>1</dim>
					<dim>80</dim>
					<dim>16</dim>
					<dim>16</dim>
				</port>
			</input>
			<output>
				<port id="2" names="add_9__xeno_compat__1:0" precision="FP16">
					<dim>1</dim>
					<dim>80</dim>
					<dim>16</dim>
					<dim>16</dim>
				</port>
			</output>
		</layer>
		<layer id="147" name="activation_10" type="ReLU" version="opset1">
			<input>
				<port id="0" precision="FP16">
					<dim>1</dim>
					<dim>80</dim>
					<dim>16</dim>
					<dim>16</dim>
				</port>
			</input>
			<output>
				<port id="1" names="activation_10:0" precision="FP16">
					<dim>1</dim>
					<dim>80</dim>
					<dim>16</dim>
					<dim>16</dim>
				</port>
			</output>
		</layer>
		<layer id="148" name="52648796" type="Const" version="opset1">
			<data element_type="i64" offset="5340" shape="4" size="32"/>
			<output>
				<port id="0" precision="I64">
					<dim>4</dim>
				</port>
			</output>
		</layer>
		<layer id="149" name="52708874" type="Const" version="opset1">
			<data element_type="i64" offset="21498" shape="4" size="32"/>
			<output>
				<port id="0" precision="I64">
					<dim>4</dim>
				</port>
			</output>
		</layer>
		<layer id="150" name="Constant_292" type="Const" version="opset1">
			<data element_type="f16" offset="5404" shape="" size="2"/>
			<output>
				<port id="0" precision="FP16"/>
			</output>
		</layer>
		<layer id="151" name="channel_padding_9" type="Pad" version="opset1">
			<data pad_mode="constant"/>
			<input>
				<port id="0" precision="FP16">
					<dim>1</dim>
					<dim>80</dim>
					<dim>16</dim>
					<dim>16</dim>
				</port>
				<port id="1" precision="I64">
					<dim>4</dim>
				</port>
				<port id="2" precision="I64">
					<dim>4</dim>
				</port>
				<port id="3" precision="FP16"/>
			</input>
			<output>
				<port id="4" names="channel_padding_9:0" precision="FP16">
					<dim>1</dim>
					<dim>88</dim>
					<dim>16</dim>
					<dim>16</dim>
				</port>
			</output>
		</layer>
		<layer id="152" name="depthwise_10/filter_in" type="Const" version="opset1">
			<data element_type="f16" offset="60154" shape="80, 1, 1, 3, 3" size="1440"/>
			<output>
				<port id="0" names="depthwise_10/filter_in:0" precision="FP16">
					<dim>80</dim>
					<dim>1</dim>
					<dim>1</dim>
					<dim>3</dim>
					<dim>3</dim>
				</port>
			</output>
		</layer>
		<layer id="153" name="depthwise_10" type="GroupConvolution" version="opset1">
			<data auto_pad="same_upper" dilations="1, 1" pads_begin="1, 1" pads_end="1, 1" strides="1, 1"/>
			<input>
				<port id="0" precision="FP16">
					<dim>1</dim>
					<dim>80</dim>
					<dim>16</dim>
					<dim>16</dim>
				</port>
				<port id="1" precision="FP16">
					<dim>80</dim>
					<dim>1</dim>
					<dim>1</dim>
					<dim>3</dim>
					<dim>3</dim>
				</port>
			</input>
			<output>
				<port id="2" names="depthwise_10:0" precision="FP16">
					<dim>1</dim>
					<dim>80</dim>
					<dim>16</dim>
					<dim>16</dim>
				</port>
			</output>
		</layer>
		<layer id="154" name="depthwise_conv2d_10/y" type="Const" version="opset1">
			<data element_type="f16" offset="61594" shape="1, 80, 1, 1" size="160"/>
			<output>
				<port id="0" names="depthwise_conv2d_10/y:0" precision="FP16">
					<dim>1</dim>
					<dim>80</dim>
					<dim>1</dim>
					<dim>1</dim>
				</port>
			</output>
		</layer>
		<layer id="155" name="depthwise_conv2d_10" type="Add" version="opset1">
			<data auto_broadcast="numpy"/>
			<input>
				<port id="0" precision="FP16">
					<dim>1</dim>
					<dim>80</dim>
					<dim>16</dim>
					<dim>16</dim>
				</port>
				<port id="1" precision="FP16">
					<dim>1</dim>
					<dim>80</dim>
					<dim>1</dim>
					<dim>1</dim>
				</port>
			</input>
			<output>
				<port id="2" names="depthwise_conv2d_10:0" precision="FP16">
					<dim>1</dim>
					<dim>80</dim>
					<dim>16</dim>
					<dim>16</dim>
				</port>
			</output>
		</layer>
		<layer id="156" name="Conv2D_12/filter" type="Const" version="opset1">
			<data element_type="f16" offset="61754" shape="88, 80, 1, 1" size="14080"/>
			<output>
				<port id="0" names="Conv2D_12/filter:0" precision="FP16">
					<dim>88</dim>
					<dim>80</dim>
					<dim>1</dim>
					<dim>1</dim>
				</port>
			</output>
		</layer>
		<layer id="157" name="Conv2D_12" type="Convolution" version="opset1">
			<data auto_pad="valid" dilations="1, 1" pads_begin="0, 0" pads_end="0, 0" strides="1, 1"/>
			<input>
				<port id="0" precision="FP16">
					<dim>1</dim>
					<dim>80</dim>
					<dim>16</dim>
					<dim>16</dim>
				</port>
				<port id="1" precision="FP16">
					<dim>88</dim>
					<dim>80</dim>
					<dim>1</dim>
					<dim>1</dim>
				</port>
			</input>
			<output>
				<port id="2" names="Conv2D_12:0" precision="FP16">
					<dim>1</dim>
					<dim>88</dim>
					<dim>16</dim>
					<dim>16</dim>
				</port>
			</output>
		</layer>
		<layer id="158" name="conv2d_11_1/y" type="Const" version="opset1">
			<data element_type="f16" offset="75834" shape="1, 88, 1, 1" size="176"/>
			<output>
				<port id="0" names="conv2d_11_1/y:0" precision="FP16">
					<dim>1</dim>
					<dim>88</dim>
					<dim>1</dim>
					<dim>1</dim>
				</port>
			</output>
		</layer>
		<layer id="159" name="conv2d_11_1" type="Add" version="opset1">
			<data auto_broadcast="numpy"/>
			<input>
				<port id="0" precision="FP16">
					<dim>1</dim>
					<dim>88</dim>
					<dim>16</dim>
					<dim>16</dim>
				</port>
				<port id="1" precision="FP16">
					<dim>1</dim>
					<dim>88</dim>
					<dim>1</dim>
					<dim>1</dim>
				</port>
			</input>
			<output>
				<port id="2" names="conv2d_11_1:0" precision="FP16">
					<dim>1</dim>
					<dim>88</dim>
					<dim>16</dim>
					<dim>16</dim>
				</port>
			</output>
		</layer>
		<layer id="160" name="add_10__xeno_compat__1" type="Add" version="opset1">
			<data auto_broadcast="numpy"/>
			<input>
				<port id="0" precision="FP16">
					<dim>1</dim>
					<dim>88</dim>
					<dim>16</dim>
					<dim>16</dim>
				</port>
				<port id="1" precision="FP16">
					<dim>1</dim>
					<dim>88</dim>
					<dim>16</dim>
					<dim>16</dim>
				</port>
			</input>
			<output>
				<port id="2" names="add_10__xeno_compat__1:0" precision="FP16">
					<dim>1</dim>
					<dim>88</dim>
					<dim>16</dim>
					<dim>16</dim>
				</port>
			</output>
		</layer>
		<layer id="161" name="activation_11" type="ReLU" version="opset1">
			<input>
				<port id="0" precision="FP16">
					<dim>1</dim>
					<dim>88</dim>
					<dim>16</dim>
					<dim>16</dim>
				</port>
			</input>
			<output>
				<port id="1" names="activation_11:0" precision="FP16">
					<dim>1</dim>
					<dim>88</dim>
					<dim>16</dim>
					<dim>16</dim>
				</port>
			</output>
		</layer>
		<layer id="162" name="Conv2D_20/filter" type="Const" version="opset1">
			<data element_type="f16" offset="76010" shape="32, 88, 1, 1" size="5632"/>
			<output>
				<port id="0" names="Conv2D_20/filter:0" precision="FP16">
					<dim>32</dim>
					<dim>88</dim>
					<dim>1</dim>
					<dim>1</dim>
				</port>
			</output>
		</layer>
		<layer id="163" name="Conv2D_20" type="Convolution" version="opset1">
			<data auto_pad="same_upper" dilations="1, 1" pads_begin="0, 0" pads_end="0, 0" strides="1, 1"/>
			<input>
				<port id="0" precision="FP16">
					<dim>1</dim>
					<dim>88</dim>
					<dim>16</dim>
					<dim>16</dim>
				</port>
				<port id="1" precision="FP16">
					<dim>32</dim>
					<dim>88</dim>
					<dim>1</dim>
					<dim>1</dim>
				</port>
			</input>
			<output>
				<port id="2" names="Conv2D_20:0" precision="FP16">
					<dim>1</dim>
					<dim>32</dim>
					<dim>16</dim>
					<dim>16</dim>
				</port>
			</output>
		</layer>
		<layer id="164" name="regressor_8/y" type="Const" version="opset1">
			<data element_type="f16" offset="81642" shape="1, 32, 1, 1" size="64"/>
			<output>
				<port id="0" names="regressor_8/y:0" precision="FP16">
					<dim>1</dim>
					<dim>32</dim>
					<dim>1</dim>
					<dim>1</dim>
				</port>
			</output>
		</layer>
		<layer id="165" name="regressor_8" type="Add" version="opset1">
			<data auto_broadcast="numpy"/>
			<input>
				<port id="0" precision="FP16">
					<dim>1</dim>
					<dim>32</dim>
					<dim>16</dim>
					<dim>16</dim>
				</port>
				<port id="1" precision="FP16">
					<dim>1</dim>
					<dim>32</dim>
					<dim>1</dim>
					<dim>1</dim>
				</port>
			</input>
			<output>
				<port id="2" precision="FP16">
					<dim>1</dim>
					<dim>32</dim>
					<dim>16</dim>
					<dim>16</dim>
				</port>
			</output>
		</layer>
		<layer id="166" name="regressor_8/Transpose/value47858832" type="Const" version="opset1">
			<data element_type="i64" offset="81706" shape="4" size="32"/>
			<output>
				<port id="0" precision="I64">
					<dim>4</dim>
				</port>
			</output>
		</layer>
		<layer id="167" name="regressor_8/Transpose" type="Transpose" version="opset1">
			<input>
				<port id="0" precision="FP16">
					<dim>1</dim>
					<dim>32</dim>
					<dim>16</dim>
					<dim>16</dim>
				</port>
				<port id="1" precision="I64">
					<dim>4</dim>
				</port>
			</input>
			<output>
				<port id="2" names="regressor_8:0" precision="FP16">
					<dim>1</dim>
					<dim>16</dim>
					<dim>16</dim>
					<dim>32</dim>
				</port>
			</output>
		</layer>
		<layer id="168" name="reshape_1/shape" type="Const" version="opset1">
			<data element_type="i64" offset="81738" shape="3" size="24"/>
			<output>
				<port id="0" names="reshape_1/shape:0" precision="I64">
					<dim>3</dim>
				</port>
			</output>
		</layer>
		<layer id="169" name="reshape_1" type="Reshape" version="opset1">
			<data special_zero="false"/>
			<input>
				<port id="0" precision="FP16">
					<dim>1</dim>
					<dim>16</dim>
					<dim>16</dim>
					<dim>32</dim>
				</port>
				<port id="1" precision="I64">
					<dim>3</dim>
				</port>
			</input>
			<output>
				<port id="2" names="reshape_1:0" precision="FP16">
					<dim>1</dim>
					<dim>512</dim>
					<dim>16</dim>
				</port>
			</output>
		</layer>
		<layer id="170" name="max_pooling2d_2" type="MaxPool" version="opset1">
			<data auto_pad="same_upper" kernel="2, 2" pads_begin="0, 0" pads_end="0, 0" rounding_type="floor" strides="2, 2"/>
			<input>
				<port id="0" precision="FP16">
					<dim>1</dim>
					<dim>88</dim>
					<dim>16</dim>
					<dim>16</dim>
				</port>
			</input>
			<output>
				<port id="1" names="max_pooling2d_2:0" precision="FP16">
					<dim>1</dim>
					<dim>88</dim>
					<dim>8</dim>
					<dim>8</dim>
				</port>
			</output>
		</layer>
		<layer id="171" name="52768703" type="Const" version="opset1">
			<data element_type="i64" offset="5340" shape="4" size="32"/>
			<output>
				<port id="0" precision="I64">
					<dim>4</dim>
				</port>
			</output>
		</layer>
		<layer id="172" name="52828835" type="Const" version="opset1">
			<data element_type="i64" offset="21498" shape="4" size="32"/>
			<output>
				<port id="0" precision="I64">
					<dim>4</dim>
				</port>
			</output>
		</layer>
		<layer id="173" name="Constant_341" type="Const" version="opset1">
			<data element_type="f16" offset="5404" shape="" size="2"/>
			<output>
				<port id="0" precision="FP16"/>
			</output>
		</layer>
		<layer id="174" name="channel_padding_10" type="Pad" version="opset1">
			<data pad_mode="constant"/>
			<input>
				<port id="0" precision="FP16">
					<dim>1</dim>
					<dim>88</dim>
					<dim>8</dim>
					<dim>8</dim>
				</port>
				<port id="1" precision="I64">
					<dim>4</dim>
				</port>
				<port id="2" precision="I64">
					<dim>4</dim>
				</port>
				<port id="3" precision="FP16"/>
			</input>
			<output>
				<port id="4" names="channel_padding_10:0" precision="FP16">
					<dim>1</dim>
					<dim>96</dim>
					<dim>8</dim>
					<dim>8</dim>
				</port>
			</output>
		</layer>
		<layer id="175" name="depthwise_11/filter_in" type="Const" version="opset1">
			<data element_type="f16" offset="81762" shape="88, 1, 1, 3, 3" size="1584"/>
			<output>
				<port id="0" names="depthwise_11/filter_in:0" precision="FP16">
					<dim>88</dim>
					<dim>1</dim>
					<dim>1</dim>
					<dim>3</dim>
					<dim>3</dim>
				</port>
			</output>
		</layer>
		<layer id="176" name="depthwise_11" type="GroupConvolution" version="opset1">
			<data auto_pad="same_upper" dilations="1, 1" pads_begin="0, 0" pads_end="1, 1" strides="2, 2"/>
			<input>
				<port id="0" precision="FP16">
					<dim>1</dim>
					<dim>88</dim>
					<dim>16</dim>
					<dim>16</dim>
				</port>
				<port id="1" precision="FP16">
					<dim>88</dim>
					<dim>1</dim>
					<dim>1</dim>
					<dim>3</dim>
					<dim>3</dim>
				</port>
			</input>
			<output>
				<port id="2" names="depthwise_11:0" precision="FP16">
					<dim>1</dim>
					<dim>88</dim>
					<dim>8</dim>
					<dim>8</dim>
				</port>
			</output>
		</layer>
		<layer id="177" name="depthwise_conv2d_11/y" type="Const" version="opset1">
			<data element_type="f16" offset="83346" shape="1, 88, 1, 1" size="176"/>
			<output>
				<port id="0" names="depthwise_conv2d_11/y:0" precision="FP16">
					<dim>1</dim>
					<dim>88</dim>
					<dim>1</dim>
					<dim>1</dim>
				</port>
			</output>
		</layer>
		<layer id="178" name="depthwise_conv2d_11" type="Add" version="opset1">
			<data auto_broadcast="numpy"/>
			<input>
				<port id="0" precision="FP16">
					<dim>1</dim>
					<dim>88</dim>
					<dim>8</dim>
					<dim>8</dim>
				</port>
				<port id="1" precision="FP16">
					<dim>1</dim>
					<dim>88</dim>
					<dim>1</dim>
					<dim>1</dim>
				</port>
			</input>
			<output>
				<port id="2" names="depthwise_conv2d_11:0" precision="FP16">
					<dim>1</dim>
					<dim>88</dim>
					<dim>8</dim>
					<dim>8</dim>
				</port>
			</output>
		</layer>
		<layer id="179" name="Conv2D_13/filter" type="Const" version="opset1">
			<data element_type="f16" offset="83522" shape="96, 88, 1, 1" size="16896"/>
			<output>
				<port id="0" names="Conv2D_13/filter:0" precision="FP16">
					<dim>96</dim>
					<dim>88</dim>
					<dim>1</dim>
					<dim>1</dim>
				</port>
			</output>
		</layer>
		<layer id="180" name="Conv2D_13" type="Convolution" version="opset1">
			<data auto_pad="valid" dilations="1, 1" pads_begin="0, 0" pads_end="0, 0" strides="1, 1"/>
			<input>
				<port id="0" precision="FP16">
					<dim>1</dim>
					<dim>88</dim>
					<dim>8</dim>
					<dim>8</dim>
				</port>
				<port id="1" precision="FP16">
					<dim>96</dim>
					<dim>88</dim>
					<dim>1</dim>
					<dim>1</dim>
				</port>
			</input>
			<output>
				<port id="2" names="Conv2D_13:0" precision="FP16">
					<dim>1</dim>
					<dim>96</dim>
					<dim>8</dim>
					<dim>8</dim>
				</port>
			</output>
		</layer>
		<layer id="181" name="conv2d_12_1/y" type="Const" version="opset1">
			<data element_type="f16" offset="100418" shape="1, 96, 1, 1" size="192"/>
			<output>
				<port id="0" names="conv2d_12_1/y:0" precision="FP16">
					<dim>1</dim>
					<dim>96</dim>
					<dim>1</dim>
					<dim>1</dim>
				</port>
			</output>
		</layer>
		<layer id="182" name="conv2d_12_1" type="Add" version="opset1">
			<data auto_broadcast="numpy"/>
			<input>
				<port id="0" precision="FP16">
					<dim>1</dim>
					<dim>96</dim>
					<dim>8</dim>
					<dim>8</dim>
				</port>
				<port id="1" precision="FP16">
					<dim>1</dim>
					<dim>96</dim>
					<dim>1</dim>
					<dim>1</dim>
				</port>
			</input>
			<output>
				<port id="2" names="conv2d_12_1:0" precision="FP16">
					<dim>1</dim>
					<dim>96</dim>
					<dim>8</dim>
					<dim>8</dim>
				</port>
			</output>
		</layer>
		<layer id="183" name="add_11__xeno_compat__1" type="Add" version="opset1">
			<data auto_broadcast="numpy"/>
			<input>
				<port id="0" precision="FP16">
					<dim>1</dim>
					<dim>96</dim>
					<dim>8</dim>
					<dim>8</dim>
				</port>
				<port id="1" precision="FP16">
					<dim>1</dim>
					<dim>96</dim>
					<dim>8</dim>
					<dim>8</dim>
				</port>
			</input>
			<output>
				<port id="2" names="add_11__xeno_compat__1:0" precision="FP16">
					<dim>1</dim>
					<dim>96</dim>
					<dim>8</dim>
					<dim>8</dim>
				</port>
			</output>
		</layer>
		<layer id="184" name="activation_12" type="ReLU" version="opset1">
			<input>
				<port id="0" precision="FP16">
					<dim>1</dim>
					<dim>96</dim>
					<dim>8</dim>
					<dim>8</dim>
				</port>
			</input>
			<output>
				<port id="1" names="activation_12:0" precision="FP16">
					<dim>1</dim>
					<dim>96</dim>
					<dim>8</dim>
					<dim>8</dim>
				</port>
			</output>
		</layer>
		<layer id="185" name="depthwise_12/filter_in" type="Const" version="opset1">
			<data element_type="f16" offset="100610" shape="96, 1, 1, 3, 3" size="1728"/>
			<output>
				<port id="0" names="depthwise_12/filter_in:0" precision="FP16">
					<dim>96</dim>
					<dim>1</dim>
					<dim>1</dim>
					<dim>3</dim>
					<dim>3</dim>
				</port>
			</output>
		</layer>
		<layer id="186" name="depthwise_12" type="GroupConvolution" version="opset1">
			<data auto_pad="same_upper" dilations="1, 1" pads_begin="1, 1" pads_end="1, 1" strides="1, 1"/>
			<input>
				<port id="0" precision="FP16">
					<dim>1</dim>
					<dim>96</dim>
					<dim>8</dim>
					<dim>8</dim>
				</port>
				<port id="1" precision="FP16">
					<dim>96</dim>
					<dim>1</dim>
					<dim>1</dim>
					<dim>3</dim>
					<dim>3</dim>
				</port>
			</input>
			<output>
				<port id="2" names="depthwise_12:0" precision="FP16">
					<dim>1</dim>
					<dim>96</dim>
					<dim>8</dim>
					<dim>8</dim>
				</port>
			</output>
		</layer>
		<layer id="187" name="depthwise_conv2d_12/y" type="Const" version="opset1">
			<data element_type="f16" offset="102338" shape="1, 96, 1, 1" size="192"/>
			<output>
				<port id="0" names="depthwise_conv2d_12/y:0" precision="FP16">
					<dim>1</dim>
					<dim>96</dim>
					<dim>1</dim>
					<dim>1</dim>
				</port>
			</output>
		</layer>
		<layer id="188" name="depthwise_conv2d_12" type="Add" version="opset1">
			<data auto_broadcast="numpy"/>
			<input>
				<port id="0" precision="FP16">
					<dim>1</dim>
					<dim>96</dim>
					<dim>8</dim>
					<dim>8</dim>
				</port>
				<port id="1" precision="FP16">
					<dim>1</dim>
					<dim>96</dim>
					<dim>1</dim>
					<dim>1</dim>
				</port>
			</input>
			<output>
				<port id="2" names="depthwise_conv2d_12:0" precision="FP16">
					<dim>1</dim>
					<dim>96</dim>
					<dim>8</dim>
					<dim>8</dim>
				</port>
			</output>
		</layer>
		<layer id="189" name="Conv2D_14/filter" type="Const" version="opset1">
			<data element_type="f16" offset="102530" shape="96, 96, 1, 1" size="18432"/>
			<output>
				<port id="0" names="Conv2D_14/filter:0" precision="FP16">
					<dim>96</dim>
					<dim>96</dim>
					<dim>1</dim>
					<dim>1</dim>
				</port>
			</output>
		</layer>
		<layer id="190" name="Conv2D_14" type="Convolution" version="opset1">
			<data auto_pad="valid" dilations="1, 1" pads_begin="0, 0" pads_end="0, 0" strides="1, 1"/>
			<input>
				<port id="0" precision="FP16">
					<dim>1</dim>
					<dim>96</dim>
					<dim>8</dim>
					<dim>8</dim>
				</port>
				<port id="1" precision="FP16">
					<dim>96</dim>
					<dim>96</dim>
					<dim>1</dim>
					<dim>1</dim>
				</port>
			</input>
			<output>
				<port id="2" names="Conv2D_14:0" precision="FP16">
					<dim>1</dim>
					<dim>96</dim>
					<dim>8</dim>
					<dim>8</dim>
				</port>
			</output>
		</layer>
		<layer id="191" name="conv2d_13_1/y" type="Const" version="opset1">
			<data element_type="f16" offset="120962" shape="1, 96, 1, 1" size="192"/>
			<output>
				<port id="0" names="conv2d_13_1/y:0" precision="FP16">
					<dim>1</dim>
					<dim>96</dim>
					<dim>1</dim>
					<dim>1</dim>
				</port>
			</output>
		</layer>
		<layer id="192" name="conv2d_13_1" type="Add" version="opset1">
			<data auto_broadcast="numpy"/>
			<input>
				<port id="0" precision="FP16">
					<dim>1</dim>
					<dim>96</dim>
					<dim>8</dim>
					<dim>8</dim>
				</port>
				<port id="1" precision="FP16">
					<dim>1</dim>
					<dim>96</dim>
					<dim>1</dim>
					<dim>1</dim>
				</port>
			</input>
			<output>
				<port id="2" names="conv2d_13_1:0" precision="FP16">
					<dim>1</dim>
					<dim>96</dim>
					<dim>8</dim>
					<dim>8</dim>
				</port>
			</output>
		</layer>
		<layer id="193" name="add_12__xeno_compat__1" type="Add" version="opset1">
			<data auto_broadcast="numpy"/>
			<input>
				<port id="0" precision="FP16">
					<dim>1</dim>
					<dim>96</dim>
					<dim>8</dim>
					<dim>8</dim>
				</port>
				<port id="1" precision="FP16">
					<dim>1</dim>
					<dim>96</dim>
					<dim>8</dim>
					<dim>8</dim>
				</port>
			</input>
			<output>
				<port id="2" names="add_12__xeno_compat__1:0" precision="FP16">
					<dim>1</dim>
					<dim>96</dim>
					<dim>8</dim>
					<dim>8</dim>
				</port>
			</output>
		</layer>
		<layer id="194" name="activation_13" type="ReLU" version="opset1">
			<input>
				<port id="0" precision="FP16">
					<dim>1</dim>
					<dim>96</dim>
					<dim>8</dim>
					<dim>8</dim>
				</port>
			</input>
			<output>
				<port id="1" names="activation_13:0" precision="FP16">
					<dim>1</dim>
					<dim>96</dim>
					<dim>8</dim>
					<dim>8</dim>
				</port>
			</output>
		</layer>
		<layer id="195" name="depthwise_13/filter_in" type="Const" version="opset1">
			<data element_type="f16" offset="121154" shape="96, 1, 1, 3, 3" size="1728"/>
			<output>
				<port id="0" names="depthwise_13/filter_in:0" precision="FP16">
					<dim>96</dim>
					<dim>1</dim>
					<dim>1</dim>
					<dim>3</dim>
					<dim>3</dim>
				</port>
			</output>
		</layer>
		<layer id="196" name="depthwise_13" type="GroupConvolution" version="opset1">
			<data auto_pad="same_upper" dilations="1, 1" pads_begin="1, 1" pads_end="1, 1" strides="1, 1"/>
			<input>
				<port id="0" precision="FP16">
					<dim>1</dim>
					<dim>96</dim>
					<dim>8</dim>
					<dim>8</dim>
				</port>
				<port id="1" precision="FP16">
					<dim>96</dim>
					<dim>1</dim>
					<dim>1</dim>
					<dim>3</dim>
					<dim>3</dim>
				</port>
			</input>
			<output>
				<port id="2" names="depthwise_13:0" precision="FP16">
					<dim>1</dim>
					<dim>96</dim>
					<dim>8</dim>
					<dim>8</dim>
				</port>
			</output>
		</layer>
		<layer id="197" name="depthwise_conv2d_13/y" type="Const" version="opset1">
			<data element_type="f16" offset="102338" shape="1, 96, 1, 1" size="192"/>
			<output>
				<port id="0" names="depthwise_conv2d_13/y:0" precision="FP16">
					<dim>1</dim>
					<dim>96</dim>
					<dim>1</dim>
					<dim>1</dim>
				</port>
			</output>
		</layer>
		<layer id="198" name="depthwise_conv2d_13" type="Add" version="opset1">
			<data auto_broadcast="numpy"/>
			<input>
				<port id="0" precision="FP16">
					<dim>1</dim>
					<dim>96</dim>
					<dim>8</dim>
					<dim>8</dim>
				</port>
				<port id="1" precision="FP16">
					<dim>1</dim>
					<dim>96</dim>
					<dim>1</dim>
					<dim>1</dim>
				</port>
			</input>
			<output>
				<port id="2" names="depthwise_conv2d_13:0" precision="FP16">
					<dim>1</dim>
					<dim>96</dim>
					<dim>8</dim>
					<dim>8</dim>
				</port>
			</output>
		</layer>
		<layer id="199" name="Conv2D_15/filter" type="Const" version="opset1">
			<data element_type="f16" offset="122882" shape="96, 96, 1, 1" size="18432"/>
			<output>
				<port id="0" names="Conv2D_15/filter:0" precision="FP16">
					<dim>96</dim>
					<dim>96</dim>
					<dim>1</dim>
					<dim>1</dim>
				</port>
			</output>
		</layer>
		<layer id="200" name="Conv2D_15" type="Convolution" version="opset1">
			<data auto_pad="valid" dilations="1, 1" pads_begin="0, 0" pads_end="0, 0" strides="1, 1"/>
			<input>
				<port id="0" precision="FP16">
					<dim>1</dim>
					<dim>96</dim>
					<dim>8</dim>
					<dim>8</dim>
				</port>
				<port id="1" precision="FP16">
					<dim>96</dim>
					<dim>96</dim>
					<dim>1</dim>
					<dim>1</dim>
				</port>
			</input>
			<output>
				<port id="2" names="Conv2D_15:0" precision="FP16">
					<dim>1</dim>
					<dim>96</dim>
					<dim>8</dim>
					<dim>8</dim>
				</port>
			</output>
		</layer>
		<layer id="201" name="conv2d_14_1/y" type="Const" version="opset1">
			<data element_type="f16" offset="141314" shape="1, 96, 1, 1" size="192"/>
			<output>
				<port id="0" names="conv2d_14_1/y:0" precision="FP16">
					<dim>1</dim>
					<dim>96</dim>
					<dim>1</dim>
					<dim>1</dim>
				</port>
			</output>
		</layer>
		<layer id="202" name="conv2d_14_1" type="Add" version="opset1">
			<data auto_broadcast="numpy"/>
			<input>
				<port id="0" precision="FP16">
					<dim>1</dim>
					<dim>96</dim>
					<dim>8</dim>
					<dim>8</dim>
				</port>
				<port id="1" precision="FP16">
					<dim>1</dim>
					<dim>96</dim>
					<dim>1</dim>
					<dim>1</dim>
				</port>
			</input>
			<output>
				<port id="2" names="conv2d_14_1:0" precision="FP16">
					<dim>1</dim>
					<dim>96</dim>
					<dim>8</dim>
					<dim>8</dim>
				</port>
			</output>
		</layer>
		<layer id="203" name="add_13__xeno_compat__1" type="Add" version="opset1">
			<data auto_broadcast="numpy"/>
			<input>
				<port id="0" precision="FP16">
					<dim>1</dim>
					<dim>96</dim>
					<dim>8</dim>
					<dim>8</dim>
				</port>
				<port id="1" precision="FP16">
					<dim>1</dim>
					<dim>96</dim>
					<dim>8</dim>
					<dim>8</dim>
				</port>
			</input>
			<output>
				<port id="2" names="add_13__xeno_compat__1:0" precision="FP16">
					<dim>1</dim>
					<dim>96</dim>
					<dim>8</dim>
					<dim>8</dim>
				</port>
			</output>
		</layer>
		<layer id="204" name="activation_14" type="ReLU" version="opset1">
			<input>
				<port id="0" precision="FP16">
					<dim>1</dim>
					<dim>96</dim>
					<dim>8</dim>
					<dim>8</dim>
				</port>
			</input>
			<output>
				<port id="1" names="activation_14:0" precision="FP16">
					<dim>1</dim>
					<dim>96</dim>
					<dim>8</dim>
					<dim>8</dim>
				</port>
			</output>
		</layer>
		<layer id="205" name="depthwise_14/filter_in" type="Const" version="opset1">
			<data element_type="f16" offset="141506" shape="96, 1, 1, 3, 3" size="1728"/>
			<output>
				<port id="0" names="depthwise_14/filter_in:0" precision="FP16">
					<dim>96</dim>
					<dim>1</dim>
					<dim>1</dim>
					<dim>3</dim>
					<dim>3</dim>
				</port>
			</output>
		</layer>
		<layer id="206" name="depthwise_14" type="GroupConvolution" version="opset1">
			<data auto_pad="same_upper" dilations="1, 1" pads_begin="1, 1" pads_end="1, 1" strides="1, 1"/>
			<input>
				<port id="0" precision="FP16">
					<dim>1</dim>
					<dim>96</dim>
					<dim>8</dim>
					<dim>8</dim>
				</port>
				<port id="1" precision="FP16">
					<dim>96</dim>
					<dim>1</dim>
					<dim>1</dim>
					<dim>3</dim>
					<dim>3</dim>
				</port>
			</input>
			<output>
				<port id="2" names="depthwise_14:0" precision="FP16">
					<dim>1</dim>
					<dim>96</dim>
					<dim>8</dim>
					<dim>8</dim>
				</port>
			</output>
		</layer>
		<layer id="207" name="depthwise_conv2d_14/y" type="Const" version="opset1">
			<data element_type="f16" offset="102338" shape="1, 96, 1, 1" size="192"/>
			<output>
				<port id="0" names="depthwise_conv2d_14/y:0" precision="FP16">
					<dim>1</dim>
					<dim>96</dim>
					<dim>1</dim>
					<dim>1</dim>
				</port>
			</output>
		</layer>
		<layer id="208" name="depthwise_conv2d_14" type="Add" version="opset1">
			<data auto_broadcast="numpy"/>
			<input>
				<port id="0" precision="FP16">
					<dim>1</dim>
					<dim>96</dim>
					<dim>8</dim>
					<dim>8</dim>
				</port>
				<port id="1" precision="FP16">
					<dim>1</dim>
					<dim>96</dim>
					<dim>1</dim>
					<dim>1</dim>
				</port>
			</input>
			<output>
				<port id="2" names="depthwise_conv2d_14:0" precision="FP16">
					<dim>1</dim>
					<dim>96</dim>
					<dim>8</dim>
					<dim>8</dim>
				</port>
			</output>
		</layer>
		<layer id="209" name="Conv2D_16/filter" type="Const" version="opset1">
			<data element_type="f16" offset="143234" shape="96, 96, 1, 1" size="18432"/>
			<output>
				<port id="0" names="Conv2D_16/filter:0" precision="FP16">
					<dim>96</dim>
					<dim>96</dim>
					<dim>1</dim>
					<dim>1</dim>
				</port>
			</output>
		</layer>
		<layer id="210" name="Conv2D_16" type="Convolution" version="opset1">
			<data auto_pad="valid" dilations="1, 1" pads_begin="0, 0" pads_end="0, 0" strides="1, 1"/>
			<input>
				<port id="0" precision="FP16">
					<dim>1</dim>
					<dim>96</dim>
					<dim>8</dim>
					<dim>8</dim>
				</port>
				<port id="1" precision="FP16">
					<dim>96</dim>
					<dim>96</dim>
					<dim>1</dim>
					<dim>1</dim>
				</port>
			</input>
			<output>
				<port id="2" names="Conv2D_16:0" precision="FP16">
					<dim>1</dim>
					<dim>96</dim>
					<dim>8</dim>
					<dim>8</dim>
				</port>
			</output>
		</layer>
		<layer id="211" name="conv2d_15_1/y" type="Const" version="opset1">
			<data element_type="f16" offset="161666" shape="1, 96, 1, 1" size="192"/>
			<output>
				<port id="0" names="conv2d_15_1/y:0" precision="FP16">
					<dim>1</dim>
					<dim>96</dim>
					<dim>1</dim>
					<dim>1</dim>
				</port>
			</output>
		</layer>
		<layer id="212" name="conv2d_15_1" type="Add" version="opset1">
			<data auto_broadcast="numpy"/>
			<input>
				<port id="0" precision="FP16">
					<dim>1</dim>
					<dim>96</dim>
					<dim>8</dim>
					<dim>8</dim>
				</port>
				<port id="1" precision="FP16">
					<dim>1</dim>
					<dim>96</dim>
					<dim>1</dim>
					<dim>1</dim>
				</port>
			</input>
			<output>
				<port id="2" names="conv2d_15_1:0" precision="FP16">
					<dim>1</dim>
					<dim>96</dim>
					<dim>8</dim>
					<dim>8</dim>
				</port>
			</output>
		</layer>
		<layer id="213" name="add_14__xeno_compat__1" type="Add" version="opset1">
			<data auto_broadcast="numpy"/>
			<input>
				<port id="0" precision="FP16">
					<dim>1</dim>
					<dim>96</dim>
					<dim>8</dim>
					<dim>8</dim>
				</port>
				<port id="1" precision="FP16">
					<dim>1</dim>
					<dim>96</dim>
					<dim>8</dim>
					<dim>8</dim>
				</port>
			</input>
			<output>
				<port id="2" names="add_14__xeno_compat__1:0" precision="FP16">
					<dim>1</dim>
					<dim>96</dim>
					<dim>8</dim>
					<dim>8</dim>
				</port>
			</output>
		</layer>
		<layer id="214" name="activation_15" type="ReLU" version="opset1">
			<input>
				<port id="0" precision="FP16">
					<dim>1</dim>
					<dim>96</dim>
					<dim>8</dim>
					<dim>8</dim>
				</port>
			</input>
			<output>
				<port id="1" names="activation_15:0" precision="FP16">
					<dim>1</dim>
					<dim>96</dim>
					<dim>8</dim>
					<dim>8</dim>
				</port>
			</output>
		</layer>
		<layer id="215" name="depthwise_15/filter_in" type="Const" version="opset1">
			<data element_type="f16" offset="161858" shape="96, 1, 1, 3, 3" size="1728"/>
			<output>
				<port id="0" names="depthwise_15/filter_in:0" precision="FP16">
					<dim>96</dim>
					<dim>1</dim>
					<dim>1</dim>
					<dim>3</dim>
					<dim>3</dim>
				</port>
			</output>
		</layer>
		<layer id="216" name="depthwise_15" type="GroupConvolution" version="opset1">
			<data auto_pad="same_upper" dilations="1, 1" pads_begin="1, 1" pads_end="1, 1" strides="1, 1"/>
			<input>
				<port id="0" precision="FP16">
					<dim>1</dim>
					<dim>96</dim>
					<dim>8</dim>
					<dim>8</dim>
				</port>
				<port id="1" precision="FP16">
					<dim>96</dim>
					<dim>1</dim>
					<dim>1</dim>
					<dim>3</dim>
					<dim>3</dim>
				</port>
			</input>
			<output>
				<port id="2" names="depthwise_15:0" precision="FP16">
					<dim>1</dim>
					<dim>96</dim>
					<dim>8</dim>
					<dim>8</dim>
				</port>
			</output>
		</layer>
		<layer id="217" name="depthwise_conv2d_15/y" type="Const" version="opset1">
			<data element_type="f16" offset="102338" shape="1, 96, 1, 1" size="192"/>
			<output>
				<port id="0" names="depthwise_conv2d_15/y:0" precision="FP16">
					<dim>1</dim>
					<dim>96</dim>
					<dim>1</dim>
					<dim>1</dim>
				</port>
			</output>
		</layer>
		<layer id="218" name="depthwise_conv2d_15" type="Add" version="opset1">
			<data auto_broadcast="numpy"/>
			<input>
				<port id="0" precision="FP16">
					<dim>1</dim>
					<dim>96</dim>
					<dim>8</dim>
					<dim>8</dim>
				</port>
				<port id="1" precision="FP16">
					<dim>1</dim>
					<dim>96</dim>
					<dim>1</dim>
					<dim>1</dim>
				</port>
			</input>
			<output>
				<port id="2" names="depthwise_conv2d_15:0" precision="FP16">
					<dim>1</dim>
					<dim>96</dim>
					<dim>8</dim>
					<dim>8</dim>
				</port>
			</output>
		</layer>
		<layer id="219" name="Conv2D_17/filter" type="Const" version="opset1">
			<data element_type="f16" offset="163586" shape="96, 96, 1, 1" size="18432"/>
			<output>
				<port id="0" names="Conv2D_17/filter:0" precision="FP16">
					<dim>96</dim>
					<dim>96</dim>
					<dim>1</dim>
					<dim>1</dim>
				</port>
			</output>
		</layer>
		<layer id="220" name="Conv2D_17" type="Convolution" version="opset1">
			<data auto_pad="valid" dilations="1, 1" pads_begin="0, 0" pads_end="0, 0" strides="1, 1"/>
			<input>
				<port id="0" precision="FP16">
					<dim>1</dim>
					<dim>96</dim>
					<dim>8</dim>
					<dim>8</dim>
				</port>
				<port id="1" precision="FP16">
					<dim>96</dim>
					<dim>96</dim>
					<dim>1</dim>
					<dim>1</dim>
				</port>
			</input>
			<output>
				<port id="2" names="Conv2D_17:0" precision="FP16">
					<dim>1</dim>
					<dim>96</dim>
					<dim>8</dim>
					<dim>8</dim>
				</port>
			</output>
		</layer>
		<layer id="221" name="conv2d_16_1/y" type="Const" version="opset1">
			<data element_type="f16" offset="182018" shape="1, 96, 1, 1" size="192"/>
			<output>
				<port id="0" names="conv2d_16_1/y:0" precision="FP16">
					<dim>1</dim>
					<dim>96</dim>
					<dim>1</dim>
					<dim>1</dim>
				</port>
			</output>
		</layer>
		<layer id="222" name="conv2d_16_1" type="Add" version="opset1">
			<data auto_broadcast="numpy"/>
			<input>
				<port id="0" precision="FP16">
					<dim>1</dim>
					<dim>96</dim>
					<dim>8</dim>
					<dim>8</dim>
				</port>
				<port id="1" precision="FP16">
					<dim>1</dim>
					<dim>96</dim>
					<dim>1</dim>
					<dim>1</dim>
				</port>
			</input>
			<output>
				<port id="2" names="conv2d_16_1:0" precision="FP16">
					<dim>1</dim>
					<dim>96</dim>
					<dim>8</dim>
					<dim>8</dim>
				</port>
			</output>
		</layer>
		<layer id="223" name="add_15__xeno_compat__1" type="Add" version="opset1">
			<data auto_broadcast="numpy"/>
			<input>
				<port id="0" precision="FP16">
					<dim>1</dim>
					<dim>96</dim>
					<dim>8</dim>
					<dim>8</dim>
				</port>
				<port id="1" precision="FP16">
					<dim>1</dim>
					<dim>96</dim>
					<dim>8</dim>
					<dim>8</dim>
				</port>
			</input>
			<output>
				<port id="2" names="add_15__xeno_compat__1:0" precision="FP16">
					<dim>1</dim>
					<dim>96</dim>
					<dim>8</dim>
					<dim>8</dim>
				</port>
			</output>
		</layer>
		<layer id="224" name="activation_16" type="ReLU" version="opset1">
			<input>
				<port id="0" precision="FP16">
					<dim>1</dim>
					<dim>96</dim>
					<dim>8</dim>
					<dim>8</dim>
				</port>
			</input>
			<output>
				<port id="1" names="activation_16:0" precision="FP16">
					<dim>1</dim>
					<dim>96</dim>
					<dim>8</dim>
					<dim>8</dim>
				</port>
			</output>
		</layer>
		<layer id="225" name="Conv2D_21/filter" type="Const" version="opset1">
			<data element_type="f16" offset="182210" shape="96, 96, 1, 1" size="18432"/>
			<output>
				<port id="0" names="Conv2D_21/filter:0" precision="FP16">
					<dim>96</dim>
					<dim>96</dim>
					<dim>1</dim>
					<dim>1</dim>
				</port>
			</output>
		</layer>
		<layer id="226" name="Conv2D_21" type="Convolution" version="opset1">
			<data auto_pad="same_upper" dilations="1, 1" pads_begin="0, 0" pads_end="0, 0" strides="1, 1"/>
			<input>
				<port id="0" precision="FP16">
					<dim>1</dim>
					<dim>96</dim>
					<dim>8</dim>
					<dim>8</dim>
				</port>
				<port id="1" precision="FP16">
					<dim>96</dim>
					<dim>96</dim>
					<dim>1</dim>
					<dim>1</dim>
				</port>
			</input>
			<output>
				<port id="2" names="Conv2D_21:0" precision="FP16">
					<dim>1</dim>
					<dim>96</dim>
					<dim>8</dim>
					<dim>8</dim>
				</port>
			</output>
		</layer>
		<layer id="227" name="regressor_16/y" type="Const" version="opset1">
			<data element_type="f16" offset="200642" shape="1, 96, 1, 1" size="192"/>
			<output>
				<port id="0" names="regressor_16/y:0" precision="FP16">
					<dim>1</dim>
					<dim>96</dim>
					<dim>1</dim>
					<dim>1</dim>
				</port>
			</output>
		</layer>
		<layer id="228" name="regressor_16" type="Add" version="opset1">
			<data auto_broadcast="numpy"/>
			<input>
				<port id="0" precision="FP16">
					<dim>1</dim>
					<dim>96</dim>
					<dim>8</dim>
					<dim>8</dim>
				</port>
				<port id="1" precision="FP16">
					<dim>1</dim>
					<dim>96</dim>
					<dim>1</dim>
					<dim>1</dim>
				</port>
			</input>
			<output>
				<port id="2" precision="FP16">
					<dim>1</dim>
					<dim>96</dim>
					<dim>8</dim>
					<dim>8</dim>
				</port>
			</output>
		</layer>
		<layer id="229" name="regressor_16/Transpose/value47898853" type="Const" version="opset1">
			<data element_type="i64" offset="81706" shape="4" size="32"/>
			<output>
				<port id="0" precision="I64">
					<dim>4</dim>
				</port>
			</output>
		</layer>
		<layer id="230" name="regressor_16/Transpose" type="Transpose" version="opset1">
			<input>
				<port id="0" precision="FP16">
					<dim>1</dim>
					<dim>96</dim>
					<dim>8</dim>
					<dim>8</dim>
				</port>
				<port id="1" precision="I64">
					<dim>4</dim>
				</port>
			</input>
			<output>
				<port id="2" names="regressor_16:0" precision="FP16">
					<dim>1</dim>
					<dim>8</dim>
					<dim>8</dim>
					<dim>96</dim>
				</port>
			</output>
		</layer>
		<layer id="231" name="reshape_3/shape" type="Const" version="opset1">
			<data element_type="i64" offset="81738" shape="3" size="24"/>
			<output>
				<port id="0" names="reshape_3/shape:0" precision="I64">
					<dim>3</dim>
				</port>
			</output>
		</layer>
		<layer id="232" name="reshape_3" type="Reshape" version="opset1">
			<data special_zero="false"/>
			<input>
				<port id="0" precision="FP16">
					<dim>1</dim>
					<dim>8</dim>
					<dim>8</dim>
					<dim>96</dim>
				</port>
				<port id="1" precision="I64">
					<dim>3</dim>
				</port>
			</input>
			<output>
				<port id="2" names="reshape_3:0" precision="FP16">
					<dim>1</dim>
					<dim>384</dim>
					<dim>16</dim>
				</port>
			</output>
		</layer>
		<layer id="233" name="regressors" type="Concat" version="opset1">
			<data axis="1"/>
			<input>
				<port id="0" precision="FP16">
					<dim>1</dim>
					<dim>512</dim>
					<dim>16</dim>
				</port>
				<port id="1" precision="FP16">
					<dim>1</dim>
					<dim>384</dim>
					<dim>16</dim>
				</port>
			</input>
			<output>
				<port id="2" names="regressors:0" precision="FP16">
					<dim>1</dim>
					<dim>896</dim>
					<dim>16</dim>
				</port>
			</output>
		</layer>
		<layer id="234" name="regressors:0" type="Result" version="opset1">
			<input>
				<port id="0" precision="FP16">
					<dim>1</dim>
					<dim>896</dim>
					<dim>16</dim>
				</port>
			</input>
		</layer>
		<layer id="235" name="Conv2D_18/filter" type="Const" version="opset1">
			<data element_type="f16" offset="200834" shape="2, 88, 1, 1" size="352"/>
			<output>
				<port id="0" names="Conv2D_18/filter:0" precision="FP16">
					<dim>2</dim>
					<dim>88</dim>
					<dim>1</dim>
					<dim>1</dim>
				</port>
			</output>
		</layer>
		<layer id="236" name="Conv2D_18" type="Convolution" version="opset1">
			<data auto_pad="same_upper" dilations="1, 1" pads_begin="0, 0" pads_end="0, 0" strides="1, 1"/>
			<input>
				<port id="0" precision="FP16">
					<dim>1</dim>
					<dim>88</dim>
					<dim>16</dim>
					<dim>16</dim>
				</port>
				<port id="1" precision="FP16">
					<dim>2</dim>
					<dim>88</dim>
					<dim>1</dim>
					<dim>1</dim>
				</port>
			</input>
			<output>
				<port id="2" names="Conv2D_18:0" precision="FP16">
					<dim>1</dim>
					<dim>2</dim>
					<dim>16</dim>
					<dim>16</dim>
				</port>
			</output>
		</layer>
		<layer id="237" name="classificator_8/y" type="Const" version="opset1">
			<data element_type="f16" offset="201186" shape="1, 2, 1, 1" size="4"/>
			<output>
				<port id="0" names="classificator_8/y:0" precision="FP16">
					<dim>1</dim>
					<dim>2</dim>
					<dim>1</dim>
					<dim>1</dim>
				</port>
			</output>
		</layer>
		<layer id="238" name="classificator_8" type="Add" version="opset1">
			<data auto_broadcast="numpy"/>
			<input>
				<port id="0" precision="FP16">
					<dim>1</dim>
					<dim>2</dim>
					<dim>16</dim>
					<dim>16</dim>
				</port>
				<port id="1" precision="FP16">
					<dim>1</dim>
					<dim>2</dim>
					<dim>1</dim>
					<dim>1</dim>
				</port>
			</input>
			<output>
				<port id="2" precision="FP16">
					<dim>1</dim>
					<dim>2</dim>
					<dim>16</dim>
					<dim>16</dim>
				</port>
			</output>
		</layer>
		<layer id="239" name="classificator_8/Transpose/value47778670" type="Const" version="opset1">
			<data element_type="i64" offset="81706" shape="4" size="32"/>
			<output>
				<port id="0" precision="I64">
					<dim>4</dim>
				</port>
			</output>
		</layer>
		<layer id="240" name="classificator_8/Transpose" type="Transpose" version="opset1">
			<input>
				<port id="0" precision="FP16">
					<dim>1</dim>
					<dim>2</dim>
					<dim>16</dim>
					<dim>16</dim>
				</port>
				<port id="1" precision="I64">
					<dim>4</dim>
				</port>
			</input>
			<output>
				<port id="2" names="classificator_8:0" precision="FP16">
					<dim>1</dim>
					<dim>16</dim>
					<dim>16</dim>
					<dim>2</dim>
				</port>
			</output>
		</layer>
		<layer id="241" name="reshape/shape" type="Const" version="opset1">
			<data element_type="i64" offset="201190" shape="3" size="24"/>
			<output>
				<port id="0" names="reshape/shape:0" precision="I64">
					<dim>3</dim>
				</port>
			</output>
		</layer>
		<layer id="242" name="reshape" type="Reshape" version="opset1">
			<data special_zero="false"/>
			<input>
				<port id="0" precision="FP16">
					<dim>1</dim>
					<dim>16</dim>
					<dim>16</dim>
					<dim>2</dim>
				</port>
				<port id="1" precision="I64">
					<dim>3</dim>
				</port>
			</input>
			<output>
				<port id="2" names="reshape:0" precision="FP16">
					<dim>1</dim>
					<dim>512</dim>
					<dim>1</dim>
				</port>
			</output>
		</layer>
		<layer id="243" name="Conv2D_19/filter" type="Const" version="opset1">
			<data element_type="f16" offset="201214" shape="6, 96, 1, 1" size="1152"/>
			<output>
				<port id="0" names="Conv2D_19/filter:0" precision="FP16">
					<dim>6</dim>
					<dim>96</dim>
					<dim>1</dim>
					<dim>1</dim>
				</port>
			</output>
		</layer>
		<layer id="244" name="Conv2D_19" type="Convolution" version="opset1">
			<data auto_pad="same_upper" dilations="1, 1" pads_begin="0, 0" pads_end="0, 0" strides="1, 1"/>
			<input>
				<port id="0" precision="FP16">
					<dim>1</dim>
					<dim>96</dim>
					<dim>8</dim>
					<dim>8</dim>
				</port>
				<port id="1" precision="FP16">
					<dim>6</dim>
					<dim>96</dim>
					<dim>1</dim>
					<dim>1</dim>
				</port>
			</input>
			<output>
				<port id="2" names="Conv2D_19:0" precision="FP16">
					<dim>1</dim>
					<dim>6</dim>
					<dim>8</dim>
					<dim>8</dim>
				</port>
			</output>
		</layer>
		<layer id="245" name="classificator_16/y" type="Const" version="opset1">
			<data element_type="f16" offset="202366" shape="1, 6, 1, 1" size="12"/>
			<output>
				<port id="0" names="classificator_16/y:0" precision="FP16">
					<dim>1</dim>
					<dim>6</dim>
					<dim>1</dim>
					<dim>1</dim>
				</port>
			</output>
		</layer>
		<layer id="246" name="classificator_16" type="Add" version="opset1">
			<data auto_broadcast="numpy"/>
			<input>
				<port id="0" precision="FP16">
					<dim>1</dim>
					<dim>6</dim>
					<dim>8</dim>
					<dim>8</dim>
				</port>
				<port id="1" precision="FP16">
					<dim>1</dim>
					<dim>6</dim>
					<dim>1</dim>
					<dim>1</dim>
				</port>
			</input>
			<output>
				<port id="2" precision="FP16">
					<dim>1</dim>
					<dim>6</dim>
					<dim>8</dim>
					<dim>8</dim>
				</port>
			</output>
		</layer>
		<layer id="247" name="classificator_16/Transpose/value47818964" type="Const" version="opset1">
			<data element_type="i64" offset="81706" shape="4" size="32"/>
			<output>
				<port id="0" precision="I64">
					<dim>4</dim>
				</port>
			</output>
		</layer>
		<layer id="248" name="classificator_16/Transpose" type="Transpose" version="opset1">
			<input>
				<port id="0" precision="FP16">
					<dim>1</dim>
					<dim>6</dim>
					<dim>8</dim>
					<dim>8</dim>
				</port>
				<port id="1" precision="I64">
					<dim>4</dim>
				</port>
			</input>
			<output>
				<port id="2" names="classificator_16:0" precision="FP16">
					<dim>1</dim>
					<dim>8</dim>
					<dim>8</dim>
					<dim>6</dim>
				</port>
			</output>
		</layer>
		<layer id="249" name="reshape_2/shape" type="Const" version="opset1">
			<data element_type="i64" offset="201190" shape="3" size="24"/>
			<output>
				<port id="0" names="reshape_2/shape:0" precision="I64">
					<dim>3</dim>
				</port>
			</output>
		</layer>
		<layer id="250" name="reshape_2" type="Reshape" version="opset1">
			<data special_zero="false"/>
			<input>
				<port id="0" precision="FP16">
					<dim>1</dim>
					<dim>8</dim>
					<dim>8</dim>
					<dim>6</dim>
				</port>
				<port id="1" precision="I64">
					<dim>3</dim>
				</port>
			</input>
			<output>
				<port id="2" names="reshape_2:0" precision="FP16">
					<dim>1</dim>
					<dim>384</dim>
					<dim>1</dim>
				</port>
			</output>
		</layer>
		<layer id="251" name="classificators" type="Concat" version="opset1">
			<data axis="1"/>
			<input>
				<port id="0" precision="FP16">
					<dim>1</dim>
					<dim>512</dim>
					<dim>1</dim>
				</port>
				<port id="1" precision="FP16">
					<dim>1</dim>
					<dim>384</dim>
					<dim>1</dim>
				</port>
			</input>
			<output>
				<port id="2" names="classificators:0" precision="FP16">
					<dim>1</dim>
					<dim>896</dim>
					<dim>1</dim>
				</port>
			</output>
		</layer>
		<layer id="252" name="classificators:0" type="Result" version="opset1">
			<input>
				<port id="0" precision="FP16">
					<dim>1</dim>
					<dim>896</dim>
					<dim>1</dim>
				</port>
			</input>
		</layer>
	</layers>
	<edges>
		<edge from-layer="0" from-port="0" to-layer="2" to-port="0"/>
		<edge from-layer="1" from-port="0" to-layer="2" to-port="1"/>
		<edge from-layer="2" from-port="2" to-layer="4" to-port="0"/>
		<edge from-layer="3" from-port="0" to-layer="4" to-port="1"/>
		<edge from-layer="4" from-port="2" to-layer="6" to-port="0"/>
		<edge from-layer="5" from-port="0" to-layer="6" to-port="1"/>
		<edge from-layer="6" from-port="2" to-layer="8" to-port="0"/>
		<edge from-layer="7" from-port="0" to-layer="8" to-port="1"/>
		<edge from-layer="8" from-port="2" to-layer="9" to-port="0"/>
		<edge from-layer="9" from-port="1" to-layer="11" to-port="0"/>
		<edge from-layer="9" from-port="1" to-layer="18" to-port="0"/>
		<edge from-layer="10" from-port="0" to-layer="11" to-port="1"/>
		<edge from-layer="11" from-port="2" to-layer="13" to-port="0"/>
		<edge from-layer="12" from-port="0" to-layer="13" to-port="1"/>
		<edge from-layer="13" from-port="2" to-layer="15" to-port="0"/>
		<edge from-layer="14" from-port="0" to-layer="15" to-port="1"/>
		<edge from-layer="15" from-port="2" to-layer="17" to-port="0"/>
		<edge from-layer="16" from-port="0" to-layer="17" to-port="1"/>
		<edge from-layer="17" from-port="2" to-layer="18" to-port="1"/>
		<edge from-layer="18" from-port="2" to-layer="19" to-port="0"/>
		<edge from-layer="19" from-port="1" to-layer="23" to-port="0"/>
		<edge from-layer="19" from-port="1" to-layer="25" to-port="0"/>
		<edge from-layer="20" from-port="0" to-layer="23" to-port="1"/>
		<edge from-layer="21" from-port="0" to-layer="23" to-port="2"/>
		<edge from-layer="22" from-port="0" to-layer="23" to-port="3"/>
		<edge from-layer="23" from-port="4" to-layer="32" to-port="0"/>
		<edge from-layer="24" from-port="0" to-layer="25" to-port="1"/>
		<edge from-layer="25" from-port="2" to-layer="27" to-port="0"/>
		<edge from-layer="26" from-port="0" to-layer="27" to-port="1"/>
		<edge from-layer="27" from-port="2" to-layer="29" to-port="0"/>
		<edge from-layer="28" from-port="0" to-layer="29" to-port="1"/>
		<edge from-layer="29" from-port="2" to-layer="31" to-port="0"/>
		<edge from-layer="30" from-port="0" to-layer="31" to-port="1"/>
		<edge from-layer="31" from-port="2" to-layer="32" to-port="1"/>
		<edge from-layer="32" from-port="2" to-layer="33" to-port="0"/>
		<edge from-layer="33" from-port="1" to-layer="34" to-port="0"/>
		<edge from-layer="33" from-port="1" to-layer="40" to-port="0"/>
		<edge from-layer="34" from-port="1" to-layer="38" to-port="0"/>
		<edge from-layer="35" from-port="0" to-layer="38" to-port="1"/>
		<edge from-layer="36" from-port="0" to-layer="38" to-port="2"/>
		<edge from-layer="37" from-port="0" to-layer="38" to-port="3"/>
		<edge from-layer="38" from-port="4" to-layer="47" to-port="0"/>
		<edge from-layer="39" from-port="0" to-layer="40" to-port="1"/>
		<edge from-layer="40" from-port="2" to-layer="42" to-port="0"/>
		<edge from-layer="41" from-port="0" to-layer="42" to-port="1"/>
		<edge from-layer="42" from-port="2" to-layer="44" to-port="0"/>
		<edge from-layer="43" from-port="0" to-layer="44" to-port="1"/>
		<edge from-layer="44" from-port="2" to-layer="46" to-port="0"/>
		<edge from-layer="45" from-port="0" to-layer="46" to-port="1"/>
		<edge from-layer="46" from-port="2" to-layer="47" to-port="1"/>
		<edge from-layer="47" from-port="2" to-layer="48" to-port="0"/>
		<edge from-layer="48" from-port="1" to-layer="52" to-port="0"/>
		<edge from-layer="48" from-port="1" to-layer="54" to-port="0"/>
		<edge from-layer="49" from-port="0" to-layer="52" to-port="1"/>
		<edge from-layer="50" from-port="0" to-layer="52" to-port="2"/>
		<edge from-layer="51" from-port="0" to-layer="52" to-port="3"/>
		<edge from-layer="52" from-port="4" to-layer="61" to-port="0"/>
		<edge from-layer="53" from-port="0" to-layer="54" to-port="1"/>
		<edge from-layer="54" from-port="2" to-layer="56" to-port="0"/>
		<edge from-layer="55" from-port="0" to-layer="56" to-port="1"/>
		<edge from-layer="56" from-port="2" to-layer="58" to-port="0"/>
		<edge from-layer="57" from-port="0" to-layer="58" to-port="1"/>
		<edge from-layer="58" from-port="2" to-layer="60" to-port="0"/>
		<edge from-layer="59" from-port="0" to-layer="60" to-port="1"/>
		<edge from-layer="60" from-port="2" to-layer="61" to-port="1"/>
		<edge from-layer="61" from-port="2" to-layer="62" to-port="0"/>
		<edge from-layer="62" from-port="1" to-layer="66" to-port="0"/>
		<edge from-layer="62" from-port="1" to-layer="68" to-port="0"/>
		<edge from-layer="63" from-port="0" to-layer="66" to-port="1"/>
		<edge from-layer="64" from-port="0" to-layer="66" to-port="2"/>
		<edge from-layer="65" from-port="0" to-layer="66" to-port="3"/>
		<edge from-layer="66" from-port="4" to-layer="75" to-port="0"/>
		<edge from-layer="67" from-port="0" to-layer="68" to-port="1"/>
		<edge from-layer="68" from-port="2" to-layer="70" to-port="0"/>
		<edge from-layer="69" from-port="0" to-layer="70" to-port="1"/>
		<edge from-layer="70" from-port="2" to-layer="72" to-port="0"/>
		<edge from-layer="71" from-port="0" to-layer="72" to-port="1"/>
		<edge from-layer="72" from-port="2" to-layer="74" to-port="0"/>
		<edge from-layer="73" from-port="0" to-layer="74" to-port="1"/>
		<edge from-layer="74" from-port="2" to-layer="75" to-port="1"/>
		<edge from-layer="75" from-port="2" to-layer="76" to-port="0"/>
		<edge from-layer="76" from-port="1" to-layer="77" to-port="0"/>
		<edge from-layer="76" from-port="1" to-layer="83" to-port="0"/>
		<edge from-layer="77" from-port="1" to-layer="81" to-port="0"/>
		<edge from-layer="78" from-port="0" to-layer="81" to-port="1"/>
		<edge from-layer="79" from-port="0" to-layer="81" to-port="2"/>
		<edge from-layer="80" from-port="0" to-layer="81" to-port="3"/>
		<edge from-layer="81" from-port="4" to-layer="90" to-port="0"/>
		<edge from-layer="82" from-port="0" to-layer="83" to-port="1"/>
		<edge from-layer="83" from-port="2" to-layer="85" to-port="0"/>
		<edge from-layer="84" from-port="0" to-layer="85" to-port="1"/>
		<edge from-layer="85" from-port="2" to-layer="87" to-port="0"/>
		<edge from-layer="86" from-port="0" to-layer="87" to-port="1"/>
		<edge from-layer="87" from-port="2" to-layer="89" to-port="0"/>
		<edge from-layer="88" from-port="0" to-layer="89" to-port="1"/>
		<edge from-layer="89" from-port="2" to-layer="90" to-port="1"/>
		<edge from-layer="90" from-port="2" to-layer="91" to-port="0"/>
		<edge from-layer="91" from-port="1" to-layer="95" to-port="0"/>
		<edge from-layer="91" from-port="1" to-layer="97" to-port="0"/>
		<edge from-layer="92" from-port="0" to-layer="95" to-port="1"/>
		<edge from-layer="93" from-port="0" to-layer="95" to-port="2"/>
		<edge from-layer="94" from-port="0" to-layer="95" to-port="3"/>
		<edge from-layer="95" from-port="4" to-layer="104" to-port="0"/>
		<edge from-layer="96" from-port="0" to-layer="97" to-port="1"/>
		<edge from-layer="97" from-port="2" to-layer="99" to-port="0"/>
		<edge from-layer="98" from-port="0" to-layer="99" to-port="1"/>
		<edge from-layer="99" from-port="2" to-layer="101" to-port="0"/>
		<edge from-layer="100" from-port="0" to-layer="101" to-port="1"/>
		<edge from-layer="101" from-port="2" to-layer="103" to-port="0"/>
		<edge from-layer="102" from-port="0" to-layer="103" to-port="1"/>
		<edge from-layer="103" from-port="2" to-layer="104" to-port="1"/>
		<edge from-layer="104" from-port="2" to-layer="105" to-port="0"/>
		<edge from-layer="105" from-port="1" to-layer="109" to-port="0"/>
		<edge from-layer="105" from-port="1" to-layer="111" to-port="0"/>
		<edge from-layer="106" from-port="0" to-layer="109" to-port="1"/>
		<edge from-layer="107" from-port="0" to-layer="109" to-port="2"/>
		<edge from-layer="108" from-port="0" to-layer="109" to-port="3"/>
		<edge from-layer="109" from-port="4" to-layer="118" to-port="0"/>
		<edge from-layer="110" from-port="0" to-layer="111" to-port="1"/>
		<edge from-layer="111" from-port="2" to-layer="113" to-port="0"/>
		<edge from-layer="112" from-port="0" to-layer="113" to-port="1"/>
		<edge from-layer="113" from-port="2" to-layer="115" to-port="0"/>
		<edge from-layer="114" from-port="0" to-layer="115" to-port="1"/>
		<edge from-layer="115" from-port="2" to-layer="117" to-port="0"/>
		<edge from-layer="116" from-port="0" to-layer="117" to-port="1"/>
		<edge from-layer="117" from-port="2" to-layer="118" to-port="1"/>
		<edge from-layer="118" from-port="2" to-layer="119" to-port="0"/>
		<edge from-layer="119" from-port="1" to-layer="123" to-port="0"/>
		<edge from-layer="119" from-port="1" to-layer="125" to-port="0"/>
		<edge from-layer="120" from-port="0" to-layer="123" to-port="1"/>
		<edge from-layer="121" from-port="0" to-layer="123" to-port="2"/>
		<edge from-layer="122" from-port="0" to-layer="123" to-port="3"/>
		<edge from-layer="123" from-port="4" to-layer="132" to-port="0"/>
		<edge from-layer="124" from-port="0" to-layer="125" to-port="1"/>
		<edge from-layer="125" from-port="2" to-layer="127" to-port="0"/>
		<edge from-layer="126" from-port="0" to-layer="127" to-port="1"/>
		<edge from-layer="127" from-port="2" to-layer="129" to-port="0"/>
		<edge from-layer="128" from-port="0" to-layer="129" to-port="1"/>
		<edge from-layer="129" from-port="2" to-layer="131" to-port="0"/>
		<edge from-layer="130" from-port="0" to-layer="131" to-port="1"/>
		<edge from-layer="131" from-port="2" to-layer="132" to-port="1"/>
		<edge from-layer="132" from-port="2" to-layer="133" to-port="0"/>
		<edge from-layer="133" from-port="1" to-layer="137" to-port="0"/>
		<edge from-layer="133" from-port="1" to-layer="139" to-port="0"/>
		<edge from-layer="134" from-port="0" to-layer="137" to-port="1"/>
		<edge from-layer="135" from-port="0" to-layer="137" to-port="2"/>
		<edge from-layer="136" from-port="0" to-layer="137" to-port="3"/>
		<edge from-layer="137" from-port="4" to-layer="146" to-port="0"/>
		<edge from-layer="138" from-port="0" to-layer="139" to-port="1"/>
		<edge from-layer="139" from-port="2" to-layer="141" to-port="0"/>
		<edge from-layer="140" from-port="0" to-layer="141" to-port="1"/>
		<edge from-layer="141" from-port="2" to-layer="143" to-port="0"/>
		<edge from-layer="142" from-port="0" to-layer="143" to-port="1"/>
		<edge from-layer="143" from-port="2" to-layer="145" to-port="0"/>
		<edge from-layer="144" from-port="0" to-layer="145" to-port="1"/>
		<edge from-layer="145" from-port="2" to-layer="146" to-port="1"/>
		<edge from-layer="146" from-port="2" to-layer="147" to-port="0"/>
		<edge from-layer="147" from-port="1" to-layer="153" to-port="0"/>
		<edge from-layer="147" from-port="1" to-layer="151" to-port="0"/>
		<edge from-layer="148" from-port="0" to-layer="151" to-port="1"/>
		<edge from-layer="149" from-port="0" to-layer="151" to-port="2"/>
		<edge from-layer="150" from-port="0" to-layer="151" to-port="3"/>
		<edge from-layer="151" from-port="4" to-layer="160" to-port="0"/>
		<edge from-layer="152" from-port="0" to-layer="153" to-port="1"/>
		<edge from-layer="153" from-port="2" to-layer="155" to-port="0"/>
		<edge from-layer="154" from-port="0" to-layer="155" to-port="1"/>
		<edge from-layer="155" from-port="2" to-layer="157" to-port="0"/>
		<edge from-layer="156" from-port="0" to-layer="157" to-port="1"/>
		<edge from-layer="157" from-port="2" to-layer="159" to-port="0"/>
		<edge from-layer="158" from-port="0" to-layer="159" to-port="1"/>
		<edge from-layer="159" from-port="2" to-layer="160" to-port="1"/>
		<edge from-layer="160" from-port="2" to-layer="161" to-port="0"/>
		<edge from-layer="161" from-port="1" to-layer="236" to-port="0"/>
		<edge from-layer="161" from-port="1" to-layer="163" to-port="0"/>
		<edge from-layer="161" from-port="1" to-layer="176" to-port="0"/>
		<edge from-layer="161" from-port="1" to-layer="170" to-port="0"/>
		<edge from-layer="162" from-port="0" to-layer="163" to-port="1"/>
		<edge from-layer="163" from-port="2" to-layer="165" to-port="0"/>
		<edge from-layer="164" from-port="0" to-layer="165" to-port="1"/>
		<edge from-layer="165" from-port="2" to-layer="167" to-port="0"/>
		<edge from-layer="166" from-port="0" to-layer="167" to-port="1"/>
		<edge from-layer="167" from-port="2" to-layer="169" to-port="0"/>
		<edge from-layer="168" from-port="0" to-layer="169" to-port="1"/>
		<edge from-layer="169" from-port="2" to-layer="233" to-port="0"/>
		<edge from-layer="170" from-port="1" to-layer="174" to-port="0"/>
		<edge from-layer="171" from-port="0" to-layer="174" to-port="1"/>
		<edge from-layer="172" from-port="0" to-layer="174" to-port="2"/>
		<edge from-layer="173" from-port="0" to-layer="174" to-port="3"/>
		<edge from-layer="174" from-port="4" to-layer="183" to-port="0"/>
		<edge from-layer="175" from-port="0" to-layer="176" to-port="1"/>
		<edge from-layer="176" from-port="2" to-layer="178" to-port="0"/>
		<edge from-layer="177" from-port="0" to-layer="178" to-port="1"/>
		<edge from-layer="178" from-port="2" to-layer="180" to-port="0"/>
		<edge from-layer="179" from-port="0" to-layer="180" to-port="1"/>
		<edge from-layer="180" from-port="2" to-layer="182" to-port="0"/>
		<edge from-layer="181" from-port="0" to-layer="182" to-port="1"/>
		<edge from-layer="182" from-port="2" to-layer="183" to-port="1"/>
		<edge from-layer="183" from-port="2" to-layer="184" to-port="0"/>
		<edge from-layer="184" from-port="1" to-layer="186" to-port="0"/>
		<edge from-layer="184" from-port="1" to-layer="193" to-port="0"/>
		<edge from-layer="185" from-port="0" to-layer="186" to-port="1"/>
		<edge from-layer="186" from-port="2" to-layer="188" to-port="0"/>
		<edge from-layer="187" from-port="0" to-layer="188" to-port="1"/>
		<edge from-layer="188" from-port="2" to-layer="190" to-port="0"/>
		<edge from-layer="189" from-port="0" to-layer="190" to-port="1"/>
		<edge from-layer="190" from-port="2" to-layer="192" to-port="0"/>
		<edge from-layer="191" from-port="0" to-layer="192" to-port="1"/>
		<edge from-layer="192" from-port="2" to-layer="193" to-port="1"/>
		<edge from-layer="193" from-port="2" to-layer="194" to-port="0"/>
		<edge from-layer="194" from-port="1" to-layer="196" to-port="0"/>
		<edge from-layer="194" from-port="1" to-layer="203" to-port="0"/>
		<edge from-layer="195" from-port="0" to-layer="196" to-port="1"/>
		<edge from-layer="196" from-port="2" to-layer="198" to-port="0"/>
		<edge from-layer="197" from-port="0" to-layer="198" to-port="1"/>
		<edge from-layer="198" from-port="2" to-layer="200" to-port="0"/>
		<edge from-layer="199" from-port="0" to-layer="200" to-port="1"/>
		<edge from-layer="200" from-port="2" to-layer="202" to-port="0"/>
		<edge from-layer="201" from-port="0" to-layer="202" to-port="1"/>
		<edge from-layer="202" from-port="2" to-layer="203" to-port="1"/>
		<edge from-layer="203" from-port="2" to-layer="204" to-port="0"/>
		<edge from-layer="204" from-port="1" to-layer="213" to-port="0"/>
		<edge from-layer="204" from-port="1" to-layer="206" to-port="0"/>
		<edge from-layer="205" from-port="0" to-layer="206" to-port="1"/>
		<edge from-layer="206" from-port="2" to-layer="208" to-port="0"/>
		<edge from-layer="207" from-port="0" to-layer="208" to-port="1"/>
		<edge from-layer="208" from-port="2" to-layer="210" to-port="0"/>
		<edge from-layer="209" from-port="0" to-layer="210" to-port="1"/>
		<edge from-layer="210" from-port="2" to-layer="212" to-port="0"/>
		<edge from-layer="211" from-port="0" to-layer="212" to-port="1"/>
		<edge from-layer="212" from-port="2" to-layer="213" to-port="1"/>
		<edge from-layer="213" from-port="2" to-layer="214" to-port="0"/>
		<edge from-layer="214" from-port="1" to-layer="216" to-port="0"/>
		<edge from-layer="214" from-port="1" to-layer="223" to-port="0"/>
		<edge from-layer="215" from-port="0" to-layer="216" to-port="1"/>
		<edge from-layer="216" from-port="2" to-layer="218" to-port="0"/>
		<edge from-layer="217" from-port="0" to-layer="218" to-port="1"/>
		<edge from-layer="218" from-port="2" to-layer="220" to-port="0"/>
		<edge from-layer="219" from-port="0" to-layer="220" to-port="1"/>
		<edge from-layer="220" from-port="2" to-layer="222" to-port="0"/>
		<edge from-layer="221" from-port="0" to-layer="222" to-port="1"/>
		<edge from-layer="222" from-port="2" to-layer="223" to-port="1"/>
		<edge from-layer="223" from-port="2" to-layer="224" to-port="0"/>
		<edge from-layer="224" from-port="1" to-layer="226" to-port="0"/>
		<edge from-layer="224" from-port="1" to-layer="244" to-port="0"/>
		<edge from-layer="225" from-port="0" to-layer="226" to-port="1"/>
		<edge from-layer="226" from-port="2" to-layer="228" to-port="0"/>
		<edge from-layer="227" from-port="0" to-layer="228" to-port="1"/>
		<edge from-layer="228" from-port="2" to-layer="230" to-port="0"/>
		<edge from-layer="229" from-port="0" to-layer="230" to-port="1"/>
		<edge from-layer="230" from-port="2" to-layer="232" to-port="0"/>
		<edge from-layer="231" from-port="0" to-layer="232" to-port="1"/>
		<edge from-layer="232" from-port="2" to-layer="233" to-port="1"/>
		<edge from-layer="233" from-port="2" to-layer="234" to-port="0"/>
		<edge from-layer="235" from-port="0" to-layer="236" to-port="1"/>
		<edge from-layer="236" from-port="2" to-layer="238" to-port="0"/>
		<edge from-layer="237" from-port="0" to-layer="238" to-port="1"/>
		<edge from-layer="238" from-port="2" to-layer="240" to-port="0"/>
		<edge from-layer="239" from-port="0" to-layer="240" to-port="1"/>
		<edge from-layer="240" from-port="2" to-layer="242" to-port="0"/>
		<edge from-layer="241" from-port="0" to-layer="242" to-port="1"/>
		<edge from-layer="242" from-port="2" to-layer="251" to-port="0"/>
		<edge from-layer="243" from-port="0" to-layer="244" to-port="1"/>
		<edge from-layer="244" from-port="2" to-layer="246" to-port="0"/>
		<edge from-layer="245" from-port="0" to-layer="246" to-port="1"/>
		<edge from-layer="246" from-port="2" to-layer="248" to-port="0"/>
		<edge from-layer="247" from-port="0" to-layer="248" to-port="1"/>
		<edge from-layer="248" from-port="2" to-layer="250" to-port="0"/>
		<edge from-layer="249" from-port="0" to-layer="250" to-port="1"/>
		<edge from-layer="250" from-port="2" to-layer="251" to-port="1"/>
		<edge from-layer="251" from-port="2" to-layer="252" to-port="0"/>
	</edges>
	<meta_data>
		<MO_version value="2021.4.2-3974-e2a469a3450-releases/2021/4"/>
		<cli_parameters>
			<data_type value="FP16"/>
			<disable_nhwc_to_nchw value="False"/>
			<disable_resnet_optimization value="False"/>
			<disable_weights_compression value="False"/>
			<enable_concat_optimization value="False"/>
			<extensions value="DIR"/>
			<framework value="tf"/>
			<freeze_placeholder_with_value value="{}"/>
			<generate_deprecated_IR_V7 value="False"/>
			<input_model_is_text value="False"/>
			<keep_shape_ops value="True"/>
			<legacy_ir_generation value="False"/>
			<log_level value="ERROR"/>
			<mean_scale_values value="[(array([127.5, 127.5, 127.5]), array([127.5, 127.5, 127.5]))]"/>
			<mean_values value="[127.5,127.5,127.5]"/>
			<model_name value="saved_model"/>
			<output_dir value="DIR"/>
			<placeholder_data_types value="{}"/>
			<progress value="False"/>
			<reverse_input_channels value="True"/>
			<saved_model_dir value="DIR"/>
			<scale_values value="[127.5,127.5,127.5]"/>
			<silent value="False"/>
			<static_shape value="False"/>
			<stream_output value="False"/>
			<transform value=""/>
			<unset unset_cli_parameters="batch, disable_fusing, disable_gfusing, finegrain_fusing, input, input_checkpoint, input_meta_graph, input_model, input_shape, move_to_preprocess, output, placeholder_shapes, saved_model_tags, scale, tensorboard_logdir, tensorflow_custom_layer_libraries, tensorflow_custom_operations_config_update, tensorflow_object_detection_api_pipeline_config, tensorflow_use_custom_operations_config, transformations_config"/>
		</cli_parameters>
	</meta_data>
</net>
