<?xml version="1.0" ?>
<net name="saved_model" version="10">
	<layers>
		<layer id="0" name="input_1" type="Parameter" version="opset1">
			<data element_type="f16" shape="1, 3, 192, 192"/>
			<output>
				<port id="0" names="input_1:0" precision="FP16">
					<dim>1</dim>
					<dim>3</dim>
					<dim>192</dim>
					<dim>192</dim>
				</port>
			</output>
		</layer>
		<layer id="1" name="data_mul_9734" type="Const" version="opset1">
			<data element_type="f16" offset="0" shape="1, 3, 1, 1" size="6"/>
			<output>
				<port id="0" precision="FP16">
					<dim>1</dim>
					<dim>3</dim>
					<dim>1</dim>
					<dim>1</dim>
				</port>
			</output>
		</layer>
		<layer id="2" name="input_1/scale/Fused_Mul_" type="Multiply" version="opset1">
			<data auto_broadcast="numpy"/>
			<input>
				<port id="0" precision="FP16">
					<dim>1</dim>
					<dim>3</dim>
					<dim>192</dim>
					<dim>192</dim>
				</port>
				<port id="1" precision="FP16">
					<dim>1</dim>
					<dim>3</dim>
					<dim>1</dim>
					<dim>1</dim>
				</port>
			</input>
			<output>
				<port id="2" precision="FP16">
					<dim>1</dim>
					<dim>3</dim>
					<dim>192</dim>
					<dim>192</dim>
				</port>
			</output>
		</layer>
		<layer id="3" name="data_add_9736" type="Const" version="opset1">
			<data element_type="f16" offset="6" shape="1, 3, 1, 1" size="6"/>
			<output>
				<port id="0" precision="FP16">
					<dim>1</dim>
					<dim>3</dim>
					<dim>1</dim>
					<dim>1</dim>
				</port>
			</output>
		</layer>
		<layer id="4" name="input_1/mean/Fused_Add_" type="Add" version="opset1">
			<data auto_broadcast="numpy"/>
			<input>
				<port id="0" precision="FP16">
					<dim>1</dim>
					<dim>3</dim>
					<dim>192</dim>
					<dim>192</dim>
				</port>
				<port id="1" precision="FP16">
					<dim>1</dim>
					<dim>3</dim>
					<dim>1</dim>
					<dim>1</dim>
				</port>
			</input>
			<output>
				<port id="2" precision="FP16">
					<dim>1</dim>
					<dim>3</dim>
					<dim>192</dim>
					<dim>192</dim>
				</port>
			</output>
		</layer>
		<layer id="5" name="1458524981" type="Const" version="opset1">
			<data element_type="i64" offset="12" shape="4" size="32"/>
			<output>
				<port id="0" precision="I64">
					<dim>4</dim>
				</port>
			</output>
		</layer>
		<layer id="6" name="1459124765" type="Const" version="opset1">
			<data element_type="i64" offset="12" shape="4" size="32"/>
			<output>
				<port id="0" precision="I64">
					<dim>4</dim>
				</port>
			</output>
		</layer>
		<layer id="7" name="Constant_15" type="Const" version="opset1">
			<data element_type="f16" offset="44" shape="" size="2"/>
			<output>
				<port id="0" precision="FP16"/>
			</output>
		</layer>
		<layer id="8" name="model_1/model/zero_padding2d/Pad" type="Pad" version="opset1">
			<data pad_mode="constant"/>
			<input>
				<port id="0" precision="FP16">
					<dim>1</dim>
					<dim>3</dim>
					<dim>192</dim>
					<dim>192</dim>
				</port>
				<port id="1" precision="I64">
					<dim>4</dim>
				</port>
				<port id="2" precision="I64">
					<dim>4</dim>
				</port>
				<port id="3" precision="FP16"/>
			</input>
			<output>
				<port id="4" names="model_1/model/zero_padding2d/Pad:0" precision="FP16">
					<dim>1</dim>
					<dim>3</dim>
					<dim>194</dim>
					<dim>194</dim>
				</port>
			</output>
		</layer>
		<layer id="9" name="Conv2D/filter" type="Const" version="opset1">
			<data element_type="f16" offset="46" shape="32, 3, 3, 3" size="1728"/>
			<output>
				<port id="0" names="Conv2D/filter:0" precision="FP16">
					<dim>32</dim>
					<dim>3</dim>
					<dim>3</dim>
					<dim>3</dim>
				</port>
			</output>
		</layer>
		<layer id="10" name="Conv2D" type="Convolution" version="opset1">
			<data auto_pad="valid" dilations="1, 1" pads_begin="0, 0" pads_end="0, 0" strides="2, 2"/>
			<input>
				<port id="0" precision="FP16">
					<dim>1</dim>
					<dim>3</dim>
					<dim>194</dim>
					<dim>194</dim>
				</port>
				<port id="1" precision="FP16">
					<dim>32</dim>
					<dim>3</dim>
					<dim>3</dim>
					<dim>3</dim>
				</port>
			</input>
			<output>
				<port id="2" names="Conv2D:0" precision="FP16">
					<dim>1</dim>
					<dim>32</dim>
					<dim>96</dim>
					<dim>96</dim>
				</port>
			</output>
		</layer>
		<layer id="11" name="Add/y" type="Const" version="opset1">
			<data element_type="f16" offset="1774" shape="1, 32, 1, 1" size="64"/>
			<output>
				<port id="0" names="Add/y:0" precision="FP16">
					<dim>1</dim>
					<dim>32</dim>
					<dim>1</dim>
					<dim>1</dim>
				</port>
			</output>
		</layer>
		<layer id="12" name="Add" type="Add" version="opset1">
			<data auto_broadcast="numpy"/>
			<input>
				<port id="0" precision="FP16">
					<dim>1</dim>
					<dim>32</dim>
					<dim>96</dim>
					<dim>96</dim>
				</port>
				<port id="1" precision="FP16">
					<dim>1</dim>
					<dim>32</dim>
					<dim>1</dim>
					<dim>1</dim>
				</port>
			</input>
			<output>
				<port id="2" names="Add:0" precision="FP16">
					<dim>1</dim>
					<dim>32</dim>
					<dim>96</dim>
					<dim>96</dim>
				</port>
			</output>
		</layer>
		<layer id="13" name="model_1/model/activation/Relu_model_1/model/batch_normalization/FusedBatchNormV3_model_1/model/batch_normalization_79/FusedBatchNormV3_model_1/model/depthwise_conv2d_37/depthwise_model_1/model/conv2d/Conv2D" type="ReLU" version="opset1">
			<input>
				<port id="0" precision="FP16">
					<dim>1</dim>
					<dim>32</dim>
					<dim>96</dim>
					<dim>96</dim>
				</port>
			</input>
			<output>
				<port id="1" names="model_1/model/activation/Relu_model_1/model/batch_normalization/FusedBatchNormV3_model_1/model/batch_normalization_79/FusedBatchNormV3_model_1/model/depthwise_conv2d_37/depthwise_model_1/model/conv2d/Conv2D:0" precision="FP16">
					<dim>1</dim>
					<dim>32</dim>
					<dim>96</dim>
					<dim>96</dim>
				</port>
			</output>
		</layer>
		<layer id="14" name="1459725257" type="Const" version="opset1">
			<data element_type="i64" offset="12" shape="4" size="32"/>
			<output>
				<port id="0" precision="I64">
					<dim>4</dim>
				</port>
			</output>
		</layer>
		<layer id="15" name="1460324678" type="Const" version="opset1">
			<data element_type="i64" offset="12" shape="4" size="32"/>
			<output>
				<port id="0" precision="I64">
					<dim>4</dim>
				</port>
			</output>
		</layer>
		<layer id="16" name="Constant_32" type="Const" version="opset1">
			<data element_type="f16" offset="44" shape="" size="2"/>
			<output>
				<port id="0" precision="FP16"/>
			</output>
		</layer>
		<layer id="17" name="model_1/model/zero_padding2d_1/Pad" type="Pad" version="opset1">
			<data pad_mode="constant"/>
			<input>
				<port id="0" precision="FP16">
					<dim>1</dim>
					<dim>32</dim>
					<dim>96</dim>
					<dim>96</dim>
				</port>
				<port id="1" precision="I64">
					<dim>4</dim>
				</port>
				<port id="2" precision="I64">
					<dim>4</dim>
				</port>
				<port id="3" precision="FP16"/>
			</input>
			<output>
				<port id="4" names="model_1/model/zero_padding2d_1/Pad:0" precision="FP16">
					<dim>1</dim>
					<dim>32</dim>
					<dim>98</dim>
					<dim>98</dim>
				</port>
			</output>
		</layer>
		<layer id="18" name="depthwise/filter_in" type="Const" version="opset1">
			<data element_type="f16" offset="1838" shape="32, 1, 1, 3, 3" size="576"/>
			<output>
				<port id="0" names="depthwise/filter_in:0" precision="FP16">
					<dim>32</dim>
					<dim>1</dim>
					<dim>1</dim>
					<dim>3</dim>
					<dim>3</dim>
				</port>
			</output>
		</layer>
		<layer id="19" name="depthwise" type="GroupConvolution" version="opset1">
			<data auto_pad="valid" dilations="1, 1" pads_begin="0, 0" pads_end="0, 0" strides="1, 1"/>
			<input>
				<port id="0" precision="FP16">
					<dim>1</dim>
					<dim>32</dim>
					<dim>98</dim>
					<dim>98</dim>
				</port>
				<port id="1" precision="FP16">
					<dim>32</dim>
					<dim>1</dim>
					<dim>1</dim>
					<dim>3</dim>
					<dim>3</dim>
				</port>
			</input>
			<output>
				<port id="2" names="depthwise:0" precision="FP16">
					<dim>1</dim>
					<dim>32</dim>
					<dim>96</dim>
					<dim>96</dim>
				</port>
			</output>
		</layer>
		<layer id="20" name="model_1/model/batch_normalization_1/FusedBatchNormV3_model_1/model/batch_normalization_79/FusedBatchNormV3_model_1/model/depthwise_conv2d_37/depthwise_model_1/model/depthwise_conv2d/depthwise/y" type="Const" version="opset1">
			<data element_type="f16" offset="2414" shape="1, 32, 1, 1" size="64"/>
			<output>
				<port id="0" names="model_1/model/batch_normalization_1/FusedBatchNormV3_model_1/model/batch_normalization_79/FusedBatchNormV3_model_1/model/depthwise_conv2d_37/depthwise_model_1/model/depthwise_conv2d/depthwise/y:0" precision="FP16">
					<dim>1</dim>
					<dim>32</dim>
					<dim>1</dim>
					<dim>1</dim>
				</port>
			</output>
		</layer>
		<layer id="21" name="model_1/model/batch_normalization_1/FusedBatchNormV3_model_1/model/batch_normalization_79/FusedBatchNormV3_model_1/model/depthwise_conv2d_37/depthwise_model_1/model/depthwise_conv2d/depthwise" type="Add" version="opset1">
			<data auto_broadcast="numpy"/>
			<input>
				<port id="0" precision="FP16">
					<dim>1</dim>
					<dim>32</dim>
					<dim>96</dim>
					<dim>96</dim>
				</port>
				<port id="1" precision="FP16">
					<dim>1</dim>
					<dim>32</dim>
					<dim>1</dim>
					<dim>1</dim>
				</port>
			</input>
			<output>
				<port id="2" names="model_1/model/batch_normalization_1/FusedBatchNormV3_model_1/model/batch_normalization_79/FusedBatchNormV3_model_1/model/depthwise_conv2d_37/depthwise_model_1/model/depthwise_conv2d/depthwise:0" precision="FP16">
					<dim>1</dim>
					<dim>32</dim>
					<dim>96</dim>
					<dim>96</dim>
				</port>
			</output>
		</layer>
		<layer id="22" name="Conv2D_1/filter" type="Const" version="opset1">
			<data element_type="f16" offset="2478" shape="8, 32, 1, 1" size="512"/>
			<output>
				<port id="0" names="Conv2D_1/filter:0" precision="FP16">
					<dim>8</dim>
					<dim>32</dim>
					<dim>1</dim>
					<dim>1</dim>
				</port>
			</output>
		</layer>
		<layer id="23" name="Conv2D_1" type="Convolution" version="opset1">
			<data auto_pad="valid" dilations="1, 1" pads_begin="0, 0" pads_end="0, 0" strides="1, 1"/>
			<input>
				<port id="0" precision="FP16">
					<dim>1</dim>
					<dim>32</dim>
					<dim>96</dim>
					<dim>96</dim>
				</port>
				<port id="1" precision="FP16">
					<dim>8</dim>
					<dim>32</dim>
					<dim>1</dim>
					<dim>1</dim>
				</port>
			</input>
			<output>
				<port id="2" names="Conv2D_1:0" precision="FP16">
					<dim>1</dim>
					<dim>8</dim>
					<dim>96</dim>
					<dim>96</dim>
				</port>
			</output>
		</layer>
		<layer id="24" name="Add_1/y" type="Const" version="opset1">
			<data element_type="f16" offset="2990" shape="1, 8, 1, 1" size="16"/>
			<output>
				<port id="0" names="Add_1/y:0" precision="FP16">
					<dim>1</dim>
					<dim>8</dim>
					<dim>1</dim>
					<dim>1</dim>
				</port>
			</output>
		</layer>
		<layer id="25" name="Add_1" type="Add" version="opset1">
			<data auto_broadcast="numpy"/>
			<input>
				<port id="0" precision="FP16">
					<dim>1</dim>
					<dim>8</dim>
					<dim>96</dim>
					<dim>96</dim>
				</port>
				<port id="1" precision="FP16">
					<dim>1</dim>
					<dim>8</dim>
					<dim>1</dim>
					<dim>1</dim>
				</port>
			</input>
			<output>
				<port id="2" names="Add_1:0" precision="FP16">
					<dim>1</dim>
					<dim>8</dim>
					<dim>96</dim>
					<dim>96</dim>
				</port>
			</output>
		</layer>
		<layer id="26" name="model_1/model/activation_1/Relu_model_1/model/batch_normalization_2/FusedBatchNormV3_model_1/model/batch_normalization_7/FusedBatchNormV3_model_1/model/depthwise_conv2d_3/depthwise_model_1/model/conv2d_1/Conv2D" type="ReLU" version="opset1">
			<input>
				<port id="0" precision="FP16">
					<dim>1</dim>
					<dim>8</dim>
					<dim>96</dim>
					<dim>96</dim>
				</port>
			</input>
			<output>
				<port id="1" names="model_1/model/activation_1/Relu_model_1/model/batch_normalization_2/FusedBatchNormV3_model_1/model/batch_normalization_7/FusedBatchNormV3_model_1/model/depthwise_conv2d_3/depthwise_model_1/model/conv2d_1/Conv2D:0" precision="FP16">
					<dim>1</dim>
					<dim>8</dim>
					<dim>96</dim>
					<dim>96</dim>
				</port>
			</output>
		</layer>
		<layer id="27" name="1460924834" type="Const" version="opset1">
			<data element_type="i64" offset="12" shape="4" size="32"/>
			<output>
				<port id="0" precision="I64">
					<dim>4</dim>
				</port>
			</output>
		</layer>
		<layer id="28" name="1461525260" type="Const" version="opset1">
			<data element_type="i64" offset="12" shape="4" size="32"/>
			<output>
				<port id="0" precision="I64">
					<dim>4</dim>
				</port>
			</output>
		</layer>
		<layer id="29" name="Constant_57" type="Const" version="opset1">
			<data element_type="f16" offset="44" shape="" size="2"/>
			<output>
				<port id="0" precision="FP16"/>
			</output>
		</layer>
		<layer id="30" name="model_1/model/zero_padding2d_2/Pad" type="Pad" version="opset1">
			<data pad_mode="constant"/>
			<input>
				<port id="0" precision="FP16">
					<dim>1</dim>
					<dim>8</dim>
					<dim>96</dim>
					<dim>96</dim>
				</port>
				<port id="1" precision="I64">
					<dim>4</dim>
				</port>
				<port id="2" precision="I64">
					<dim>4</dim>
				</port>
				<port id="3" precision="FP16"/>
			</input>
			<output>
				<port id="4" names="model_1/model/zero_padding2d_2/Pad:0" precision="FP16">
					<dim>1</dim>
					<dim>8</dim>
					<dim>98</dim>
					<dim>98</dim>
				</port>
			</output>
		</layer>
		<layer id="31" name="depthwise_1/filter_in" type="Const" version="opset1">
			<data element_type="f16" offset="3006" shape="8, 1, 1, 3, 3" size="144"/>
			<output>
				<port id="0" names="depthwise_1/filter_in:0" precision="FP16">
					<dim>8</dim>
					<dim>1</dim>
					<dim>1</dim>
					<dim>3</dim>
					<dim>3</dim>
				</port>
			</output>
		</layer>
		<layer id="32" name="depthwise_1" type="GroupConvolution" version="opset1">
			<data auto_pad="valid" dilations="1, 1" pads_begin="0, 0" pads_end="0, 0" strides="1, 1"/>
			<input>
				<port id="0" precision="FP16">
					<dim>1</dim>
					<dim>8</dim>
					<dim>98</dim>
					<dim>98</dim>
				</port>
				<port id="1" precision="FP16">
					<dim>8</dim>
					<dim>1</dim>
					<dim>1</dim>
					<dim>3</dim>
					<dim>3</dim>
				</port>
			</input>
			<output>
				<port id="2" names="depthwise_1:0" precision="FP16">
					<dim>1</dim>
					<dim>8</dim>
					<dim>96</dim>
					<dim>96</dim>
				</port>
			</output>
		</layer>
		<layer id="33" name="model_1/model/batch_normalization_3/FusedBatchNormV3_model_1/model/batch_normalization_7/FusedBatchNormV3_model_1/model/depthwise_conv2d_3/depthwise_model_1/model/depthwise_conv2d_1/depthwise/y" type="Const" version="opset1">
			<data element_type="f16" offset="3150" shape="1, 8, 1, 1" size="16"/>
			<output>
				<port id="0" names="model_1/model/batch_normalization_3/FusedBatchNormV3_model_1/model/batch_normalization_7/FusedBatchNormV3_model_1/model/depthwise_conv2d_3/depthwise_model_1/model/depthwise_conv2d_1/depthwise/y:0" precision="FP16">
					<dim>1</dim>
					<dim>8</dim>
					<dim>1</dim>
					<dim>1</dim>
				</port>
			</output>
		</layer>
		<layer id="34" name="model_1/model/batch_normalization_3/FusedBatchNormV3_model_1/model/batch_normalization_7/FusedBatchNormV3_model_1/model/depthwise_conv2d_3/depthwise_model_1/model/depthwise_conv2d_1/depthwise" type="Add" version="opset1">
			<data auto_broadcast="numpy"/>
			<input>
				<port id="0" precision="FP16">
					<dim>1</dim>
					<dim>8</dim>
					<dim>96</dim>
					<dim>96</dim>
				</port>
				<port id="1" precision="FP16">
					<dim>1</dim>
					<dim>8</dim>
					<dim>1</dim>
					<dim>1</dim>
				</port>
			</input>
			<output>
				<port id="2" names="model_1/model/batch_normalization_3/FusedBatchNormV3_model_1/model/batch_normalization_7/FusedBatchNormV3_model_1/model/depthwise_conv2d_3/depthwise_model_1/model/depthwise_conv2d_1/depthwise:0" precision="FP16">
					<dim>1</dim>
					<dim>8</dim>
					<dim>96</dim>
					<dim>96</dim>
				</port>
			</output>
		</layer>
		<layer id="35" name="Conv2D_2/filter" type="Const" version="opset1">
			<data element_type="f16" offset="3166" shape="32, 8, 1, 1" size="512"/>
			<output>
				<port id="0" names="Conv2D_2/filter:0" precision="FP16">
					<dim>32</dim>
					<dim>8</dim>
					<dim>1</dim>
					<dim>1</dim>
				</port>
			</output>
		</layer>
		<layer id="36" name="Conv2D_2" type="Convolution" version="opset1">
			<data auto_pad="valid" dilations="1, 1" pads_begin="0, 0" pads_end="0, 0" strides="1, 1"/>
			<input>
				<port id="0" precision="FP16">
					<dim>1</dim>
					<dim>8</dim>
					<dim>96</dim>
					<dim>96</dim>
				</port>
				<port id="1" precision="FP16">
					<dim>32</dim>
					<dim>8</dim>
					<dim>1</dim>
					<dim>1</dim>
				</port>
			</input>
			<output>
				<port id="2" names="Conv2D_2:0" precision="FP16">
					<dim>1</dim>
					<dim>32</dim>
					<dim>96</dim>
					<dim>96</dim>
				</port>
			</output>
		</layer>
		<layer id="37" name="model_1/model/batch_normalization_4/FusedBatchNormV3_model_1/model/depthwise_conv2d_37/depthwise_model_1/model/conv2d_2/Conv2D1/y" type="Const" version="opset1">
			<data element_type="f16" offset="3678" shape="1, 32, 1, 1" size="64"/>
			<output>
				<port id="0" names="model_1/model/batch_normalization_4/FusedBatchNormV3_model_1/model/depthwise_conv2d_37/depthwise_model_1/model/conv2d_2/Conv2D1/y:0" precision="FP16">
					<dim>1</dim>
					<dim>32</dim>
					<dim>1</dim>
					<dim>1</dim>
				</port>
			</output>
		</layer>
		<layer id="38" name="model_1/model/batch_normalization_4/FusedBatchNormV3_model_1/model/depthwise_conv2d_37/depthwise_model_1/model/conv2d_2/Conv2D1" type="Add" version="opset1">
			<data auto_broadcast="numpy"/>
			<input>
				<port id="0" precision="FP16">
					<dim>1</dim>
					<dim>32</dim>
					<dim>96</dim>
					<dim>96</dim>
				</port>
				<port id="1" precision="FP16">
					<dim>1</dim>
					<dim>32</dim>
					<dim>1</dim>
					<dim>1</dim>
				</port>
			</input>
			<output>
				<port id="2" names="model_1/model/batch_normalization_4/FusedBatchNormV3_model_1/model/depthwise_conv2d_37/depthwise_model_1/model/conv2d_2/Conv2D1:0" precision="FP16">
					<dim>1</dim>
					<dim>32</dim>
					<dim>96</dim>
					<dim>96</dim>
				</port>
			</output>
		</layer>
		<layer id="39" name="Add_2" type="Add" version="opset1">
			<data auto_broadcast="numpy"/>
			<input>
				<port id="0" precision="FP16">
					<dim>1</dim>
					<dim>32</dim>
					<dim>96</dim>
					<dim>96</dim>
				</port>
				<port id="1" precision="FP16">
					<dim>1</dim>
					<dim>32</dim>
					<dim>96</dim>
					<dim>96</dim>
				</port>
			</input>
			<output>
				<port id="2" names="Add_2:0" precision="FP16">
					<dim>1</dim>
					<dim>32</dim>
					<dim>96</dim>
					<dim>96</dim>
				</port>
			</output>
		</layer>
		<layer id="40" name="model_1/model/activation_2/Relu_model_1/model/add/add" type="ReLU" version="opset1">
			<input>
				<port id="0" precision="FP16">
					<dim>1</dim>
					<dim>32</dim>
					<dim>96</dim>
					<dim>96</dim>
				</port>
			</input>
			<output>
				<port id="1" names="model_1/model/activation_2/Relu_model_1/model/add/add:0" precision="FP16">
					<dim>1</dim>
					<dim>32</dim>
					<dim>96</dim>
					<dim>96</dim>
				</port>
			</output>
		</layer>
		<layer id="41" name="1462124744" type="Const" version="opset1">
			<data element_type="i64" offset="12" shape="4" size="32"/>
			<output>
				<port id="0" precision="I64">
					<dim>4</dim>
				</port>
			</output>
		</layer>
		<layer id="42" name="1462724666" type="Const" version="opset1">
			<data element_type="i64" offset="12" shape="4" size="32"/>
			<output>
				<port id="0" precision="I64">
					<dim>4</dim>
				</port>
			</output>
		</layer>
		<layer id="43" name="Constant_84" type="Const" version="opset1">
			<data element_type="f16" offset="44" shape="" size="2"/>
			<output>
				<port id="0" precision="FP16"/>
			</output>
		</layer>
		<layer id="44" name="model_1/model/zero_padding2d_3/Pad" type="Pad" version="opset1">
			<data pad_mode="constant"/>
			<input>
				<port id="0" precision="FP16">
					<dim>1</dim>
					<dim>32</dim>
					<dim>96</dim>
					<dim>96</dim>
				</port>
				<port id="1" precision="I64">
					<dim>4</dim>
				</port>
				<port id="2" precision="I64">
					<dim>4</dim>
				</port>
				<port id="3" precision="FP16"/>
			</input>
			<output>
				<port id="4" names="model_1/model/zero_padding2d_3/Pad:0" precision="FP16">
					<dim>1</dim>
					<dim>32</dim>
					<dim>98</dim>
					<dim>98</dim>
				</port>
			</output>
		</layer>
		<layer id="45" name="depthwise_2/filter_in" type="Const" version="opset1">
			<data element_type="f16" offset="3742" shape="32, 1, 1, 3, 3" size="576"/>
			<output>
				<port id="0" names="depthwise_2/filter_in:0" precision="FP16">
					<dim>32</dim>
					<dim>1</dim>
					<dim>1</dim>
					<dim>3</dim>
					<dim>3</dim>
				</port>
			</output>
		</layer>
		<layer id="46" name="depthwise_2" type="GroupConvolution" version="opset1">
			<data auto_pad="valid" dilations="1, 1" pads_begin="0, 0" pads_end="0, 0" strides="1, 1"/>
			<input>
				<port id="0" precision="FP16">
					<dim>1</dim>
					<dim>32</dim>
					<dim>98</dim>
					<dim>98</dim>
				</port>
				<port id="1" precision="FP16">
					<dim>32</dim>
					<dim>1</dim>
					<dim>1</dim>
					<dim>3</dim>
					<dim>3</dim>
				</port>
			</input>
			<output>
				<port id="2" names="depthwise_2:0" precision="FP16">
					<dim>1</dim>
					<dim>32</dim>
					<dim>96</dim>
					<dim>96</dim>
				</port>
			</output>
		</layer>
		<layer id="47" name="model_1/model/batch_normalization_5/FusedBatchNormV3_model_1/model/batch_normalization_79/FusedBatchNormV3_model_1/model/depthwise_conv2d_37/depthwise_model_1/model/depthwise_conv2d_2/depthwise/y" type="Const" version="opset1">
			<data element_type="f16" offset="4318" shape="1, 32, 1, 1" size="64"/>
			<output>
				<port id="0" names="model_1/model/batch_normalization_5/FusedBatchNormV3_model_1/model/batch_normalization_79/FusedBatchNormV3_model_1/model/depthwise_conv2d_37/depthwise_model_1/model/depthwise_conv2d_2/depthwise/y:0" precision="FP16">
					<dim>1</dim>
					<dim>32</dim>
					<dim>1</dim>
					<dim>1</dim>
				</port>
			</output>
		</layer>
		<layer id="48" name="model_1/model/batch_normalization_5/FusedBatchNormV3_model_1/model/batch_normalization_79/FusedBatchNormV3_model_1/model/depthwise_conv2d_37/depthwise_model_1/model/depthwise_conv2d_2/depthwise" type="Add" version="opset1">
			<data auto_broadcast="numpy"/>
			<input>
				<port id="0" precision="FP16">
					<dim>1</dim>
					<dim>32</dim>
					<dim>96</dim>
					<dim>96</dim>
				</port>
				<port id="1" precision="FP16">
					<dim>1</dim>
					<dim>32</dim>
					<dim>1</dim>
					<dim>1</dim>
				</port>
			</input>
			<output>
				<port id="2" names="model_1/model/batch_normalization_5/FusedBatchNormV3_model_1/model/batch_normalization_79/FusedBatchNormV3_model_1/model/depthwise_conv2d_37/depthwise_model_1/model/depthwise_conv2d_2/depthwise:0" precision="FP16">
					<dim>1</dim>
					<dim>32</dim>
					<dim>96</dim>
					<dim>96</dim>
				</port>
			</output>
		</layer>
		<layer id="49" name="Conv2D_3/filter" type="Const" version="opset1">
			<data element_type="f16" offset="4382" shape="8, 32, 1, 1" size="512"/>
			<output>
				<port id="0" names="Conv2D_3/filter:0" precision="FP16">
					<dim>8</dim>
					<dim>32</dim>
					<dim>1</dim>
					<dim>1</dim>
				</port>
			</output>
		</layer>
		<layer id="50" name="Conv2D_3" type="Convolution" version="opset1">
			<data auto_pad="valid" dilations="1, 1" pads_begin="0, 0" pads_end="0, 0" strides="1, 1"/>
			<input>
				<port id="0" precision="FP16">
					<dim>1</dim>
					<dim>32</dim>
					<dim>96</dim>
					<dim>96</dim>
				</port>
				<port id="1" precision="FP16">
					<dim>8</dim>
					<dim>32</dim>
					<dim>1</dim>
					<dim>1</dim>
				</port>
			</input>
			<output>
				<port id="2" names="Conv2D_3:0" precision="FP16">
					<dim>1</dim>
					<dim>8</dim>
					<dim>96</dim>
					<dim>96</dim>
				</port>
			</output>
		</layer>
		<layer id="51" name="Add_3/y" type="Const" version="opset1">
			<data element_type="f16" offset="4894" shape="1, 8, 1, 1" size="16"/>
			<output>
				<port id="0" names="Add_3/y:0" precision="FP16">
					<dim>1</dim>
					<dim>8</dim>
					<dim>1</dim>
					<dim>1</dim>
				</port>
			</output>
		</layer>
		<layer id="52" name="Add_3" type="Add" version="opset1">
			<data auto_broadcast="numpy"/>
			<input>
				<port id="0" precision="FP16">
					<dim>1</dim>
					<dim>8</dim>
					<dim>96</dim>
					<dim>96</dim>
				</port>
				<port id="1" precision="FP16">
					<dim>1</dim>
					<dim>8</dim>
					<dim>1</dim>
					<dim>1</dim>
				</port>
			</input>
			<output>
				<port id="2" names="Add_3:0" precision="FP16">
					<dim>1</dim>
					<dim>8</dim>
					<dim>96</dim>
					<dim>96</dim>
				</port>
			</output>
		</layer>
		<layer id="53" name="model_1/model/activation_3/Relu_model_1/model/batch_normalization_6/FusedBatchNormV3_model_1/model/batch_normalization_7/FusedBatchNormV3_model_1/model/depthwise_conv2d_3/depthwise_model_1/model/conv2d_3/Conv2D" type="ReLU" version="opset1">
			<input>
				<port id="0" precision="FP16">
					<dim>1</dim>
					<dim>8</dim>
					<dim>96</dim>
					<dim>96</dim>
				</port>
			</input>
			<output>
				<port id="1" names="model_1/model/activation_3/Relu_model_1/model/batch_normalization_6/FusedBatchNormV3_model_1/model/batch_normalization_7/FusedBatchNormV3_model_1/model/depthwise_conv2d_3/depthwise_model_1/model/conv2d_3/Conv2D:0" precision="FP16">
					<dim>1</dim>
					<dim>8</dim>
					<dim>96</dim>
					<dim>96</dim>
				</port>
			</output>
		</layer>
		<layer id="54" name="1463324876" type="Const" version="opset1">
			<data element_type="i64" offset="12" shape="4" size="32"/>
			<output>
				<port id="0" precision="I64">
					<dim>4</dim>
				</port>
			</output>
		</layer>
		<layer id="55" name="1463925413" type="Const" version="opset1">
			<data element_type="i64" offset="12" shape="4" size="32"/>
			<output>
				<port id="0" precision="I64">
					<dim>4</dim>
				</port>
			</output>
		</layer>
		<layer id="56" name="Constant_109" type="Const" version="opset1">
			<data element_type="f16" offset="44" shape="" size="2"/>
			<output>
				<port id="0" precision="FP16"/>
			</output>
		</layer>
		<layer id="57" name="model_1/model/zero_padding2d_4/Pad" type="Pad" version="opset1">
			<data pad_mode="constant"/>
			<input>
				<port id="0" precision="FP16">
					<dim>1</dim>
					<dim>8</dim>
					<dim>96</dim>
					<dim>96</dim>
				</port>
				<port id="1" precision="I64">
					<dim>4</dim>
				</port>
				<port id="2" precision="I64">
					<dim>4</dim>
				</port>
				<port id="3" precision="FP16"/>
			</input>
			<output>
				<port id="4" names="model_1/model/zero_padding2d_4/Pad:0" precision="FP16">
					<dim>1</dim>
					<dim>8</dim>
					<dim>98</dim>
					<dim>98</dim>
				</port>
			</output>
		</layer>
		<layer id="58" name="depthwise_3/filter_in" type="Const" version="opset1">
			<data element_type="f16" offset="4910" shape="8, 1, 1, 3, 3" size="144"/>
			<output>
				<port id="0" names="depthwise_3/filter_in:0" precision="FP16">
					<dim>8</dim>
					<dim>1</dim>
					<dim>1</dim>
					<dim>3</dim>
					<dim>3</dim>
				</port>
			</output>
		</layer>
		<layer id="59" name="depthwise_3" type="GroupConvolution" version="opset1">
			<data auto_pad="valid" dilations="1, 1" pads_begin="0, 0" pads_end="0, 0" strides="1, 1"/>
			<input>
				<port id="0" precision="FP16">
					<dim>1</dim>
					<dim>8</dim>
					<dim>98</dim>
					<dim>98</dim>
				</port>
				<port id="1" precision="FP16">
					<dim>8</dim>
					<dim>1</dim>
					<dim>1</dim>
					<dim>3</dim>
					<dim>3</dim>
				</port>
			</input>
			<output>
				<port id="2" names="depthwise_3:0" precision="FP16">
					<dim>1</dim>
					<dim>8</dim>
					<dim>96</dim>
					<dim>96</dim>
				</port>
			</output>
		</layer>
		<layer id="60" name="model_1/model/batch_normalization_7/FusedBatchNormV3_model_1/model/depthwise_conv2d_3/depthwise1/y" type="Const" version="opset1">
			<data element_type="f16" offset="5054" shape="1, 8, 1, 1" size="16"/>
			<output>
				<port id="0" names="model_1/model/batch_normalization_7/FusedBatchNormV3_model_1/model/depthwise_conv2d_3/depthwise1/y:0" precision="FP16">
					<dim>1</dim>
					<dim>8</dim>
					<dim>1</dim>
					<dim>1</dim>
				</port>
			</output>
		</layer>
		<layer id="61" name="model_1/model/batch_normalization_7/FusedBatchNormV3_model_1/model/depthwise_conv2d_3/depthwise1" type="Add" version="opset1">
			<data auto_broadcast="numpy"/>
			<input>
				<port id="0" precision="FP16">
					<dim>1</dim>
					<dim>8</dim>
					<dim>96</dim>
					<dim>96</dim>
				</port>
				<port id="1" precision="FP16">
					<dim>1</dim>
					<dim>8</dim>
					<dim>1</dim>
					<dim>1</dim>
				</port>
			</input>
			<output>
				<port id="2" names="model_1/model/batch_normalization_7/FusedBatchNormV3_model_1/model/depthwise_conv2d_3/depthwise1:0" precision="FP16">
					<dim>1</dim>
					<dim>8</dim>
					<dim>96</dim>
					<dim>96</dim>
				</port>
			</output>
		</layer>
		<layer id="62" name="Conv2D_4/filter" type="Const" version="opset1">
			<data element_type="f16" offset="5070" shape="32, 8, 1, 1" size="512"/>
			<output>
				<port id="0" names="Conv2D_4/filter:0" precision="FP16">
					<dim>32</dim>
					<dim>8</dim>
					<dim>1</dim>
					<dim>1</dim>
				</port>
			</output>
		</layer>
		<layer id="63" name="Conv2D_4" type="Convolution" version="opset1">
			<data auto_pad="valid" dilations="1, 1" pads_begin="0, 0" pads_end="0, 0" strides="1, 1"/>
			<input>
				<port id="0" precision="FP16">
					<dim>1</dim>
					<dim>8</dim>
					<dim>96</dim>
					<dim>96</dim>
				</port>
				<port id="1" precision="FP16">
					<dim>32</dim>
					<dim>8</dim>
					<dim>1</dim>
					<dim>1</dim>
				</port>
			</input>
			<output>
				<port id="2" names="Conv2D_4:0" precision="FP16">
					<dim>1</dim>
					<dim>32</dim>
					<dim>96</dim>
					<dim>96</dim>
				</port>
			</output>
		</layer>
		<layer id="64" name="model_1/model/batch_normalization_8/FusedBatchNormV3_model_1/model/depthwise_conv2d_37/depthwise_model_1/model/conv2d_4/Conv2D1/y" type="Const" version="opset1">
			<data element_type="f16" offset="5582" shape="1, 32, 1, 1" size="64"/>
			<output>
				<port id="0" names="model_1/model/batch_normalization_8/FusedBatchNormV3_model_1/model/depthwise_conv2d_37/depthwise_model_1/model/conv2d_4/Conv2D1/y:0" precision="FP16">
					<dim>1</dim>
					<dim>32</dim>
					<dim>1</dim>
					<dim>1</dim>
				</port>
			</output>
		</layer>
		<layer id="65" name="model_1/model/batch_normalization_8/FusedBatchNormV3_model_1/model/depthwise_conv2d_37/depthwise_model_1/model/conv2d_4/Conv2D1" type="Add" version="opset1">
			<data auto_broadcast="numpy"/>
			<input>
				<port id="0" precision="FP16">
					<dim>1</dim>
					<dim>32</dim>
					<dim>96</dim>
					<dim>96</dim>
				</port>
				<port id="1" precision="FP16">
					<dim>1</dim>
					<dim>32</dim>
					<dim>1</dim>
					<dim>1</dim>
				</port>
			</input>
			<output>
				<port id="2" names="model_1/model/batch_normalization_8/FusedBatchNormV3_model_1/model/depthwise_conv2d_37/depthwise_model_1/model/conv2d_4/Conv2D1:0" precision="FP16">
					<dim>1</dim>
					<dim>32</dim>
					<dim>96</dim>
					<dim>96</dim>
				</port>
			</output>
		</layer>
		<layer id="66" name="Add_4" type="Add" version="opset1">
			<data auto_broadcast="numpy"/>
			<input>
				<port id="0" precision="FP16">
					<dim>1</dim>
					<dim>32</dim>
					<dim>96</dim>
					<dim>96</dim>
				</port>
				<port id="1" precision="FP16">
					<dim>1</dim>
					<dim>32</dim>
					<dim>96</dim>
					<dim>96</dim>
				</port>
			</input>
			<output>
				<port id="2" names="Add_4:0" precision="FP16">
					<dim>1</dim>
					<dim>32</dim>
					<dim>96</dim>
					<dim>96</dim>
				</port>
			</output>
		</layer>
		<layer id="67" name="model_1/model/activation_4/Relu_model_1/model/add_1/add" type="ReLU" version="opset1">
			<input>
				<port id="0" precision="FP16">
					<dim>1</dim>
					<dim>32</dim>
					<dim>96</dim>
					<dim>96</dim>
				</port>
			</input>
			<output>
				<port id="1" names="model_1/model/activation_4/Relu_model_1/model/add_1/add:0" precision="FP16">
					<dim>1</dim>
					<dim>32</dim>
					<dim>96</dim>
					<dim>96</dim>
				</port>
			</output>
		</layer>
		<layer id="68" name="1464524750" type="Const" version="opset1">
			<data element_type="i64" offset="12" shape="4" size="32"/>
			<output>
				<port id="0" precision="I64">
					<dim>4</dim>
				</port>
			</output>
		</layer>
		<layer id="69" name="1465125155" type="Const" version="opset1">
			<data element_type="i64" offset="12" shape="4" size="32"/>
			<output>
				<port id="0" precision="I64">
					<dim>4</dim>
				</port>
			</output>
		</layer>
		<layer id="70" name="Constant_136" type="Const" version="opset1">
			<data element_type="f16" offset="44" shape="" size="2"/>
			<output>
				<port id="0" precision="FP16"/>
			</output>
		</layer>
		<layer id="71" name="model_1/model/zero_padding2d_5/Pad" type="Pad" version="opset1">
			<data pad_mode="constant"/>
			<input>
				<port id="0" precision="FP16">
					<dim>1</dim>
					<dim>32</dim>
					<dim>96</dim>
					<dim>96</dim>
				</port>
				<port id="1" precision="I64">
					<dim>4</dim>
				</port>
				<port id="2" precision="I64">
					<dim>4</dim>
				</port>
				<port id="3" precision="FP16"/>
			</input>
			<output>
				<port id="4" names="model_1/model/zero_padding2d_5/Pad:0" precision="FP16">
					<dim>1</dim>
					<dim>32</dim>
					<dim>98</dim>
					<dim>98</dim>
				</port>
			</output>
		</layer>
		<layer id="72" name="depthwise_4/filter_in" type="Const" version="opset1">
			<data element_type="f16" offset="5646" shape="32, 1, 1, 3, 3" size="576"/>
			<output>
				<port id="0" names="depthwise_4/filter_in:0" precision="FP16">
					<dim>32</dim>
					<dim>1</dim>
					<dim>1</dim>
					<dim>3</dim>
					<dim>3</dim>
				</port>
			</output>
		</layer>
		<layer id="73" name="depthwise_4" type="GroupConvolution" version="opset1">
			<data auto_pad="valid" dilations="1, 1" pads_begin="0, 0" pads_end="0, 0" strides="2, 2"/>
			<input>
				<port id="0" precision="FP16">
					<dim>1</dim>
					<dim>32</dim>
					<dim>98</dim>
					<dim>98</dim>
				</port>
				<port id="1" precision="FP16">
					<dim>32</dim>
					<dim>1</dim>
					<dim>1</dim>
					<dim>3</dim>
					<dim>3</dim>
				</port>
			</input>
			<output>
				<port id="2" names="depthwise_4:0" precision="FP16">
					<dim>1</dim>
					<dim>32</dim>
					<dim>48</dim>
					<dim>48</dim>
				</port>
			</output>
		</layer>
		<layer id="74" name="model_1/model/batch_normalization_9/FusedBatchNormV3_model_1/model/batch_normalization_79/FusedBatchNormV3_model_1/model/depthwise_conv2d_37/depthwise_model_1/model/depthwise_conv2d_4/depthwise/y" type="Const" version="opset1">
			<data element_type="f16" offset="6222" shape="1, 32, 1, 1" size="64"/>
			<output>
				<port id="0" names="model_1/model/batch_normalization_9/FusedBatchNormV3_model_1/model/batch_normalization_79/FusedBatchNormV3_model_1/model/depthwise_conv2d_37/depthwise_model_1/model/depthwise_conv2d_4/depthwise/y:0" precision="FP16">
					<dim>1</dim>
					<dim>32</dim>
					<dim>1</dim>
					<dim>1</dim>
				</port>
			</output>
		</layer>
		<layer id="75" name="model_1/model/batch_normalization_9/FusedBatchNormV3_model_1/model/batch_normalization_79/FusedBatchNormV3_model_1/model/depthwise_conv2d_37/depthwise_model_1/model/depthwise_conv2d_4/depthwise" type="Add" version="opset1">
			<data auto_broadcast="numpy"/>
			<input>
				<port id="0" precision="FP16">
					<dim>1</dim>
					<dim>32</dim>
					<dim>48</dim>
					<dim>48</dim>
				</port>
				<port id="1" precision="FP16">
					<dim>1</dim>
					<dim>32</dim>
					<dim>1</dim>
					<dim>1</dim>
				</port>
			</input>
			<output>
				<port id="2" names="model_1/model/batch_normalization_9/FusedBatchNormV3_model_1/model/batch_normalization_79/FusedBatchNormV3_model_1/model/depthwise_conv2d_37/depthwise_model_1/model/depthwise_conv2d_4/depthwise:0" precision="FP16">
					<dim>1</dim>
					<dim>32</dim>
					<dim>48</dim>
					<dim>48</dim>
				</port>
			</output>
		</layer>
		<layer id="76" name="Conv2D_5/filter" type="Const" version="opset1">
			<data element_type="f16" offset="6286" shape="16, 32, 1, 1" size="1024"/>
			<output>
				<port id="0" names="Conv2D_5/filter:0" precision="FP16">
					<dim>16</dim>
					<dim>32</dim>
					<dim>1</dim>
					<dim>1</dim>
				</port>
			</output>
		</layer>
		<layer id="77" name="Conv2D_5" type="Convolution" version="opset1">
			<data auto_pad="valid" dilations="1, 1" pads_begin="0, 0" pads_end="0, 0" strides="1, 1"/>
			<input>
				<port id="0" precision="FP16">
					<dim>1</dim>
					<dim>32</dim>
					<dim>48</dim>
					<dim>48</dim>
				</port>
				<port id="1" precision="FP16">
					<dim>16</dim>
					<dim>32</dim>
					<dim>1</dim>
					<dim>1</dim>
				</port>
			</input>
			<output>
				<port id="2" names="Conv2D_5:0" precision="FP16">
					<dim>1</dim>
					<dim>16</dim>
					<dim>48</dim>
					<dim>48</dim>
				</port>
			</output>
		</layer>
		<layer id="78" name="Add_5/y" type="Const" version="opset1">
			<data element_type="f16" offset="7310" shape="1, 16, 1, 1" size="32"/>
			<output>
				<port id="0" names="Add_5/y:0" precision="FP16">
					<dim>1</dim>
					<dim>16</dim>
					<dim>1</dim>
					<dim>1</dim>
				</port>
			</output>
		</layer>
		<layer id="79" name="Add_5" type="Add" version="opset1">
			<data auto_broadcast="numpy"/>
			<input>
				<port id="0" precision="FP16">
					<dim>1</dim>
					<dim>16</dim>
					<dim>48</dim>
					<dim>48</dim>
				</port>
				<port id="1" precision="FP16">
					<dim>1</dim>
					<dim>16</dim>
					<dim>1</dim>
					<dim>1</dim>
				</port>
			</input>
			<output>
				<port id="2" names="Add_5:0" precision="FP16">
					<dim>1</dim>
					<dim>16</dim>
					<dim>48</dim>
					<dim>48</dim>
				</port>
			</output>
		</layer>
		<layer id="80" name="model_1/model/activation_5/Relu_model_1/model/batch_normalization_10/FusedBatchNormV3_model_1/model/batch_normalization_19/FusedBatchNormV3_model_1/model/depthwise_conv2d_9/depthwise_model_1/model/conv2d_5/Conv2D" type="ReLU" version="opset1">
			<input>
				<port id="0" precision="FP16">
					<dim>1</dim>
					<dim>16</dim>
					<dim>48</dim>
					<dim>48</dim>
				</port>
			</input>
			<output>
				<port id="1" names="model_1/model/activation_5/Relu_model_1/model/batch_normalization_10/FusedBatchNormV3_model_1/model/batch_normalization_19/FusedBatchNormV3_model_1/model/depthwise_conv2d_9/depthwise_model_1/model/conv2d_5/Conv2D:0" precision="FP16">
					<dim>1</dim>
					<dim>16</dim>
					<dim>48</dim>
					<dim>48</dim>
				</port>
			</output>
		</layer>
		<layer id="81" name="1465724813" type="Const" version="opset1">
			<data element_type="i64" offset="12" shape="4" size="32"/>
			<output>
				<port id="0" precision="I64">
					<dim>4</dim>
				</port>
			</output>
		</layer>
		<layer id="82" name="1466325074" type="Const" version="opset1">
			<data element_type="i64" offset="12" shape="4" size="32"/>
			<output>
				<port id="0" precision="I64">
					<dim>4</dim>
				</port>
			</output>
		</layer>
		<layer id="83" name="Constant_161" type="Const" version="opset1">
			<data element_type="f16" offset="44" shape="" size="2"/>
			<output>
				<port id="0" precision="FP16"/>
			</output>
		</layer>
		<layer id="84" name="model_1/model/zero_padding2d_6/Pad" type="Pad" version="opset1">
			<data pad_mode="constant"/>
			<input>
				<port id="0" precision="FP16">
					<dim>1</dim>
					<dim>16</dim>
					<dim>48</dim>
					<dim>48</dim>
				</port>
				<port id="1" precision="I64">
					<dim>4</dim>
				</port>
				<port id="2" precision="I64">
					<dim>4</dim>
				</port>
				<port id="3" precision="FP16"/>
			</input>
			<output>
				<port id="4" names="model_1/model/zero_padding2d_6/Pad:0" precision="FP16">
					<dim>1</dim>
					<dim>16</dim>
					<dim>50</dim>
					<dim>50</dim>
				</port>
			</output>
		</layer>
		<layer id="85" name="depthwise_5/filter_in" type="Const" version="opset1">
			<data element_type="f16" offset="7342" shape="16, 1, 1, 3, 3" size="288"/>
			<output>
				<port id="0" names="depthwise_5/filter_in:0" precision="FP16">
					<dim>16</dim>
					<dim>1</dim>
					<dim>1</dim>
					<dim>3</dim>
					<dim>3</dim>
				</port>
			</output>
		</layer>
		<layer id="86" name="depthwise_5" type="GroupConvolution" version="opset1">
			<data auto_pad="valid" dilations="1, 1" pads_begin="0, 0" pads_end="0, 0" strides="1, 1"/>
			<input>
				<port id="0" precision="FP16">
					<dim>1</dim>
					<dim>16</dim>
					<dim>50</dim>
					<dim>50</dim>
				</port>
				<port id="1" precision="FP16">
					<dim>16</dim>
					<dim>1</dim>
					<dim>1</dim>
					<dim>3</dim>
					<dim>3</dim>
				</port>
			</input>
			<output>
				<port id="2" names="depthwise_5:0" precision="FP16">
					<dim>1</dim>
					<dim>16</dim>
					<dim>48</dim>
					<dim>48</dim>
				</port>
			</output>
		</layer>
		<layer id="87" name="model_1/model/batch_normalization_11/FusedBatchNormV3_model_1/model/batch_normalization_19/FusedBatchNormV3_model_1/model/depthwise_conv2d_9/depthwise_model_1/model/depthwise_conv2d_5/depthwise/y" type="Const" version="opset1">
			<data element_type="f16" offset="7630" shape="1, 16, 1, 1" size="32"/>
			<output>
				<port id="0" names="model_1/model/batch_normalization_11/FusedBatchNormV3_model_1/model/batch_normalization_19/FusedBatchNormV3_model_1/model/depthwise_conv2d_9/depthwise_model_1/model/depthwise_conv2d_5/depthwise/y:0" precision="FP16">
					<dim>1</dim>
					<dim>16</dim>
					<dim>1</dim>
					<dim>1</dim>
				</port>
			</output>
		</layer>
		<layer id="88" name="model_1/model/batch_normalization_11/FusedBatchNormV3_model_1/model/batch_normalization_19/FusedBatchNormV3_model_1/model/depthwise_conv2d_9/depthwise_model_1/model/depthwise_conv2d_5/depthwise" type="Add" version="opset1">
			<data auto_broadcast="numpy"/>
			<input>
				<port id="0" precision="FP16">
					<dim>1</dim>
					<dim>16</dim>
					<dim>48</dim>
					<dim>48</dim>
				</port>
				<port id="1" precision="FP16">
					<dim>1</dim>
					<dim>16</dim>
					<dim>1</dim>
					<dim>1</dim>
				</port>
			</input>
			<output>
				<port id="2" names="model_1/model/batch_normalization_11/FusedBatchNormV3_model_1/model/batch_normalization_19/FusedBatchNormV3_model_1/model/depthwise_conv2d_9/depthwise_model_1/model/depthwise_conv2d_5/depthwise:0" precision="FP16">
					<dim>1</dim>
					<dim>16</dim>
					<dim>48</dim>
					<dim>48</dim>
				</port>
			</output>
		</layer>
		<layer id="89" name="Conv2D_6/filter" type="Const" version="opset1">
			<data element_type="f16" offset="7662" shape="64, 16, 1, 1" size="2048"/>
			<output>
				<port id="0" names="Conv2D_6/filter:0" precision="FP16">
					<dim>64</dim>
					<dim>16</dim>
					<dim>1</dim>
					<dim>1</dim>
				</port>
			</output>
		</layer>
		<layer id="90" name="Conv2D_6" type="Convolution" version="opset1">
			<data auto_pad="valid" dilations="1, 1" pads_begin="0, 0" pads_end="0, 0" strides="1, 1"/>
			<input>
				<port id="0" precision="FP16">
					<dim>1</dim>
					<dim>16</dim>
					<dim>48</dim>
					<dim>48</dim>
				</port>
				<port id="1" precision="FP16">
					<dim>64</dim>
					<dim>16</dim>
					<dim>1</dim>
					<dim>1</dim>
				</port>
			</input>
			<output>
				<port id="2" names="Conv2D_6:0" precision="FP16">
					<dim>1</dim>
					<dim>64</dim>
					<dim>48</dim>
					<dim>48</dim>
				</port>
			</output>
		</layer>
		<layer id="91" name="Add_6/y" type="Const" version="opset1">
			<data element_type="f16" offset="9710" shape="1, 64, 1, 1" size="128"/>
			<output>
				<port id="0" names="Add_6/y:0" precision="FP16">
					<dim>1</dim>
					<dim>64</dim>
					<dim>1</dim>
					<dim>1</dim>
				</port>
			</output>
		</layer>
		<layer id="92" name="Add_6" type="Add" version="opset1">
			<data auto_broadcast="numpy"/>
			<input>
				<port id="0" precision="FP16">
					<dim>1</dim>
					<dim>64</dim>
					<dim>48</dim>
					<dim>48</dim>
				</port>
				<port id="1" precision="FP16">
					<dim>1</dim>
					<dim>64</dim>
					<dim>1</dim>
					<dim>1</dim>
				</port>
			</input>
			<output>
				<port id="2" names="Add_6:0" precision="FP16">
					<dim>1</dim>
					<dim>64</dim>
					<dim>48</dim>
					<dim>48</dim>
				</port>
			</output>
		</layer>
		<layer id="93" name="model_1/model/activation_6/Relu_model_1/model/batch_normalization_12/FusedBatchNormV3_model_1/model/batch_normalization_77/FusedBatchNormV3_model_1/model/depthwise_conv2d_36/depthwise_model_1/model/depthwise_conv2d_41/depthwise_model_1/model/conv2d_6/Conv2D" type="ReLU" version="opset1">
			<input>
				<port id="0" precision="FP16">
					<dim>1</dim>
					<dim>64</dim>
					<dim>48</dim>
					<dim>48</dim>
				</port>
			</input>
			<output>
				<port id="1" names="model_1/model/activation_6/Relu_model_1/model/batch_normalization_12/FusedBatchNormV3_model_1/model/batch_normalization_77/FusedBatchNormV3_model_1/model/depthwise_conv2d_36/depthwise_model_1/model/depthwise_conv2d_41/depthwise_model_1/model/conv2d_6/Conv2D:0" precision="FP16">
					<dim>1</dim>
					<dim>64</dim>
					<dim>48</dim>
					<dim>48</dim>
				</port>
			</output>
		</layer>
		<layer id="94" name="1466924552" type="Const" version="opset1">
			<data element_type="i64" offset="12" shape="4" size="32"/>
			<output>
				<port id="0" precision="I64">
					<dim>4</dim>
				</port>
			</output>
		</layer>
		<layer id="95" name="1467524702" type="Const" version="opset1">
			<data element_type="i64" offset="12" shape="4" size="32"/>
			<output>
				<port id="0" precision="I64">
					<dim>4</dim>
				</port>
			</output>
		</layer>
		<layer id="96" name="Constant_186" type="Const" version="opset1">
			<data element_type="f16" offset="44" shape="" size="2"/>
			<output>
				<port id="0" precision="FP16"/>
			</output>
		</layer>
		<layer id="97" name="model_1/model/zero_padding2d_7/Pad" type="Pad" version="opset1">
			<data pad_mode="constant"/>
			<input>
				<port id="0" precision="FP16">
					<dim>1</dim>
					<dim>64</dim>
					<dim>48</dim>
					<dim>48</dim>
				</port>
				<port id="1" precision="I64">
					<dim>4</dim>
				</port>
				<port id="2" precision="I64">
					<dim>4</dim>
				</port>
				<port id="3" precision="FP16"/>
			</input>
			<output>
				<port id="4" names="model_1/model/zero_padding2d_7/Pad:0" precision="FP16">
					<dim>1</dim>
					<dim>64</dim>
					<dim>50</dim>
					<dim>50</dim>
				</port>
			</output>
		</layer>
		<layer id="98" name="depthwise_6/filter_in" type="Const" version="opset1">
			<data element_type="f16" offset="9838" shape="64, 1, 1, 3, 3" size="1152"/>
			<output>
				<port id="0" names="depthwise_6/filter_in:0" precision="FP16">
					<dim>64</dim>
					<dim>1</dim>
					<dim>1</dim>
					<dim>3</dim>
					<dim>3</dim>
				</port>
			</output>
		</layer>
		<layer id="99" name="depthwise_6" type="GroupConvolution" version="opset1">
			<data auto_pad="valid" dilations="1, 1" pads_begin="0, 0" pads_end="0, 0" strides="1, 1"/>
			<input>
				<port id="0" precision="FP16">
					<dim>1</dim>
					<dim>64</dim>
					<dim>50</dim>
					<dim>50</dim>
				</port>
				<port id="1" precision="FP16">
					<dim>64</dim>
					<dim>1</dim>
					<dim>1</dim>
					<dim>3</dim>
					<dim>3</dim>
				</port>
			</input>
			<output>
				<port id="2" names="depthwise_6:0" precision="FP16">
					<dim>1</dim>
					<dim>64</dim>
					<dim>48</dim>
					<dim>48</dim>
				</port>
			</output>
		</layer>
		<layer id="100" name="model_1/model/batch_normalization_13/FusedBatchNormV3_model_1/model/batch_normalization_77/FusedBatchNormV3_model_1/model/depthwise_conv2d_36/depthwise_model_1/model/depthwise_conv2d_41/depthwise_model_1/model/depthwise_conv2d_6/depthwise/y" type="Const" version="opset1">
			<data element_type="f16" offset="10990" shape="1, 64, 1, 1" size="128"/>
			<output>
				<port id="0" names="model_1/model/batch_normalization_13/FusedBatchNormV3_model_1/model/batch_normalization_77/FusedBatchNormV3_model_1/model/depthwise_conv2d_36/depthwise_model_1/model/depthwise_conv2d_41/depthwise_model_1/model/depthwise_conv2d_6/depthwise/y:0" precision="FP16">
					<dim>1</dim>
					<dim>64</dim>
					<dim>1</dim>
					<dim>1</dim>
				</port>
			</output>
		</layer>
		<layer id="101" name="model_1/model/batch_normalization_13/FusedBatchNormV3_model_1/model/batch_normalization_77/FusedBatchNormV3_model_1/model/depthwise_conv2d_36/depthwise_model_1/model/depthwise_conv2d_41/depthwise_model_1/model/depthwise_conv2d_6/depthwise" type="Add" version="opset1">
			<data auto_broadcast="numpy"/>
			<input>
				<port id="0" precision="FP16">
					<dim>1</dim>
					<dim>64</dim>
					<dim>48</dim>
					<dim>48</dim>
				</port>
				<port id="1" precision="FP16">
					<dim>1</dim>
					<dim>64</dim>
					<dim>1</dim>
					<dim>1</dim>
				</port>
			</input>
			<output>
				<port id="2" names="model_1/model/batch_normalization_13/FusedBatchNormV3_model_1/model/batch_normalization_77/FusedBatchNormV3_model_1/model/depthwise_conv2d_36/depthwise_model_1/model/depthwise_conv2d_41/depthwise_model_1/model/depthwise_conv2d_6/depthwise:0" precision="FP16">
					<dim>1</dim>
					<dim>64</dim>
					<dim>48</dim>
					<dim>48</dim>
				</port>
			</output>
		</layer>
		<layer id="102" name="Conv2D_7/filter" type="Const" version="opset1">
			<data element_type="f16" offset="11118" shape="16, 64, 1, 1" size="2048"/>
			<output>
				<port id="0" names="Conv2D_7/filter:0" precision="FP16">
					<dim>16</dim>
					<dim>64</dim>
					<dim>1</dim>
					<dim>1</dim>
				</port>
			</output>
		</layer>
		<layer id="103" name="Conv2D_7" type="Convolution" version="opset1">
			<data auto_pad="valid" dilations="1, 1" pads_begin="0, 0" pads_end="0, 0" strides="1, 1"/>
			<input>
				<port id="0" precision="FP16">
					<dim>1</dim>
					<dim>64</dim>
					<dim>48</dim>
					<dim>48</dim>
				</port>
				<port id="1" precision="FP16">
					<dim>16</dim>
					<dim>64</dim>
					<dim>1</dim>
					<dim>1</dim>
				</port>
			</input>
			<output>
				<port id="2" names="Conv2D_7:0" precision="FP16">
					<dim>1</dim>
					<dim>16</dim>
					<dim>48</dim>
					<dim>48</dim>
				</port>
			</output>
		</layer>
		<layer id="104" name="Add_7/y" type="Const" version="opset1">
			<data element_type="f16" offset="13166" shape="1, 16, 1, 1" size="32"/>
			<output>
				<port id="0" names="Add_7/y:0" precision="FP16">
					<dim>1</dim>
					<dim>16</dim>
					<dim>1</dim>
					<dim>1</dim>
				</port>
			</output>
		</layer>
		<layer id="105" name="Add_7" type="Add" version="opset1">
			<data auto_broadcast="numpy"/>
			<input>
				<port id="0" precision="FP16">
					<dim>1</dim>
					<dim>16</dim>
					<dim>48</dim>
					<dim>48</dim>
				</port>
				<port id="1" precision="FP16">
					<dim>1</dim>
					<dim>16</dim>
					<dim>1</dim>
					<dim>1</dim>
				</port>
			</input>
			<output>
				<port id="2" names="Add_7:0" precision="FP16">
					<dim>1</dim>
					<dim>16</dim>
					<dim>48</dim>
					<dim>48</dim>
				</port>
			</output>
		</layer>
		<layer id="106" name="model_1/model/activation_7/Relu_model_1/model/batch_normalization_14/FusedBatchNormV3_model_1/model/batch_normalization_19/FusedBatchNormV3_model_1/model/depthwise_conv2d_9/depthwise_model_1/model/conv2d_7/Conv2D" type="ReLU" version="opset1">
			<input>
				<port id="0" precision="FP16">
					<dim>1</dim>
					<dim>16</dim>
					<dim>48</dim>
					<dim>48</dim>
				</port>
			</input>
			<output>
				<port id="1" names="model_1/model/activation_7/Relu_model_1/model/batch_normalization_14/FusedBatchNormV3_model_1/model/batch_normalization_19/FusedBatchNormV3_model_1/model/depthwise_conv2d_9/depthwise_model_1/model/conv2d_7/Conv2D:0" precision="FP16">
					<dim>1</dim>
					<dim>16</dim>
					<dim>48</dim>
					<dim>48</dim>
				</port>
			</output>
		</layer>
		<layer id="107" name="1468124600" type="Const" version="opset1">
			<data element_type="i64" offset="12" shape="4" size="32"/>
			<output>
				<port id="0" precision="I64">
					<dim>4</dim>
				</port>
			</output>
		</layer>
		<layer id="108" name="1468725218" type="Const" version="opset1">
			<data element_type="i64" offset="12" shape="4" size="32"/>
			<output>
				<port id="0" precision="I64">
					<dim>4</dim>
				</port>
			</output>
		</layer>
		<layer id="109" name="Constant_211" type="Const" version="opset1">
			<data element_type="f16" offset="44" shape="" size="2"/>
			<output>
				<port id="0" precision="FP16"/>
			</output>
		</layer>
		<layer id="110" name="model_1/model/zero_padding2d_8/Pad" type="Pad" version="opset1">
			<data pad_mode="constant"/>
			<input>
				<port id="0" precision="FP16">
					<dim>1</dim>
					<dim>16</dim>
					<dim>48</dim>
					<dim>48</dim>
				</port>
				<port id="1" precision="I64">
					<dim>4</dim>
				</port>
				<port id="2" precision="I64">
					<dim>4</dim>
				</port>
				<port id="3" precision="FP16"/>
			</input>
			<output>
				<port id="4" names="model_1/model/zero_padding2d_8/Pad:0" precision="FP16">
					<dim>1</dim>
					<dim>16</dim>
					<dim>50</dim>
					<dim>50</dim>
				</port>
			</output>
		</layer>
		<layer id="111" name="depthwise_7/filter_in" type="Const" version="opset1">
			<data element_type="f16" offset="13198" shape="16, 1, 1, 3, 3" size="288"/>
			<output>
				<port id="0" names="depthwise_7/filter_in:0" precision="FP16">
					<dim>16</dim>
					<dim>1</dim>
					<dim>1</dim>
					<dim>3</dim>
					<dim>3</dim>
				</port>
			</output>
		</layer>
		<layer id="112" name="depthwise_7" type="GroupConvolution" version="opset1">
			<data auto_pad="valid" dilations="1, 1" pads_begin="0, 0" pads_end="0, 0" strides="1, 1"/>
			<input>
				<port id="0" precision="FP16">
					<dim>1</dim>
					<dim>16</dim>
					<dim>50</dim>
					<dim>50</dim>
				</port>
				<port id="1" precision="FP16">
					<dim>16</dim>
					<dim>1</dim>
					<dim>1</dim>
					<dim>3</dim>
					<dim>3</dim>
				</port>
			</input>
			<output>
				<port id="2" names="depthwise_7:0" precision="FP16">
					<dim>1</dim>
					<dim>16</dim>
					<dim>48</dim>
					<dim>48</dim>
				</port>
			</output>
		</layer>
		<layer id="113" name="model_1/model/batch_normalization_15/FusedBatchNormV3_model_1/model/batch_normalization_19/FusedBatchNormV3_model_1/model/depthwise_conv2d_9/depthwise_model_1/model/depthwise_conv2d_7/depthwise/y" type="Const" version="opset1">
			<data element_type="f16" offset="13486" shape="1, 16, 1, 1" size="32"/>
			<output>
				<port id="0" names="model_1/model/batch_normalization_15/FusedBatchNormV3_model_1/model/batch_normalization_19/FusedBatchNormV3_model_1/model/depthwise_conv2d_9/depthwise_model_1/model/depthwise_conv2d_7/depthwise/y:0" precision="FP16">
					<dim>1</dim>
					<dim>16</dim>
					<dim>1</dim>
					<dim>1</dim>
				</port>
			</output>
		</layer>
		<layer id="114" name="model_1/model/batch_normalization_15/FusedBatchNormV3_model_1/model/batch_normalization_19/FusedBatchNormV3_model_1/model/depthwise_conv2d_9/depthwise_model_1/model/depthwise_conv2d_7/depthwise" type="Add" version="opset1">
			<data auto_broadcast="numpy"/>
			<input>
				<port id="0" precision="FP16">
					<dim>1</dim>
					<dim>16</dim>
					<dim>48</dim>
					<dim>48</dim>
				</port>
				<port id="1" precision="FP16">
					<dim>1</dim>
					<dim>16</dim>
					<dim>1</dim>
					<dim>1</dim>
				</port>
			</input>
			<output>
				<port id="2" names="model_1/model/batch_normalization_15/FusedBatchNormV3_model_1/model/batch_normalization_19/FusedBatchNormV3_model_1/model/depthwise_conv2d_9/depthwise_model_1/model/depthwise_conv2d_7/depthwise:0" precision="FP16">
					<dim>1</dim>
					<dim>16</dim>
					<dim>48</dim>
					<dim>48</dim>
				</port>
			</output>
		</layer>
		<layer id="115" name="Conv2D_8/filter" type="Const" version="opset1">
			<data element_type="f16" offset="13518" shape="64, 16, 1, 1" size="2048"/>
			<output>
				<port id="0" names="Conv2D_8/filter:0" precision="FP16">
					<dim>64</dim>
					<dim>16</dim>
					<dim>1</dim>
					<dim>1</dim>
				</port>
			</output>
		</layer>
		<layer id="116" name="Conv2D_8" type="Convolution" version="opset1">
			<data auto_pad="valid" dilations="1, 1" pads_begin="0, 0" pads_end="0, 0" strides="1, 1"/>
			<input>
				<port id="0" precision="FP16">
					<dim>1</dim>
					<dim>16</dim>
					<dim>48</dim>
					<dim>48</dim>
				</port>
				<port id="1" precision="FP16">
					<dim>64</dim>
					<dim>16</dim>
					<dim>1</dim>
					<dim>1</dim>
				</port>
			</input>
			<output>
				<port id="2" names="Conv2D_8:0" precision="FP16">
					<dim>1</dim>
					<dim>64</dim>
					<dim>48</dim>
					<dim>48</dim>
				</port>
			</output>
		</layer>
		<layer id="117" name="model_1/model/batch_normalization_16/FusedBatchNormV3_model_1/model/depthwise_conv2d_41/depthwise_model_1/model/conv2d_8/Conv2D1/y" type="Const" version="opset1">
			<data element_type="f16" offset="15566" shape="1, 64, 1, 1" size="128"/>
			<output>
				<port id="0" names="model_1/model/batch_normalization_16/FusedBatchNormV3_model_1/model/depthwise_conv2d_41/depthwise_model_1/model/conv2d_8/Conv2D1/y:0" precision="FP16">
					<dim>1</dim>
					<dim>64</dim>
					<dim>1</dim>
					<dim>1</dim>
				</port>
			</output>
		</layer>
		<layer id="118" name="model_1/model/batch_normalization_16/FusedBatchNormV3_model_1/model/depthwise_conv2d_41/depthwise_model_1/model/conv2d_8/Conv2D1" type="Add" version="opset1">
			<data auto_broadcast="numpy"/>
			<input>
				<port id="0" precision="FP16">
					<dim>1</dim>
					<dim>64</dim>
					<dim>48</dim>
					<dim>48</dim>
				</port>
				<port id="1" precision="FP16">
					<dim>1</dim>
					<dim>64</dim>
					<dim>1</dim>
					<dim>1</dim>
				</port>
			</input>
			<output>
				<port id="2" names="model_1/model/batch_normalization_16/FusedBatchNormV3_model_1/model/depthwise_conv2d_41/depthwise_model_1/model/conv2d_8/Conv2D1:0" precision="FP16">
					<dim>1</dim>
					<dim>64</dim>
					<dim>48</dim>
					<dim>48</dim>
				</port>
			</output>
		</layer>
		<layer id="119" name="Add_8" type="Add" version="opset1">
			<data auto_broadcast="numpy"/>
			<input>
				<port id="0" precision="FP16">
					<dim>1</dim>
					<dim>64</dim>
					<dim>48</dim>
					<dim>48</dim>
				</port>
				<port id="1" precision="FP16">
					<dim>1</dim>
					<dim>64</dim>
					<dim>48</dim>
					<dim>48</dim>
				</port>
			</input>
			<output>
				<port id="2" names="Add_8:0" precision="FP16">
					<dim>1</dim>
					<dim>64</dim>
					<dim>48</dim>
					<dim>48</dim>
				</port>
			</output>
		</layer>
		<layer id="120" name="model_1/model/activation_8/Relu_model_1/model/add_2/add" type="ReLU" version="opset1">
			<input>
				<port id="0" precision="FP16">
					<dim>1</dim>
					<dim>64</dim>
					<dim>48</dim>
					<dim>48</dim>
				</port>
			</input>
			<output>
				<port id="1" names="model_1/model/activation_8/Relu_model_1/model/add_2/add:0" precision="FP16">
					<dim>1</dim>
					<dim>64</dim>
					<dim>48</dim>
					<dim>48</dim>
				</port>
			</output>
		</layer>
		<layer id="121" name="1469324648" type="Const" version="opset1">
			<data element_type="i64" offset="12" shape="4" size="32"/>
			<output>
				<port id="0" precision="I64">
					<dim>4</dim>
				</port>
			</output>
		</layer>
		<layer id="122" name="1469925080" type="Const" version="opset1">
			<data element_type="i64" offset="12" shape="4" size="32"/>
			<output>
				<port id="0" precision="I64">
					<dim>4</dim>
				</port>
			</output>
		</layer>
		<layer id="123" name="Constant_238" type="Const" version="opset1">
			<data element_type="f16" offset="44" shape="" size="2"/>
			<output>
				<port id="0" precision="FP16"/>
			</output>
		</layer>
		<layer id="124" name="model_1/model/zero_padding2d_9/Pad" type="Pad" version="opset1">
			<data pad_mode="constant"/>
			<input>
				<port id="0" precision="FP16">
					<dim>1</dim>
					<dim>64</dim>
					<dim>48</dim>
					<dim>48</dim>
				</port>
				<port id="1" precision="I64">
					<dim>4</dim>
				</port>
				<port id="2" precision="I64">
					<dim>4</dim>
				</port>
				<port id="3" precision="FP16"/>
			</input>
			<output>
				<port id="4" names="model_1/model/zero_padding2d_9/Pad:0" precision="FP16">
					<dim>1</dim>
					<dim>64</dim>
					<dim>50</dim>
					<dim>50</dim>
				</port>
			</output>
		</layer>
		<layer id="125" name="depthwise_8/filter_in" type="Const" version="opset1">
			<data element_type="f16" offset="15694" shape="64, 1, 1, 3, 3" size="1152"/>
			<output>
				<port id="0" names="depthwise_8/filter_in:0" precision="FP16">
					<dim>64</dim>
					<dim>1</dim>
					<dim>1</dim>
					<dim>3</dim>
					<dim>3</dim>
				</port>
			</output>
		</layer>
		<layer id="126" name="depthwise_8" type="GroupConvolution" version="opset1">
			<data auto_pad="valid" dilations="1, 1" pads_begin="0, 0" pads_end="0, 0" strides="1, 1"/>
			<input>
				<port id="0" precision="FP16">
					<dim>1</dim>
					<dim>64</dim>
					<dim>50</dim>
					<dim>50</dim>
				</port>
				<port id="1" precision="FP16">
					<dim>64</dim>
					<dim>1</dim>
					<dim>1</dim>
					<dim>3</dim>
					<dim>3</dim>
				</port>
			</input>
			<output>
				<port id="2" names="depthwise_8:0" precision="FP16">
					<dim>1</dim>
					<dim>64</dim>
					<dim>48</dim>
					<dim>48</dim>
				</port>
			</output>
		</layer>
		<layer id="127" name="model_1/model/batch_normalization_17/FusedBatchNormV3_model_1/model/batch_normalization_77/FusedBatchNormV3_model_1/model/depthwise_conv2d_36/depthwise_model_1/model/depthwise_conv2d_41/depthwise_model_1/model/depthwise_conv2d_8/depthwise/y" type="Const" version="opset1">
			<data element_type="f16" offset="16846" shape="1, 64, 1, 1" size="128"/>
			<output>
				<port id="0" names="model_1/model/batch_normalization_17/FusedBatchNormV3_model_1/model/batch_normalization_77/FusedBatchNormV3_model_1/model/depthwise_conv2d_36/depthwise_model_1/model/depthwise_conv2d_41/depthwise_model_1/model/depthwise_conv2d_8/depthwise/y:0" precision="FP16">
					<dim>1</dim>
					<dim>64</dim>
					<dim>1</dim>
					<dim>1</dim>
				</port>
			</output>
		</layer>
		<layer id="128" name="model_1/model/batch_normalization_17/FusedBatchNormV3_model_1/model/batch_normalization_77/FusedBatchNormV3_model_1/model/depthwise_conv2d_36/depthwise_model_1/model/depthwise_conv2d_41/depthwise_model_1/model/depthwise_conv2d_8/depthwise" type="Add" version="opset1">
			<data auto_broadcast="numpy"/>
			<input>
				<port id="0" precision="FP16">
					<dim>1</dim>
					<dim>64</dim>
					<dim>48</dim>
					<dim>48</dim>
				</port>
				<port id="1" precision="FP16">
					<dim>1</dim>
					<dim>64</dim>
					<dim>1</dim>
					<dim>1</dim>
				</port>
			</input>
			<output>
				<port id="2" names="model_1/model/batch_normalization_17/FusedBatchNormV3_model_1/model/batch_normalization_77/FusedBatchNormV3_model_1/model/depthwise_conv2d_36/depthwise_model_1/model/depthwise_conv2d_41/depthwise_model_1/model/depthwise_conv2d_8/depthwise:0" precision="FP16">
					<dim>1</dim>
					<dim>64</dim>
					<dim>48</dim>
					<dim>48</dim>
				</port>
			</output>
		</layer>
		<layer id="129" name="Conv2D_9/filter" type="Const" version="opset1">
			<data element_type="f16" offset="16974" shape="16, 64, 1, 1" size="2048"/>
			<output>
				<port id="0" names="Conv2D_9/filter:0" precision="FP16">
					<dim>16</dim>
					<dim>64</dim>
					<dim>1</dim>
					<dim>1</dim>
				</port>
			</output>
		</layer>
		<layer id="130" name="Conv2D_9" type="Convolution" version="opset1">
			<data auto_pad="valid" dilations="1, 1" pads_begin="0, 0" pads_end="0, 0" strides="1, 1"/>
			<input>
				<port id="0" precision="FP16">
					<dim>1</dim>
					<dim>64</dim>
					<dim>48</dim>
					<dim>48</dim>
				</port>
				<port id="1" precision="FP16">
					<dim>16</dim>
					<dim>64</dim>
					<dim>1</dim>
					<dim>1</dim>
				</port>
			</input>
			<output>
				<port id="2" names="Conv2D_9:0" precision="FP16">
					<dim>1</dim>
					<dim>16</dim>
					<dim>48</dim>
					<dim>48</dim>
				</port>
			</output>
		</layer>
		<layer id="131" name="Add_9/y" type="Const" version="opset1">
			<data element_type="f16" offset="19022" shape="1, 16, 1, 1" size="32"/>
			<output>
				<port id="0" names="Add_9/y:0" precision="FP16">
					<dim>1</dim>
					<dim>16</dim>
					<dim>1</dim>
					<dim>1</dim>
				</port>
			</output>
		</layer>
		<layer id="132" name="Add_9" type="Add" version="opset1">
			<data auto_broadcast="numpy"/>
			<input>
				<port id="0" precision="FP16">
					<dim>1</dim>
					<dim>16</dim>
					<dim>48</dim>
					<dim>48</dim>
				</port>
				<port id="1" precision="FP16">
					<dim>1</dim>
					<dim>16</dim>
					<dim>1</dim>
					<dim>1</dim>
				</port>
			</input>
			<output>
				<port id="2" names="Add_9:0" precision="FP16">
					<dim>1</dim>
					<dim>16</dim>
					<dim>48</dim>
					<dim>48</dim>
				</port>
			</output>
		</layer>
		<layer id="133" name="model_1/model/activation_9/Relu_model_1/model/batch_normalization_18/FusedBatchNormV3_model_1/model/batch_normalization_19/FusedBatchNormV3_model_1/model/depthwise_conv2d_9/depthwise_model_1/model/conv2d_9/Conv2D" type="ReLU" version="opset1">
			<input>
				<port id="0" precision="FP16">
					<dim>1</dim>
					<dim>16</dim>
					<dim>48</dim>
					<dim>48</dim>
				</port>
			</input>
			<output>
				<port id="1" names="model_1/model/activation_9/Relu_model_1/model/batch_normalization_18/FusedBatchNormV3_model_1/model/batch_normalization_19/FusedBatchNormV3_model_1/model/depthwise_conv2d_9/depthwise_model_1/model/conv2d_9/Conv2D:0" precision="FP16">
					<dim>1</dim>
					<dim>16</dim>
					<dim>48</dim>
					<dim>48</dim>
				</port>
			</output>
		</layer>
		<layer id="134" name="1470524912" type="Const" version="opset1">
			<data element_type="i64" offset="12" shape="4" size="32"/>
			<output>
				<port id="0" precision="I64">
					<dim>4</dim>
				</port>
			</output>
		</layer>
		<layer id="135" name="1471124543" type="Const" version="opset1">
			<data element_type="i64" offset="12" shape="4" size="32"/>
			<output>
				<port id="0" precision="I64">
					<dim>4</dim>
				</port>
			</output>
		</layer>
		<layer id="136" name="Constant_263" type="Const" version="opset1">
			<data element_type="f16" offset="44" shape="" size="2"/>
			<output>
				<port id="0" precision="FP16"/>
			</output>
		</layer>
		<layer id="137" name="model_1/model/zero_padding2d_10/Pad" type="Pad" version="opset1">
			<data pad_mode="constant"/>
			<input>
				<port id="0" precision="FP16">
					<dim>1</dim>
					<dim>16</dim>
					<dim>48</dim>
					<dim>48</dim>
				</port>
				<port id="1" precision="I64">
					<dim>4</dim>
				</port>
				<port id="2" precision="I64">
					<dim>4</dim>
				</port>
				<port id="3" precision="FP16"/>
			</input>
			<output>
				<port id="4" names="model_1/model/zero_padding2d_10/Pad:0" precision="FP16">
					<dim>1</dim>
					<dim>16</dim>
					<dim>50</dim>
					<dim>50</dim>
				</port>
			</output>
		</layer>
		<layer id="138" name="depthwise_9/filter_in" type="Const" version="opset1">
			<data element_type="f16" offset="19054" shape="16, 1, 1, 3, 3" size="288"/>
			<output>
				<port id="0" names="depthwise_9/filter_in:0" precision="FP16">
					<dim>16</dim>
					<dim>1</dim>
					<dim>1</dim>
					<dim>3</dim>
					<dim>3</dim>
				</port>
			</output>
		</layer>
		<layer id="139" name="depthwise_9" type="GroupConvolution" version="opset1">
			<data auto_pad="valid" dilations="1, 1" pads_begin="0, 0" pads_end="0, 0" strides="1, 1"/>
			<input>
				<port id="0" precision="FP16">
					<dim>1</dim>
					<dim>16</dim>
					<dim>50</dim>
					<dim>50</dim>
				</port>
				<port id="1" precision="FP16">
					<dim>16</dim>
					<dim>1</dim>
					<dim>1</dim>
					<dim>3</dim>
					<dim>3</dim>
				</port>
			</input>
			<output>
				<port id="2" names="depthwise_9:0" precision="FP16">
					<dim>1</dim>
					<dim>16</dim>
					<dim>48</dim>
					<dim>48</dim>
				</port>
			</output>
		</layer>
		<layer id="140" name="model_1/model/batch_normalization_19/FusedBatchNormV3_model_1/model/depthwise_conv2d_9/depthwise1/y" type="Const" version="opset1">
			<data element_type="f16" offset="19342" shape="1, 16, 1, 1" size="32"/>
			<output>
				<port id="0" names="model_1/model/batch_normalization_19/FusedBatchNormV3_model_1/model/depthwise_conv2d_9/depthwise1/y:0" precision="FP16">
					<dim>1</dim>
					<dim>16</dim>
					<dim>1</dim>
					<dim>1</dim>
				</port>
			</output>
		</layer>
		<layer id="141" name="model_1/model/batch_normalization_19/FusedBatchNormV3_model_1/model/depthwise_conv2d_9/depthwise1" type="Add" version="opset1">
			<data auto_broadcast="numpy"/>
			<input>
				<port id="0" precision="FP16">
					<dim>1</dim>
					<dim>16</dim>
					<dim>48</dim>
					<dim>48</dim>
				</port>
				<port id="1" precision="FP16">
					<dim>1</dim>
					<dim>16</dim>
					<dim>1</dim>
					<dim>1</dim>
				</port>
			</input>
			<output>
				<port id="2" names="model_1/model/batch_normalization_19/FusedBatchNormV3_model_1/model/depthwise_conv2d_9/depthwise1:0" precision="FP16">
					<dim>1</dim>
					<dim>16</dim>
					<dim>48</dim>
					<dim>48</dim>
				</port>
			</output>
		</layer>
		<layer id="142" name="Conv2D_10/filter" type="Const" version="opset1">
			<data element_type="f16" offset="19374" shape="64, 16, 1, 1" size="2048"/>
			<output>
				<port id="0" names="Conv2D_10/filter:0" precision="FP16">
					<dim>64</dim>
					<dim>16</dim>
					<dim>1</dim>
					<dim>1</dim>
				</port>
			</output>
		</layer>
		<layer id="143" name="Conv2D_10" type="Convolution" version="opset1">
			<data auto_pad="valid" dilations="1, 1" pads_begin="0, 0" pads_end="0, 0" strides="1, 1"/>
			<input>
				<port id="0" precision="FP16">
					<dim>1</dim>
					<dim>16</dim>
					<dim>48</dim>
					<dim>48</dim>
				</port>
				<port id="1" precision="FP16">
					<dim>64</dim>
					<dim>16</dim>
					<dim>1</dim>
					<dim>1</dim>
				</port>
			</input>
			<output>
				<port id="2" names="Conv2D_10:0" precision="FP16">
					<dim>1</dim>
					<dim>64</dim>
					<dim>48</dim>
					<dim>48</dim>
				</port>
			</output>
		</layer>
		<layer id="144" name="model_1/model/batch_normalization_20/FusedBatchNormV3_model_1/model/depthwise_conv2d_41/depthwise_model_1/model/conv2d_10/Conv2D1/y" type="Const" version="opset1">
			<data element_type="f16" offset="21422" shape="1, 64, 1, 1" size="128"/>
			<output>
				<port id="0" names="model_1/model/batch_normalization_20/FusedBatchNormV3_model_1/model/depthwise_conv2d_41/depthwise_model_1/model/conv2d_10/Conv2D1/y:0" precision="FP16">
					<dim>1</dim>
					<dim>64</dim>
					<dim>1</dim>
					<dim>1</dim>
				</port>
			</output>
		</layer>
		<layer id="145" name="model_1/model/batch_normalization_20/FusedBatchNormV3_model_1/model/depthwise_conv2d_41/depthwise_model_1/model/conv2d_10/Conv2D1" type="Add" version="opset1">
			<data auto_broadcast="numpy"/>
			<input>
				<port id="0" precision="FP16">
					<dim>1</dim>
					<dim>64</dim>
					<dim>48</dim>
					<dim>48</dim>
				</port>
				<port id="1" precision="FP16">
					<dim>1</dim>
					<dim>64</dim>
					<dim>1</dim>
					<dim>1</dim>
				</port>
			</input>
			<output>
				<port id="2" names="model_1/model/batch_normalization_20/FusedBatchNormV3_model_1/model/depthwise_conv2d_41/depthwise_model_1/model/conv2d_10/Conv2D1:0" precision="FP16">
					<dim>1</dim>
					<dim>64</dim>
					<dim>48</dim>
					<dim>48</dim>
				</port>
			</output>
		</layer>
		<layer id="146" name="Add_10" type="Add" version="opset1">
			<data auto_broadcast="numpy"/>
			<input>
				<port id="0" precision="FP16">
					<dim>1</dim>
					<dim>64</dim>
					<dim>48</dim>
					<dim>48</dim>
				</port>
				<port id="1" precision="FP16">
					<dim>1</dim>
					<dim>64</dim>
					<dim>48</dim>
					<dim>48</dim>
				</port>
			</input>
			<output>
				<port id="2" names="Add_10:0" precision="FP16">
					<dim>1</dim>
					<dim>64</dim>
					<dim>48</dim>
					<dim>48</dim>
				</port>
			</output>
		</layer>
		<layer id="147" name="model_1/model/activation_10/Relu_model_1/model/add_3/add" type="ReLU" version="opset1">
			<input>
				<port id="0" precision="FP16">
					<dim>1</dim>
					<dim>64</dim>
					<dim>48</dim>
					<dim>48</dim>
				</port>
			</input>
			<output>
				<port id="1" names="model_1/model/activation_10/Relu_model_1/model/add_3/add:0" precision="FP16">
					<dim>1</dim>
					<dim>64</dim>
					<dim>48</dim>
					<dim>48</dim>
				</port>
			</output>
		</layer>
		<layer id="148" name="Conv2D_11/filter" type="Const" version="opset1">
			<data element_type="f16" offset="21550" shape="48, 64, 1, 1" size="6144"/>
			<output>
				<port id="0" names="Conv2D_11/filter:0" precision="FP16">
					<dim>48</dim>
					<dim>64</dim>
					<dim>1</dim>
					<dim>1</dim>
				</port>
			</output>
		</layer>
		<layer id="149" name="Conv2D_11" type="Convolution" version="opset1">
			<data auto_pad="valid" dilations="1, 1" pads_begin="0, 0" pads_end="0, 0" strides="1, 1"/>
			<input>
				<port id="0" precision="FP16">
					<dim>1</dim>
					<dim>64</dim>
					<dim>48</dim>
					<dim>48</dim>
				</port>
				<port id="1" precision="FP16">
					<dim>48</dim>
					<dim>64</dim>
					<dim>1</dim>
					<dim>1</dim>
				</port>
			</input>
			<output>
				<port id="2" names="Conv2D_11:0" precision="FP16">
					<dim>1</dim>
					<dim>48</dim>
					<dim>48</dim>
					<dim>48</dim>
				</port>
			</output>
		</layer>
		<layer id="150" name="Add_11/y" type="Const" version="opset1">
			<data element_type="f16" offset="27694" shape="1, 48, 1, 1" size="96"/>
			<output>
				<port id="0" names="Add_11/y:0" precision="FP16">
					<dim>1</dim>
					<dim>48</dim>
					<dim>1</dim>
					<dim>1</dim>
				</port>
			</output>
		</layer>
		<layer id="151" name="Add_11" type="Add" version="opset1">
			<data auto_broadcast="numpy"/>
			<input>
				<port id="0" precision="FP16">
					<dim>1</dim>
					<dim>48</dim>
					<dim>48</dim>
					<dim>48</dim>
				</port>
				<port id="1" precision="FP16">
					<dim>1</dim>
					<dim>48</dim>
					<dim>1</dim>
					<dim>1</dim>
				</port>
			</input>
			<output>
				<port id="2" names="Add_11:0" precision="FP16">
					<dim>1</dim>
					<dim>48</dim>
					<dim>48</dim>
					<dim>48</dim>
				</port>
			</output>
		</layer>
		<layer id="152" name="model_1/model/activation_44/Relu_model_1/model/batch_normalization_82/FusedBatchNormV3_model_1/model/conv2d_44/BiasAdd/ReadVariableOp/resource_model_1/model/conv2d_44/BiasAdd_model_1/model/conv2d_46/Conv2D_model_1/model/conv2d_44/Conv2D1" type="ReLU" version="opset1">
			<input>
				<port id="0" precision="FP16">
					<dim>1</dim>
					<dim>48</dim>
					<dim>48</dim>
					<dim>48</dim>
				</port>
			</input>
			<output>
				<port id="1" names="model_1/model/activation_44/Relu_model_1/model/batch_normalization_82/FusedBatchNormV3_model_1/model/conv2d_44/BiasAdd/ReadVariableOp/resource_model_1/model/conv2d_44/BiasAdd_model_1/model/conv2d_46/Conv2D_model_1/model/conv2d_44/Conv2D1:0" precision="FP16">
					<dim>1</dim>
					<dim>48</dim>
					<dim>48</dim>
					<dim>48</dim>
				</port>
			</output>
		</layer>
		<layer id="153" name="1471725362" type="Const" version="opset1">
			<data element_type="i64" offset="12" shape="4" size="32"/>
			<output>
				<port id="0" precision="I64">
					<dim>4</dim>
				</port>
			</output>
		</layer>
		<layer id="154" name="1472324924" type="Const" version="opset1">
			<data element_type="i64" offset="12" shape="4" size="32"/>
			<output>
				<port id="0" precision="I64">
					<dim>4</dim>
				</port>
			</output>
		</layer>
		<layer id="155" name="Constant_300" type="Const" version="opset1">
			<data element_type="f16" offset="44" shape="" size="2"/>
			<output>
				<port id="0" precision="FP16"/>
			</output>
		</layer>
		<layer id="156" name="model_1/model/zero_padding2d_11/Pad" type="Pad" version="opset1">
			<data pad_mode="constant"/>
			<input>
				<port id="0" precision="FP16">
					<dim>1</dim>
					<dim>64</dim>
					<dim>48</dim>
					<dim>48</dim>
				</port>
				<port id="1" precision="I64">
					<dim>4</dim>
				</port>
				<port id="2" precision="I64">
					<dim>4</dim>
				</port>
				<port id="3" precision="FP16"/>
			</input>
			<output>
				<port id="4" names="model_1/model/zero_padding2d_11/Pad:0" precision="FP16">
					<dim>1</dim>
					<dim>64</dim>
					<dim>50</dim>
					<dim>50</dim>
				</port>
			</output>
		</layer>
		<layer id="157" name="depthwise_10/filter_in" type="Const" version="opset1">
			<data element_type="f16" offset="27790" shape="64, 1, 1, 3, 3" size="1152"/>
			<output>
				<port id="0" names="depthwise_10/filter_in:0" precision="FP16">
					<dim>64</dim>
					<dim>1</dim>
					<dim>1</dim>
					<dim>3</dim>
					<dim>3</dim>
				</port>
			</output>
		</layer>
		<layer id="158" name="depthwise_10" type="GroupConvolution" version="opset1">
			<data auto_pad="valid" dilations="1, 1" pads_begin="0, 0" pads_end="0, 0" strides="2, 2"/>
			<input>
				<port id="0" precision="FP16">
					<dim>1</dim>
					<dim>64</dim>
					<dim>50</dim>
					<dim>50</dim>
				</port>
				<port id="1" precision="FP16">
					<dim>64</dim>
					<dim>1</dim>
					<dim>1</dim>
					<dim>3</dim>
					<dim>3</dim>
				</port>
			</input>
			<output>
				<port id="2" names="depthwise_10:0" precision="FP16">
					<dim>1</dim>
					<dim>64</dim>
					<dim>24</dim>
					<dim>24</dim>
				</port>
			</output>
		</layer>
		<layer id="159" name="model_1/model/batch_normalization_21/FusedBatchNormV3_model_1/model/batch_normalization_77/FusedBatchNormV3_model_1/model/depthwise_conv2d_36/depthwise_model_1/model/depthwise_conv2d_41/depthwise_model_1/model/depthwise_conv2d_10/depthwise/y" type="Const" version="opset1">
			<data element_type="f16" offset="28942" shape="1, 64, 1, 1" size="128"/>
			<output>
				<port id="0" names="model_1/model/batch_normalization_21/FusedBatchNormV3_model_1/model/batch_normalization_77/FusedBatchNormV3_model_1/model/depthwise_conv2d_36/depthwise_model_1/model/depthwise_conv2d_41/depthwise_model_1/model/depthwise_conv2d_10/depthwise/y:0" precision="FP16">
					<dim>1</dim>
					<dim>64</dim>
					<dim>1</dim>
					<dim>1</dim>
				</port>
			</output>
		</layer>
		<layer id="160" name="model_1/model/batch_normalization_21/FusedBatchNormV3_model_1/model/batch_normalization_77/FusedBatchNormV3_model_1/model/depthwise_conv2d_36/depthwise_model_1/model/depthwise_conv2d_41/depthwise_model_1/model/depthwise_conv2d_10/depthwise" type="Add" version="opset1">
			<data auto_broadcast="numpy"/>
			<input>
				<port id="0" precision="FP16">
					<dim>1</dim>
					<dim>64</dim>
					<dim>24</dim>
					<dim>24</dim>
				</port>
				<port id="1" precision="FP16">
					<dim>1</dim>
					<dim>64</dim>
					<dim>1</dim>
					<dim>1</dim>
				</port>
			</input>
			<output>
				<port id="2" names="model_1/model/batch_normalization_21/FusedBatchNormV3_model_1/model/batch_normalization_77/FusedBatchNormV3_model_1/model/depthwise_conv2d_36/depthwise_model_1/model/depthwise_conv2d_41/depthwise_model_1/model/depthwise_conv2d_10/depthwise:0" precision="FP16">
					<dim>1</dim>
					<dim>64</dim>
					<dim>24</dim>
					<dim>24</dim>
				</port>
			</output>
		</layer>
		<layer id="161" name="Conv2D_12/filter" type="Const" version="opset1">
			<data element_type="f16" offset="29070" shape="32, 64, 1, 1" size="4096"/>
			<output>
				<port id="0" names="Conv2D_12/filter:0" precision="FP16">
					<dim>32</dim>
					<dim>64</dim>
					<dim>1</dim>
					<dim>1</dim>
				</port>
			</output>
		</layer>
		<layer id="162" name="Conv2D_12" type="Convolution" version="opset1">
			<data auto_pad="valid" dilations="1, 1" pads_begin="0, 0" pads_end="0, 0" strides="1, 1"/>
			<input>
				<port id="0" precision="FP16">
					<dim>1</dim>
					<dim>64</dim>
					<dim>24</dim>
					<dim>24</dim>
				</port>
				<port id="1" precision="FP16">
					<dim>32</dim>
					<dim>64</dim>
					<dim>1</dim>
					<dim>1</dim>
				</port>
			</input>
			<output>
				<port id="2" names="Conv2D_12:0" precision="FP16">
					<dim>1</dim>
					<dim>32</dim>
					<dim>24</dim>
					<dim>24</dim>
				</port>
			</output>
		</layer>
		<layer id="163" name="Add_12/y" type="Const" version="opset1">
			<data element_type="f16" offset="33166" shape="1, 32, 1, 1" size="64"/>
			<output>
				<port id="0" names="Add_12/y:0" precision="FP16">
					<dim>1</dim>
					<dim>32</dim>
					<dim>1</dim>
					<dim>1</dim>
				</port>
			</output>
		</layer>
		<layer id="164" name="Add_12" type="Add" version="opset1">
			<data auto_broadcast="numpy"/>
			<input>
				<port id="0" precision="FP16">
					<dim>1</dim>
					<dim>32</dim>
					<dim>24</dim>
					<dim>24</dim>
				</port>
				<port id="1" precision="FP16">
					<dim>1</dim>
					<dim>32</dim>
					<dim>1</dim>
					<dim>1</dim>
				</port>
			</input>
			<output>
				<port id="2" names="Add_12:0" precision="FP16">
					<dim>1</dim>
					<dim>32</dim>
					<dim>24</dim>
					<dim>24</dim>
				</port>
			</output>
		</layer>
		<layer id="165" name="model_1/model/activation_11/Relu_model_1/model/batch_normalization_22/FusedBatchNormV3_model_1/model/batch_normalization_79/FusedBatchNormV3_model_1/model/depthwise_conv2d_37/depthwise_model_1/model/conv2d_11/Conv2D" type="ReLU" version="opset1">
			<input>
				<port id="0" precision="FP16">
					<dim>1</dim>
					<dim>32</dim>
					<dim>24</dim>
					<dim>24</dim>
				</port>
			</input>
			<output>
				<port id="1" names="model_1/model/activation_11/Relu_model_1/model/batch_normalization_22/FusedBatchNormV3_model_1/model/batch_normalization_79/FusedBatchNormV3_model_1/model/depthwise_conv2d_37/depthwise_model_1/model/conv2d_11/Conv2D:0" precision="FP16">
					<dim>1</dim>
					<dim>32</dim>
					<dim>24</dim>
					<dim>24</dim>
				</port>
			</output>
		</layer>
		<layer id="166" name="1472924891" type="Const" version="opset1">
			<data element_type="i64" offset="12" shape="4" size="32"/>
			<output>
				<port id="0" precision="I64">
					<dim>4</dim>
				</port>
			</output>
		</layer>
		<layer id="167" name="1473525269" type="Const" version="opset1">
			<data element_type="i64" offset="12" shape="4" size="32"/>
			<output>
				<port id="0" precision="I64">
					<dim>4</dim>
				</port>
			</output>
		</layer>
		<layer id="168" name="Constant_325" type="Const" version="opset1">
			<data element_type="f16" offset="44" shape="" size="2"/>
			<output>
				<port id="0" precision="FP16"/>
			</output>
		</layer>
		<layer id="169" name="model_1/model/zero_padding2d_12/Pad" type="Pad" version="opset1">
			<data pad_mode="constant"/>
			<input>
				<port id="0" precision="FP16">
					<dim>1</dim>
					<dim>32</dim>
					<dim>24</dim>
					<dim>24</dim>
				</port>
				<port id="1" precision="I64">
					<dim>4</dim>
				</port>
				<port id="2" precision="I64">
					<dim>4</dim>
				</port>
				<port id="3" precision="FP16"/>
			</input>
			<output>
				<port id="4" names="model_1/model/zero_padding2d_12/Pad:0" precision="FP16">
					<dim>1</dim>
					<dim>32</dim>
					<dim>26</dim>
					<dim>26</dim>
				</port>
			</output>
		</layer>
		<layer id="170" name="depthwise_11/filter_in" type="Const" version="opset1">
			<data element_type="f16" offset="33230" shape="32, 1, 1, 3, 3" size="576"/>
			<output>
				<port id="0" names="depthwise_11/filter_in:0" precision="FP16">
					<dim>32</dim>
					<dim>1</dim>
					<dim>1</dim>
					<dim>3</dim>
					<dim>3</dim>
				</port>
			</output>
		</layer>
		<layer id="171" name="depthwise_11" type="GroupConvolution" version="opset1">
			<data auto_pad="valid" dilations="1, 1" pads_begin="0, 0" pads_end="0, 0" strides="1, 1"/>
			<input>
				<port id="0" precision="FP16">
					<dim>1</dim>
					<dim>32</dim>
					<dim>26</dim>
					<dim>26</dim>
				</port>
				<port id="1" precision="FP16">
					<dim>32</dim>
					<dim>1</dim>
					<dim>1</dim>
					<dim>3</dim>
					<dim>3</dim>
				</port>
			</input>
			<output>
				<port id="2" names="depthwise_11:0" precision="FP16">
					<dim>1</dim>
					<dim>32</dim>
					<dim>24</dim>
					<dim>24</dim>
				</port>
			</output>
		</layer>
		<layer id="172" name="model_1/model/batch_normalization_23/FusedBatchNormV3_model_1/model/batch_normalization_79/FusedBatchNormV3_model_1/model/depthwise_conv2d_37/depthwise_model_1/model/depthwise_conv2d_11/depthwise/y" type="Const" version="opset1">
			<data element_type="f16" offset="33806" shape="1, 32, 1, 1" size="64"/>
			<output>
				<port id="0" names="model_1/model/batch_normalization_23/FusedBatchNormV3_model_1/model/batch_normalization_79/FusedBatchNormV3_model_1/model/depthwise_conv2d_37/depthwise_model_1/model/depthwise_conv2d_11/depthwise/y:0" precision="FP16">
					<dim>1</dim>
					<dim>32</dim>
					<dim>1</dim>
					<dim>1</dim>
				</port>
			</output>
		</layer>
		<layer id="173" name="model_1/model/batch_normalization_23/FusedBatchNormV3_model_1/model/batch_normalization_79/FusedBatchNormV3_model_1/model/depthwise_conv2d_37/depthwise_model_1/model/depthwise_conv2d_11/depthwise" type="Add" version="opset1">
			<data auto_broadcast="numpy"/>
			<input>
				<port id="0" precision="FP16">
					<dim>1</dim>
					<dim>32</dim>
					<dim>24</dim>
					<dim>24</dim>
				</port>
				<port id="1" precision="FP16">
					<dim>1</dim>
					<dim>32</dim>
					<dim>1</dim>
					<dim>1</dim>
				</port>
			</input>
			<output>
				<port id="2" names="model_1/model/batch_normalization_23/FusedBatchNormV3_model_1/model/batch_normalization_79/FusedBatchNormV3_model_1/model/depthwise_conv2d_37/depthwise_model_1/model/depthwise_conv2d_11/depthwise:0" precision="FP16">
					<dim>1</dim>
					<dim>32</dim>
					<dim>24</dim>
					<dim>24</dim>
				</port>
			</output>
		</layer>
		<layer id="174" name="Conv2D_13/filter" type="Const" version="opset1">
			<data element_type="f16" offset="33870" shape="128, 32, 1, 1" size="8192"/>
			<output>
				<port id="0" names="Conv2D_13/filter:0" precision="FP16">
					<dim>128</dim>
					<dim>32</dim>
					<dim>1</dim>
					<dim>1</dim>
				</port>
			</output>
		</layer>
		<layer id="175" name="Conv2D_13" type="Convolution" version="opset1">
			<data auto_pad="valid" dilations="1, 1" pads_begin="0, 0" pads_end="0, 0" strides="1, 1"/>
			<input>
				<port id="0" precision="FP16">
					<dim>1</dim>
					<dim>32</dim>
					<dim>24</dim>
					<dim>24</dim>
				</port>
				<port id="1" precision="FP16">
					<dim>128</dim>
					<dim>32</dim>
					<dim>1</dim>
					<dim>1</dim>
				</port>
			</input>
			<output>
				<port id="2" names="Conv2D_13:0" precision="FP16">
					<dim>1</dim>
					<dim>128</dim>
					<dim>24</dim>
					<dim>24</dim>
				</port>
			</output>
		</layer>
		<layer id="176" name="Add_13/y" type="Const" version="opset1">
			<data element_type="f16" offset="42062" shape="1, 128, 1, 1" size="256"/>
			<output>
				<port id="0" names="Add_13/y:0" precision="FP16">
					<dim>1</dim>
					<dim>128</dim>
					<dim>1</dim>
					<dim>1</dim>
				</port>
			</output>
		</layer>
		<layer id="177" name="Add_13" type="Add" version="opset1">
			<data auto_broadcast="numpy"/>
			<input>
				<port id="0" precision="FP16">
					<dim>1</dim>
					<dim>128</dim>
					<dim>24</dim>
					<dim>24</dim>
				</port>
				<port id="1" precision="FP16">
					<dim>1</dim>
					<dim>128</dim>
					<dim>1</dim>
					<dim>1</dim>
				</port>
			</input>
			<output>
				<port id="2" names="Add_13:0" precision="FP16">
					<dim>1</dim>
					<dim>128</dim>
					<dim>24</dim>
					<dim>24</dim>
				</port>
			</output>
		</layer>
		<layer id="178" name="model_1/model/activation_12/Relu_model_1/model/batch_normalization_24/FusedBatchNormV3_model_1/model/batch_normalization_33/FusedBatchNormV3_model_1/model/depthwise_conv2d_16/depthwise_model_1/model/conv2d_12/Conv2D" type="ReLU" version="opset1">
			<input>
				<port id="0" precision="FP16">
					<dim>1</dim>
					<dim>128</dim>
					<dim>24</dim>
					<dim>24</dim>
				</port>
			</input>
			<output>
				<port id="1" names="model_1/model/activation_12/Relu_model_1/model/batch_normalization_24/FusedBatchNormV3_model_1/model/batch_normalization_33/FusedBatchNormV3_model_1/model/depthwise_conv2d_16/depthwise_model_1/model/conv2d_12/Conv2D:0" precision="FP16">
					<dim>1</dim>
					<dim>128</dim>
					<dim>24</dim>
					<dim>24</dim>
				</port>
			</output>
		</layer>
		<layer id="179" name="1474125350" type="Const" version="opset1">
			<data element_type="i64" offset="12" shape="4" size="32"/>
			<output>
				<port id="0" precision="I64">
					<dim>4</dim>
				</port>
			</output>
		</layer>
		<layer id="180" name="1474725200" type="Const" version="opset1">
			<data element_type="i64" offset="12" shape="4" size="32"/>
			<output>
				<port id="0" precision="I64">
					<dim>4</dim>
				</port>
			</output>
		</layer>
		<layer id="181" name="Constant_350" type="Const" version="opset1">
			<data element_type="f16" offset="44" shape="" size="2"/>
			<output>
				<port id="0" precision="FP16"/>
			</output>
		</layer>
		<layer id="182" name="model_1/model/zero_padding2d_13/Pad" type="Pad" version="opset1">
			<data pad_mode="constant"/>
			<input>
				<port id="0" precision="FP16">
					<dim>1</dim>
					<dim>128</dim>
					<dim>24</dim>
					<dim>24</dim>
				</port>
				<port id="1" precision="I64">
					<dim>4</dim>
				</port>
				<port id="2" precision="I64">
					<dim>4</dim>
				</port>
				<port id="3" precision="FP16"/>
			</input>
			<output>
				<port id="4" names="model_1/model/zero_padding2d_13/Pad:0" precision="FP16">
					<dim>1</dim>
					<dim>128</dim>
					<dim>26</dim>
					<dim>26</dim>
				</port>
			</output>
		</layer>
		<layer id="183" name="depthwise_12/filter_in" type="Const" version="opset1">
			<data element_type="f16" offset="42318" shape="128, 1, 1, 3, 3" size="2304"/>
			<output>
				<port id="0" names="depthwise_12/filter_in:0" precision="FP16">
					<dim>128</dim>
					<dim>1</dim>
					<dim>1</dim>
					<dim>3</dim>
					<dim>3</dim>
				</port>
			</output>
		</layer>
		<layer id="184" name="depthwise_12" type="GroupConvolution" version="opset1">
			<data auto_pad="valid" dilations="1, 1" pads_begin="0, 0" pads_end="0, 0" strides="1, 1"/>
			<input>
				<port id="0" precision="FP16">
					<dim>1</dim>
					<dim>128</dim>
					<dim>26</dim>
					<dim>26</dim>
				</port>
				<port id="1" precision="FP16">
					<dim>128</dim>
					<dim>1</dim>
					<dim>1</dim>
					<dim>3</dim>
					<dim>3</dim>
				</port>
			</input>
			<output>
				<port id="2" names="depthwise_12:0" precision="FP16">
					<dim>1</dim>
					<dim>128</dim>
					<dim>24</dim>
					<dim>24</dim>
				</port>
			</output>
		</layer>
		<layer id="185" name="model_1/model/batch_normalization_25/FusedBatchNormV3_model_1/model/batch_normalization_33/FusedBatchNormV3_model_1/model/depthwise_conv2d_16/depthwise_model_1/model/depthwise_conv2d_12/depthwise/y" type="Const" version="opset1">
			<data element_type="f16" offset="44622" shape="1, 128, 1, 1" size="256"/>
			<output>
				<port id="0" names="model_1/model/batch_normalization_25/FusedBatchNormV3_model_1/model/batch_normalization_33/FusedBatchNormV3_model_1/model/depthwise_conv2d_16/depthwise_model_1/model/depthwise_conv2d_12/depthwise/y:0" precision="FP16">
					<dim>1</dim>
					<dim>128</dim>
					<dim>1</dim>
					<dim>1</dim>
				</port>
			</output>
		</layer>
		<layer id="186" name="model_1/model/batch_normalization_25/FusedBatchNormV3_model_1/model/batch_normalization_33/FusedBatchNormV3_model_1/model/depthwise_conv2d_16/depthwise_model_1/model/depthwise_conv2d_12/depthwise" type="Add" version="opset1">
			<data auto_broadcast="numpy"/>
			<input>
				<port id="0" precision="FP16">
					<dim>1</dim>
					<dim>128</dim>
					<dim>24</dim>
					<dim>24</dim>
				</port>
				<port id="1" precision="FP16">
					<dim>1</dim>
					<dim>128</dim>
					<dim>1</dim>
					<dim>1</dim>
				</port>
			</input>
			<output>
				<port id="2" names="model_1/model/batch_normalization_25/FusedBatchNormV3_model_1/model/batch_normalization_33/FusedBatchNormV3_model_1/model/depthwise_conv2d_16/depthwise_model_1/model/depthwise_conv2d_12/depthwise:0" precision="FP16">
					<dim>1</dim>
					<dim>128</dim>
					<dim>24</dim>
					<dim>24</dim>
				</port>
			</output>
		</layer>
		<layer id="187" name="Conv2D_14/filter" type="Const" version="opset1">
			<data element_type="f16" offset="44878" shape="32, 128, 1, 1" size="8192"/>
			<output>
				<port id="0" names="Conv2D_14/filter:0" precision="FP16">
					<dim>32</dim>
					<dim>128</dim>
					<dim>1</dim>
					<dim>1</dim>
				</port>
			</output>
		</layer>
		<layer id="188" name="Conv2D_14" type="Convolution" version="opset1">
			<data auto_pad="valid" dilations="1, 1" pads_begin="0, 0" pads_end="0, 0" strides="1, 1"/>
			<input>
				<port id="0" precision="FP16">
					<dim>1</dim>
					<dim>128</dim>
					<dim>24</dim>
					<dim>24</dim>
				</port>
				<port id="1" precision="FP16">
					<dim>32</dim>
					<dim>128</dim>
					<dim>1</dim>
					<dim>1</dim>
				</port>
			</input>
			<output>
				<port id="2" names="Conv2D_14:0" precision="FP16">
					<dim>1</dim>
					<dim>32</dim>
					<dim>24</dim>
					<dim>24</dim>
				</port>
			</output>
		</layer>
		<layer id="189" name="Add_14/y" type="Const" version="opset1">
			<data element_type="f16" offset="53070" shape="1, 32, 1, 1" size="64"/>
			<output>
				<port id="0" names="Add_14/y:0" precision="FP16">
					<dim>1</dim>
					<dim>32</dim>
					<dim>1</dim>
					<dim>1</dim>
				</port>
			</output>
		</layer>
		<layer id="190" name="Add_14" type="Add" version="opset1">
			<data auto_broadcast="numpy"/>
			<input>
				<port id="0" precision="FP16">
					<dim>1</dim>
					<dim>32</dim>
					<dim>24</dim>
					<dim>24</dim>
				</port>
				<port id="1" precision="FP16">
					<dim>1</dim>
					<dim>32</dim>
					<dim>1</dim>
					<dim>1</dim>
				</port>
			</input>
			<output>
				<port id="2" names="Add_14:0" precision="FP16">
					<dim>1</dim>
					<dim>32</dim>
					<dim>24</dim>
					<dim>24</dim>
				</port>
			</output>
		</layer>
		<layer id="191" name="model_1/model/activation_13/Relu_model_1/model/batch_normalization_26/FusedBatchNormV3_model_1/model/batch_normalization_79/FusedBatchNormV3_model_1/model/depthwise_conv2d_37/depthwise_model_1/model/conv2d_13/Conv2D" type="ReLU" version="opset1">
			<input>
				<port id="0" precision="FP16">
					<dim>1</dim>
					<dim>32</dim>
					<dim>24</dim>
					<dim>24</dim>
				</port>
			</input>
			<output>
				<port id="1" names="model_1/model/activation_13/Relu_model_1/model/batch_normalization_26/FusedBatchNormV3_model_1/model/batch_normalization_79/FusedBatchNormV3_model_1/model/depthwise_conv2d_37/depthwise_model_1/model/conv2d_13/Conv2D:0" precision="FP16">
					<dim>1</dim>
					<dim>32</dim>
					<dim>24</dim>
					<dim>24</dim>
				</port>
			</output>
		</layer>
		<layer id="192" name="1475324849" type="Const" version="opset1">
			<data element_type="i64" offset="12" shape="4" size="32"/>
			<output>
				<port id="0" precision="I64">
					<dim>4</dim>
				</port>
			</output>
		</layer>
		<layer id="193" name="1475924918" type="Const" version="opset1">
			<data element_type="i64" offset="12" shape="4" size="32"/>
			<output>
				<port id="0" precision="I64">
					<dim>4</dim>
				</port>
			</output>
		</layer>
		<layer id="194" name="Constant_375" type="Const" version="opset1">
			<data element_type="f16" offset="44" shape="" size="2"/>
			<output>
				<port id="0" precision="FP16"/>
			</output>
		</layer>
		<layer id="195" name="model_1/model/zero_padding2d_14/Pad" type="Pad" version="opset1">
			<data pad_mode="constant"/>
			<input>
				<port id="0" precision="FP16">
					<dim>1</dim>
					<dim>32</dim>
					<dim>24</dim>
					<dim>24</dim>
				</port>
				<port id="1" precision="I64">
					<dim>4</dim>
				</port>
				<port id="2" precision="I64">
					<dim>4</dim>
				</port>
				<port id="3" precision="FP16"/>
			</input>
			<output>
				<port id="4" names="model_1/model/zero_padding2d_14/Pad:0" precision="FP16">
					<dim>1</dim>
					<dim>32</dim>
					<dim>26</dim>
					<dim>26</dim>
				</port>
			</output>
		</layer>
		<layer id="196" name="depthwise_13/filter_in" type="Const" version="opset1">
			<data element_type="f16" offset="53134" shape="32, 1, 1, 3, 3" size="576"/>
			<output>
				<port id="0" names="depthwise_13/filter_in:0" precision="FP16">
					<dim>32</dim>
					<dim>1</dim>
					<dim>1</dim>
					<dim>3</dim>
					<dim>3</dim>
				</port>
			</output>
		</layer>
		<layer id="197" name="depthwise_13" type="GroupConvolution" version="opset1">
			<data auto_pad="valid" dilations="1, 1" pads_begin="0, 0" pads_end="0, 0" strides="1, 1"/>
			<input>
				<port id="0" precision="FP16">
					<dim>1</dim>
					<dim>32</dim>
					<dim>26</dim>
					<dim>26</dim>
				</port>
				<port id="1" precision="FP16">
					<dim>32</dim>
					<dim>1</dim>
					<dim>1</dim>
					<dim>3</dim>
					<dim>3</dim>
				</port>
			</input>
			<output>
				<port id="2" names="depthwise_13:0" precision="FP16">
					<dim>1</dim>
					<dim>32</dim>
					<dim>24</dim>
					<dim>24</dim>
				</port>
			</output>
		</layer>
		<layer id="198" name="model_1/model/batch_normalization_27/FusedBatchNormV3_model_1/model/batch_normalization_79/FusedBatchNormV3_model_1/model/depthwise_conv2d_37/depthwise_model_1/model/depthwise_conv2d_13/depthwise/y" type="Const" version="opset1">
			<data element_type="f16" offset="53710" shape="1, 32, 1, 1" size="64"/>
			<output>
				<port id="0" names="model_1/model/batch_normalization_27/FusedBatchNormV3_model_1/model/batch_normalization_79/FusedBatchNormV3_model_1/model/depthwise_conv2d_37/depthwise_model_1/model/depthwise_conv2d_13/depthwise/y:0" precision="FP16">
					<dim>1</dim>
					<dim>32</dim>
					<dim>1</dim>
					<dim>1</dim>
				</port>
			</output>
		</layer>
		<layer id="199" name="model_1/model/batch_normalization_27/FusedBatchNormV3_model_1/model/batch_normalization_79/FusedBatchNormV3_model_1/model/depthwise_conv2d_37/depthwise_model_1/model/depthwise_conv2d_13/depthwise" type="Add" version="opset1">
			<data auto_broadcast="numpy"/>
			<input>
				<port id="0" precision="FP16">
					<dim>1</dim>
					<dim>32</dim>
					<dim>24</dim>
					<dim>24</dim>
				</port>
				<port id="1" precision="FP16">
					<dim>1</dim>
					<dim>32</dim>
					<dim>1</dim>
					<dim>1</dim>
				</port>
			</input>
			<output>
				<port id="2" names="model_1/model/batch_normalization_27/FusedBatchNormV3_model_1/model/batch_normalization_79/FusedBatchNormV3_model_1/model/depthwise_conv2d_37/depthwise_model_1/model/depthwise_conv2d_13/depthwise:0" precision="FP16">
					<dim>1</dim>
					<dim>32</dim>
					<dim>24</dim>
					<dim>24</dim>
				</port>
			</output>
		</layer>
		<layer id="200" name="Conv2D_15/filter" type="Const" version="opset1">
			<data element_type="f16" offset="53774" shape="128, 32, 1, 1" size="8192"/>
			<output>
				<port id="0" names="Conv2D_15/filter:0" precision="FP16">
					<dim>128</dim>
					<dim>32</dim>
					<dim>1</dim>
					<dim>1</dim>
				</port>
			</output>
		</layer>
		<layer id="201" name="Conv2D_15" type="Convolution" version="opset1">
			<data auto_pad="valid" dilations="1, 1" pads_begin="0, 0" pads_end="0, 0" strides="1, 1"/>
			<input>
				<port id="0" precision="FP16">
					<dim>1</dim>
					<dim>32</dim>
					<dim>24</dim>
					<dim>24</dim>
				</port>
				<port id="1" precision="FP16">
					<dim>128</dim>
					<dim>32</dim>
					<dim>1</dim>
					<dim>1</dim>
				</port>
			</input>
			<output>
				<port id="2" names="Conv2D_15:0" precision="FP16">
					<dim>1</dim>
					<dim>128</dim>
					<dim>24</dim>
					<dim>24</dim>
				</port>
			</output>
		</layer>
		<layer id="202" name="model_1/model/batch_normalization_28/FusedBatchNormV3_model_1/model/depthwise_conv2d_16/depthwise_model_1/model/conv2d_14/Conv2D1/y" type="Const" version="opset1">
			<data element_type="f16" offset="61966" shape="1, 128, 1, 1" size="256"/>
			<output>
				<port id="0" names="model_1/model/batch_normalization_28/FusedBatchNormV3_model_1/model/depthwise_conv2d_16/depthwise_model_1/model/conv2d_14/Conv2D1/y:0" precision="FP16">
					<dim>1</dim>
					<dim>128</dim>
					<dim>1</dim>
					<dim>1</dim>
				</port>
			</output>
		</layer>
		<layer id="203" name="model_1/model/batch_normalization_28/FusedBatchNormV3_model_1/model/depthwise_conv2d_16/depthwise_model_1/model/conv2d_14/Conv2D1" type="Add" version="opset1">
			<data auto_broadcast="numpy"/>
			<input>
				<port id="0" precision="FP16">
					<dim>1</dim>
					<dim>128</dim>
					<dim>24</dim>
					<dim>24</dim>
				</port>
				<port id="1" precision="FP16">
					<dim>1</dim>
					<dim>128</dim>
					<dim>1</dim>
					<dim>1</dim>
				</port>
			</input>
			<output>
				<port id="2" names="model_1/model/batch_normalization_28/FusedBatchNormV3_model_1/model/depthwise_conv2d_16/depthwise_model_1/model/conv2d_14/Conv2D1:0" precision="FP16">
					<dim>1</dim>
					<dim>128</dim>
					<dim>24</dim>
					<dim>24</dim>
				</port>
			</output>
		</layer>
		<layer id="204" name="Add_15" type="Add" version="opset1">
			<data auto_broadcast="numpy"/>
			<input>
				<port id="0" precision="FP16">
					<dim>1</dim>
					<dim>128</dim>
					<dim>24</dim>
					<dim>24</dim>
				</port>
				<port id="1" precision="FP16">
					<dim>1</dim>
					<dim>128</dim>
					<dim>24</dim>
					<dim>24</dim>
				</port>
			</input>
			<output>
				<port id="2" names="Add_15:0" precision="FP16">
					<dim>1</dim>
					<dim>128</dim>
					<dim>24</dim>
					<dim>24</dim>
				</port>
			</output>
		</layer>
		<layer id="205" name="model_1/model/activation_14/Relu_model_1/model/add_4/add" type="ReLU" version="opset1">
			<input>
				<port id="0" precision="FP16">
					<dim>1</dim>
					<dim>128</dim>
					<dim>24</dim>
					<dim>24</dim>
				</port>
			</input>
			<output>
				<port id="1" names="model_1/model/activation_14/Relu_model_1/model/add_4/add:0" precision="FP16">
					<dim>1</dim>
					<dim>128</dim>
					<dim>24</dim>
					<dim>24</dim>
				</port>
			</output>
		</layer>
		<layer id="206" name="1476525071" type="Const" version="opset1">
			<data element_type="i64" offset="12" shape="4" size="32"/>
			<output>
				<port id="0" precision="I64">
					<dim>4</dim>
				</port>
			</output>
		</layer>
		<layer id="207" name="1477125122" type="Const" version="opset1">
			<data element_type="i64" offset="12" shape="4" size="32"/>
			<output>
				<port id="0" precision="I64">
					<dim>4</dim>
				</port>
			</output>
		</layer>
		<layer id="208" name="Constant_402" type="Const" version="opset1">
			<data element_type="f16" offset="44" shape="" size="2"/>
			<output>
				<port id="0" precision="FP16"/>
			</output>
		</layer>
		<layer id="209" name="model_1/model/zero_padding2d_15/Pad" type="Pad" version="opset1">
			<data pad_mode="constant"/>
			<input>
				<port id="0" precision="FP16">
					<dim>1</dim>
					<dim>128</dim>
					<dim>24</dim>
					<dim>24</dim>
				</port>
				<port id="1" precision="I64">
					<dim>4</dim>
				</port>
				<port id="2" precision="I64">
					<dim>4</dim>
				</port>
				<port id="3" precision="FP16"/>
			</input>
			<output>
				<port id="4" names="model_1/model/zero_padding2d_15/Pad:0" precision="FP16">
					<dim>1</dim>
					<dim>128</dim>
					<dim>26</dim>
					<dim>26</dim>
				</port>
			</output>
		</layer>
		<layer id="210" name="depthwise_14/filter_in" type="Const" version="opset1">
			<data element_type="f16" offset="62222" shape="128, 1, 1, 3, 3" size="2304"/>
			<output>
				<port id="0" names="depthwise_14/filter_in:0" precision="FP16">
					<dim>128</dim>
					<dim>1</dim>
					<dim>1</dim>
					<dim>3</dim>
					<dim>3</dim>
				</port>
			</output>
		</layer>
		<layer id="211" name="depthwise_14" type="GroupConvolution" version="opset1">
			<data auto_pad="valid" dilations="1, 1" pads_begin="0, 0" pads_end="0, 0" strides="1, 1"/>
			<input>
				<port id="0" precision="FP16">
					<dim>1</dim>
					<dim>128</dim>
					<dim>26</dim>
					<dim>26</dim>
				</port>
				<port id="1" precision="FP16">
					<dim>128</dim>
					<dim>1</dim>
					<dim>1</dim>
					<dim>3</dim>
					<dim>3</dim>
				</port>
			</input>
			<output>
				<port id="2" names="depthwise_14:0" precision="FP16">
					<dim>1</dim>
					<dim>128</dim>
					<dim>24</dim>
					<dim>24</dim>
				</port>
			</output>
		</layer>
		<layer id="212" name="model_1/model/batch_normalization_29/FusedBatchNormV3_model_1/model/batch_normalization_33/FusedBatchNormV3_model_1/model/depthwise_conv2d_16/depthwise_model_1/model/depthwise_conv2d_14/depthwise/y" type="Const" version="opset1">
			<data element_type="f16" offset="64526" shape="1, 128, 1, 1" size="256"/>
			<output>
				<port id="0" names="model_1/model/batch_normalization_29/FusedBatchNormV3_model_1/model/batch_normalization_33/FusedBatchNormV3_model_1/model/depthwise_conv2d_16/depthwise_model_1/model/depthwise_conv2d_14/depthwise/y:0" precision="FP16">
					<dim>1</dim>
					<dim>128</dim>
					<dim>1</dim>
					<dim>1</dim>
				</port>
			</output>
		</layer>
		<layer id="213" name="model_1/model/batch_normalization_29/FusedBatchNormV3_model_1/model/batch_normalization_33/FusedBatchNormV3_model_1/model/depthwise_conv2d_16/depthwise_model_1/model/depthwise_conv2d_14/depthwise" type="Add" version="opset1">
			<data auto_broadcast="numpy"/>
			<input>
				<port id="0" precision="FP16">
					<dim>1</dim>
					<dim>128</dim>
					<dim>24</dim>
					<dim>24</dim>
				</port>
				<port id="1" precision="FP16">
					<dim>1</dim>
					<dim>128</dim>
					<dim>1</dim>
					<dim>1</dim>
				</port>
			</input>
			<output>
				<port id="2" names="model_1/model/batch_normalization_29/FusedBatchNormV3_model_1/model/batch_normalization_33/FusedBatchNormV3_model_1/model/depthwise_conv2d_16/depthwise_model_1/model/depthwise_conv2d_14/depthwise:0" precision="FP16">
					<dim>1</dim>
					<dim>128</dim>
					<dim>24</dim>
					<dim>24</dim>
				</port>
			</output>
		</layer>
		<layer id="214" name="Conv2D_16/filter" type="Const" version="opset1">
			<data element_type="f16" offset="64782" shape="32, 128, 1, 1" size="8192"/>
			<output>
				<port id="0" names="Conv2D_16/filter:0" precision="FP16">
					<dim>32</dim>
					<dim>128</dim>
					<dim>1</dim>
					<dim>1</dim>
				</port>
			</output>
		</layer>
		<layer id="215" name="Conv2D_16" type="Convolution" version="opset1">
			<data auto_pad="valid" dilations="1, 1" pads_begin="0, 0" pads_end="0, 0" strides="1, 1"/>
			<input>
				<port id="0" precision="FP16">
					<dim>1</dim>
					<dim>128</dim>
					<dim>24</dim>
					<dim>24</dim>
				</port>
				<port id="1" precision="FP16">
					<dim>32</dim>
					<dim>128</dim>
					<dim>1</dim>
					<dim>1</dim>
				</port>
			</input>
			<output>
				<port id="2" names="Conv2D_16:0" precision="FP16">
					<dim>1</dim>
					<dim>32</dim>
					<dim>24</dim>
					<dim>24</dim>
				</port>
			</output>
		</layer>
		<layer id="216" name="Add_16/y" type="Const" version="opset1">
			<data element_type="f16" offset="72974" shape="1, 32, 1, 1" size="64"/>
			<output>
				<port id="0" names="Add_16/y:0" precision="FP16">
					<dim>1</dim>
					<dim>32</dim>
					<dim>1</dim>
					<dim>1</dim>
				</port>
			</output>
		</layer>
		<layer id="217" name="Add_16" type="Add" version="opset1">
			<data auto_broadcast="numpy"/>
			<input>
				<port id="0" precision="FP16">
					<dim>1</dim>
					<dim>32</dim>
					<dim>24</dim>
					<dim>24</dim>
				</port>
				<port id="1" precision="FP16">
					<dim>1</dim>
					<dim>32</dim>
					<dim>1</dim>
					<dim>1</dim>
				</port>
			</input>
			<output>
				<port id="2" names="Add_16:0" precision="FP16">
					<dim>1</dim>
					<dim>32</dim>
					<dim>24</dim>
					<dim>24</dim>
				</port>
			</output>
		</layer>
		<layer id="218" name="model_1/model/activation_15/Relu_model_1/model/batch_normalization_30/FusedBatchNormV3_model_1/model/batch_normalization_79/FusedBatchNormV3_model_1/model/depthwise_conv2d_37/depthwise_model_1/model/conv2d_15/Conv2D" type="ReLU" version="opset1">
			<input>
				<port id="0" precision="FP16">
					<dim>1</dim>
					<dim>32</dim>
					<dim>24</dim>
					<dim>24</dim>
				</port>
			</input>
			<output>
				<port id="1" names="model_1/model/activation_15/Relu_model_1/model/batch_normalization_30/FusedBatchNormV3_model_1/model/batch_normalization_79/FusedBatchNormV3_model_1/model/depthwise_conv2d_37/depthwise_model_1/model/conv2d_15/Conv2D:0" precision="FP16">
					<dim>1</dim>
					<dim>32</dim>
					<dim>24</dim>
					<dim>24</dim>
				</port>
			</output>
		</layer>
		<layer id="219" name="1477725191" type="Const" version="opset1">
			<data element_type="i64" offset="12" shape="4" size="32"/>
			<output>
				<port id="0" precision="I64">
					<dim>4</dim>
				</port>
			</output>
		</layer>
		<layer id="220" name="1478325149" type="Const" version="opset1">
			<data element_type="i64" offset="12" shape="4" size="32"/>
			<output>
				<port id="0" precision="I64">
					<dim>4</dim>
				</port>
			</output>
		</layer>
		<layer id="221" name="Constant_427" type="Const" version="opset1">
			<data element_type="f16" offset="44" shape="" size="2"/>
			<output>
				<port id="0" precision="FP16"/>
			</output>
		</layer>
		<layer id="222" name="model_1/model/zero_padding2d_16/Pad" type="Pad" version="opset1">
			<data pad_mode="constant"/>
			<input>
				<port id="0" precision="FP16">
					<dim>1</dim>
					<dim>32</dim>
					<dim>24</dim>
					<dim>24</dim>
				</port>
				<port id="1" precision="I64">
					<dim>4</dim>
				</port>
				<port id="2" precision="I64">
					<dim>4</dim>
				</port>
				<port id="3" precision="FP16"/>
			</input>
			<output>
				<port id="4" names="model_1/model/zero_padding2d_16/Pad:0" precision="FP16">
					<dim>1</dim>
					<dim>32</dim>
					<dim>26</dim>
					<dim>26</dim>
				</port>
			</output>
		</layer>
		<layer id="223" name="depthwise_15/filter_in" type="Const" version="opset1">
			<data element_type="f16" offset="73038" shape="32, 1, 1, 3, 3" size="576"/>
			<output>
				<port id="0" names="depthwise_15/filter_in:0" precision="FP16">
					<dim>32</dim>
					<dim>1</dim>
					<dim>1</dim>
					<dim>3</dim>
					<dim>3</dim>
				</port>
			</output>
		</layer>
		<layer id="224" name="depthwise_15" type="GroupConvolution" version="opset1">
			<data auto_pad="valid" dilations="1, 1" pads_begin="0, 0" pads_end="0, 0" strides="1, 1"/>
			<input>
				<port id="0" precision="FP16">
					<dim>1</dim>
					<dim>32</dim>
					<dim>26</dim>
					<dim>26</dim>
				</port>
				<port id="1" precision="FP16">
					<dim>32</dim>
					<dim>1</dim>
					<dim>1</dim>
					<dim>3</dim>
					<dim>3</dim>
				</port>
			</input>
			<output>
				<port id="2" names="depthwise_15:0" precision="FP16">
					<dim>1</dim>
					<dim>32</dim>
					<dim>24</dim>
					<dim>24</dim>
				</port>
			</output>
		</layer>
		<layer id="225" name="model_1/model/batch_normalization_31/FusedBatchNormV3_model_1/model/batch_normalization_79/FusedBatchNormV3_model_1/model/depthwise_conv2d_37/depthwise_model_1/model/depthwise_conv2d_15/depthwise/y" type="Const" version="opset1">
			<data element_type="f16" offset="73614" shape="1, 32, 1, 1" size="64"/>
			<output>
				<port id="0" names="model_1/model/batch_normalization_31/FusedBatchNormV3_model_1/model/batch_normalization_79/FusedBatchNormV3_model_1/model/depthwise_conv2d_37/depthwise_model_1/model/depthwise_conv2d_15/depthwise/y:0" precision="FP16">
					<dim>1</dim>
					<dim>32</dim>
					<dim>1</dim>
					<dim>1</dim>
				</port>
			</output>
		</layer>
		<layer id="226" name="model_1/model/batch_normalization_31/FusedBatchNormV3_model_1/model/batch_normalization_79/FusedBatchNormV3_model_1/model/depthwise_conv2d_37/depthwise_model_1/model/depthwise_conv2d_15/depthwise" type="Add" version="opset1">
			<data auto_broadcast="numpy"/>
			<input>
				<port id="0" precision="FP16">
					<dim>1</dim>
					<dim>32</dim>
					<dim>24</dim>
					<dim>24</dim>
				</port>
				<port id="1" precision="FP16">
					<dim>1</dim>
					<dim>32</dim>
					<dim>1</dim>
					<dim>1</dim>
				</port>
			</input>
			<output>
				<port id="2" names="model_1/model/batch_normalization_31/FusedBatchNormV3_model_1/model/batch_normalization_79/FusedBatchNormV3_model_1/model/depthwise_conv2d_37/depthwise_model_1/model/depthwise_conv2d_15/depthwise:0" precision="FP16">
					<dim>1</dim>
					<dim>32</dim>
					<dim>24</dim>
					<dim>24</dim>
				</port>
			</output>
		</layer>
		<layer id="227" name="Conv2D_17/filter" type="Const" version="opset1">
			<data element_type="f16" offset="73678" shape="128, 32, 1, 1" size="8192"/>
			<output>
				<port id="0" names="Conv2D_17/filter:0" precision="FP16">
					<dim>128</dim>
					<dim>32</dim>
					<dim>1</dim>
					<dim>1</dim>
				</port>
			</output>
		</layer>
		<layer id="228" name="Conv2D_17" type="Convolution" version="opset1">
			<data auto_pad="valid" dilations="1, 1" pads_begin="0, 0" pads_end="0, 0" strides="1, 1"/>
			<input>
				<port id="0" precision="FP16">
					<dim>1</dim>
					<dim>32</dim>
					<dim>24</dim>
					<dim>24</dim>
				</port>
				<port id="1" precision="FP16">
					<dim>128</dim>
					<dim>32</dim>
					<dim>1</dim>
					<dim>1</dim>
				</port>
			</input>
			<output>
				<port id="2" names="Conv2D_17:0" precision="FP16">
					<dim>1</dim>
					<dim>128</dim>
					<dim>24</dim>
					<dim>24</dim>
				</port>
			</output>
		</layer>
		<layer id="229" name="model_1/model/batch_normalization_32/FusedBatchNormV3_model_1/model/depthwise_conv2d_16/depthwise_model_1/model/conv2d_16/Conv2D1/y" type="Const" version="opset1">
			<data element_type="f16" offset="81870" shape="1, 128, 1, 1" size="256"/>
			<output>
				<port id="0" names="model_1/model/batch_normalization_32/FusedBatchNormV3_model_1/model/depthwise_conv2d_16/depthwise_model_1/model/conv2d_16/Conv2D1/y:0" precision="FP16">
					<dim>1</dim>
					<dim>128</dim>
					<dim>1</dim>
					<dim>1</dim>
				</port>
			</output>
		</layer>
		<layer id="230" name="model_1/model/batch_normalization_32/FusedBatchNormV3_model_1/model/depthwise_conv2d_16/depthwise_model_1/model/conv2d_16/Conv2D1" type="Add" version="opset1">
			<data auto_broadcast="numpy"/>
			<input>
				<port id="0" precision="FP16">
					<dim>1</dim>
					<dim>128</dim>
					<dim>24</dim>
					<dim>24</dim>
				</port>
				<port id="1" precision="FP16">
					<dim>1</dim>
					<dim>128</dim>
					<dim>1</dim>
					<dim>1</dim>
				</port>
			</input>
			<output>
				<port id="2" names="model_1/model/batch_normalization_32/FusedBatchNormV3_model_1/model/depthwise_conv2d_16/depthwise_model_1/model/conv2d_16/Conv2D1:0" precision="FP16">
					<dim>1</dim>
					<dim>128</dim>
					<dim>24</dim>
					<dim>24</dim>
				</port>
			</output>
		</layer>
		<layer id="231" name="Add_17" type="Add" version="opset1">
			<data auto_broadcast="numpy"/>
			<input>
				<port id="0" precision="FP16">
					<dim>1</dim>
					<dim>128</dim>
					<dim>24</dim>
					<dim>24</dim>
				</port>
				<port id="1" precision="FP16">
					<dim>1</dim>
					<dim>128</dim>
					<dim>24</dim>
					<dim>24</dim>
				</port>
			</input>
			<output>
				<port id="2" names="Add_17:0" precision="FP16">
					<dim>1</dim>
					<dim>128</dim>
					<dim>24</dim>
					<dim>24</dim>
				</port>
			</output>
		</layer>
		<layer id="232" name="model_1/model/activation_16/Relu_model_1/model/add_5/add" type="ReLU" version="opset1">
			<input>
				<port id="0" precision="FP16">
					<dim>1</dim>
					<dim>128</dim>
					<dim>24</dim>
					<dim>24</dim>
				</port>
			</input>
			<output>
				<port id="1" names="model_1/model/activation_16/Relu_model_1/model/add_5/add:0" precision="FP16">
					<dim>1</dim>
					<dim>128</dim>
					<dim>24</dim>
					<dim>24</dim>
				</port>
			</output>
		</layer>
		<layer id="233" name="Conv2D_18/filter" type="Const" version="opset1">
			<data element_type="f16" offset="82126" shape="64, 128, 1, 1" size="16384"/>
			<output>
				<port id="0" names="Conv2D_18/filter:0" precision="FP16">
					<dim>64</dim>
					<dim>128</dim>
					<dim>1</dim>
					<dim>1</dim>
				</port>
			</output>
		</layer>
		<layer id="234" name="Conv2D_18" type="Convolution" version="opset1">
			<data auto_pad="valid" dilations="1, 1" pads_begin="0, 0" pads_end="0, 0" strides="1, 1"/>
			<input>
				<port id="0" precision="FP16">
					<dim>1</dim>
					<dim>128</dim>
					<dim>24</dim>
					<dim>24</dim>
				</port>
				<port id="1" precision="FP16">
					<dim>64</dim>
					<dim>128</dim>
					<dim>1</dim>
					<dim>1</dim>
				</port>
			</input>
			<output>
				<port id="2" names="Conv2D_18:0" precision="FP16">
					<dim>1</dim>
					<dim>64</dim>
					<dim>24</dim>
					<dim>24</dim>
				</port>
			</output>
		</layer>
		<layer id="235" name="Add_18/y" type="Const" version="opset1">
			<data element_type="f16" offset="98510" shape="1, 64, 1, 1" size="128"/>
			<output>
				<port id="0" names="Add_18/y:0" precision="FP16">
					<dim>1</dim>
					<dim>64</dim>
					<dim>1</dim>
					<dim>1</dim>
				</port>
			</output>
		</layer>
		<layer id="236" name="Add_18" type="Add" version="opset1">
			<data auto_broadcast="numpy"/>
			<input>
				<port id="0" precision="FP16">
					<dim>1</dim>
					<dim>64</dim>
					<dim>24</dim>
					<dim>24</dim>
				</port>
				<port id="1" precision="FP16">
					<dim>1</dim>
					<dim>64</dim>
					<dim>1</dim>
					<dim>1</dim>
				</port>
			</input>
			<output>
				<port id="2" names="Add_18:0" precision="FP16">
					<dim>1</dim>
					<dim>64</dim>
					<dim>24</dim>
					<dim>24</dim>
				</port>
			</output>
		</layer>
		<layer id="237" name="model_1/model/activation_38/Relu_model_1/model/batch_normalization_72/FusedBatchNormV3_model_1/model/conv2d_38/BiasAdd/ReadVariableOp/resource_model_1/model/conv2d_38/BiasAdd_model_1/model/depthwise_conv2d_41/depthwise_model_1/model/conv2d_38/Conv2D1" type="ReLU" version="opset1">
			<input>
				<port id="0" precision="FP16">
					<dim>1</dim>
					<dim>64</dim>
					<dim>24</dim>
					<dim>24</dim>
				</port>
			</input>
			<output>
				<port id="1" names="model_1/model/activation_38/Relu_model_1/model/batch_normalization_72/FusedBatchNormV3_model_1/model/conv2d_38/BiasAdd/ReadVariableOp/resource_model_1/model/conv2d_38/BiasAdd_model_1/model/depthwise_conv2d_41/depthwise_model_1/model/conv2d_38/Conv2D1:0" precision="FP16">
					<dim>1</dim>
					<dim>64</dim>
					<dim>24</dim>
					<dim>24</dim>
				</port>
			</output>
		</layer>
		<layer id="238" name="1478924699" type="Const" version="opset1">
			<data element_type="i64" offset="12" shape="4" size="32"/>
			<output>
				<port id="0" precision="I64">
					<dim>4</dim>
				</port>
			</output>
		</layer>
		<layer id="239" name="1479524927" type="Const" version="opset1">
			<data element_type="i64" offset="12" shape="4" size="32"/>
			<output>
				<port id="0" precision="I64">
					<dim>4</dim>
				</port>
			</output>
		</layer>
		<layer id="240" name="Constant_464" type="Const" version="opset1">
			<data element_type="f16" offset="44" shape="" size="2"/>
			<output>
				<port id="0" precision="FP16"/>
			</output>
		</layer>
		<layer id="241" name="model_1/model/zero_padding2d_17/Pad" type="Pad" version="opset1">
			<data pad_mode="constant"/>
			<input>
				<port id="0" precision="FP16">
					<dim>1</dim>
					<dim>128</dim>
					<dim>24</dim>
					<dim>24</dim>
				</port>
				<port id="1" precision="I64">
					<dim>4</dim>
				</port>
				<port id="2" precision="I64">
					<dim>4</dim>
				</port>
				<port id="3" precision="FP16"/>
			</input>
			<output>
				<port id="4" names="model_1/model/zero_padding2d_17/Pad:0" precision="FP16">
					<dim>1</dim>
					<dim>128</dim>
					<dim>26</dim>
					<dim>26</dim>
				</port>
			</output>
		</layer>
		<layer id="242" name="depthwise_16/filter_in" type="Const" version="opset1">
			<data element_type="f16" offset="98638" shape="128, 1, 1, 3, 3" size="2304"/>
			<output>
				<port id="0" names="depthwise_16/filter_in:0" precision="FP16">
					<dim>128</dim>
					<dim>1</dim>
					<dim>1</dim>
					<dim>3</dim>
					<dim>3</dim>
				</port>
			</output>
		</layer>
		<layer id="243" name="depthwise_16" type="GroupConvolution" version="opset1">
			<data auto_pad="valid" dilations="1, 1" pads_begin="0, 0" pads_end="0, 0" strides="2, 2"/>
			<input>
				<port id="0" precision="FP16">
					<dim>1</dim>
					<dim>128</dim>
					<dim>26</dim>
					<dim>26</dim>
				</port>
				<port id="1" precision="FP16">
					<dim>128</dim>
					<dim>1</dim>
					<dim>1</dim>
					<dim>3</dim>
					<dim>3</dim>
				</port>
			</input>
			<output>
				<port id="2" names="depthwise_16:0" precision="FP16">
					<dim>1</dim>
					<dim>128</dim>
					<dim>12</dim>
					<dim>12</dim>
				</port>
			</output>
		</layer>
		<layer id="244" name="model_1/model/batch_normalization_33/FusedBatchNormV3_model_1/model/depthwise_conv2d_16/depthwise1/y" type="Const" version="opset1">
			<data element_type="f16" offset="100942" shape="1, 128, 1, 1" size="256"/>
			<output>
				<port id="0" names="model_1/model/batch_normalization_33/FusedBatchNormV3_model_1/model/depthwise_conv2d_16/depthwise1/y:0" precision="FP16">
					<dim>1</dim>
					<dim>128</dim>
					<dim>1</dim>
					<dim>1</dim>
				</port>
			</output>
		</layer>
		<layer id="245" name="model_1/model/batch_normalization_33/FusedBatchNormV3_model_1/model/depthwise_conv2d_16/depthwise1" type="Add" version="opset1">
			<data auto_broadcast="numpy"/>
			<input>
				<port id="0" precision="FP16">
					<dim>1</dim>
					<dim>128</dim>
					<dim>12</dim>
					<dim>12</dim>
				</port>
				<port id="1" precision="FP16">
					<dim>1</dim>
					<dim>128</dim>
					<dim>1</dim>
					<dim>1</dim>
				</port>
			</input>
			<output>
				<port id="2" names="model_1/model/batch_normalization_33/FusedBatchNormV3_model_1/model/depthwise_conv2d_16/depthwise1:0" precision="FP16">
					<dim>1</dim>
					<dim>128</dim>
					<dim>12</dim>
					<dim>12</dim>
				</port>
			</output>
		</layer>
		<layer id="246" name="Conv2D_19/filter" type="Const" version="opset1">
			<data element_type="f16" offset="101198" shape="48, 128, 1, 1" size="12288"/>
			<output>
				<port id="0" names="Conv2D_19/filter:0" precision="FP16">
					<dim>48</dim>
					<dim>128</dim>
					<dim>1</dim>
					<dim>1</dim>
				</port>
			</output>
		</layer>
		<layer id="247" name="Conv2D_19" type="Convolution" version="opset1">
			<data auto_pad="valid" dilations="1, 1" pads_begin="0, 0" pads_end="0, 0" strides="1, 1"/>
			<input>
				<port id="0" precision="FP16">
					<dim>1</dim>
					<dim>128</dim>
					<dim>12</dim>
					<dim>12</dim>
				</port>
				<port id="1" precision="FP16">
					<dim>48</dim>
					<dim>128</dim>
					<dim>1</dim>
					<dim>1</dim>
				</port>
			</input>
			<output>
				<port id="2" names="Conv2D_19:0" precision="FP16">
					<dim>1</dim>
					<dim>48</dim>
					<dim>12</dim>
					<dim>12</dim>
				</port>
			</output>
		</layer>
		<layer id="248" name="Add_19/y" type="Const" version="opset1">
			<data element_type="f16" offset="113486" shape="1, 48, 1, 1" size="96"/>
			<output>
				<port id="0" names="Add_19/y:0" precision="FP16">
					<dim>1</dim>
					<dim>48</dim>
					<dim>1</dim>
					<dim>1</dim>
				</port>
			</output>
		</layer>
		<layer id="249" name="Add_19" type="Add" version="opset1">
			<data auto_broadcast="numpy"/>
			<input>
				<port id="0" precision="FP16">
					<dim>1</dim>
					<dim>48</dim>
					<dim>12</dim>
					<dim>12</dim>
				</port>
				<port id="1" precision="FP16">
					<dim>1</dim>
					<dim>48</dim>
					<dim>1</dim>
					<dim>1</dim>
				</port>
			</input>
			<output>
				<port id="2" names="Add_19:0" precision="FP16">
					<dim>1</dim>
					<dim>48</dim>
					<dim>12</dim>
					<dim>12</dim>
				</port>
			</output>
		</layer>
		<layer id="250" name="model_1/model/activation_17/Relu_model_1/model/batch_normalization_34/FusedBatchNormV3_model_1/model/batch_normalization_83/FusedBatchNormV3_model_1/model/depthwise_conv2d_38/depthwise_model_1/model/conv2d_46/Conv2D_model_1/model/conv2d_17/Conv2D" type="ReLU" version="opset1">
			<input>
				<port id="0" precision="FP16">
					<dim>1</dim>
					<dim>48</dim>
					<dim>12</dim>
					<dim>12</dim>
				</port>
			</input>
			<output>
				<port id="1" names="model_1/model/activation_17/Relu_model_1/model/batch_normalization_34/FusedBatchNormV3_model_1/model/batch_normalization_83/FusedBatchNormV3_model_1/model/depthwise_conv2d_38/depthwise_model_1/model/conv2d_46/Conv2D_model_1/model/conv2d_17/Conv2D:0" precision="FP16">
					<dim>1</dim>
					<dim>48</dim>
					<dim>12</dim>
					<dim>12</dim>
				</port>
			</output>
		</layer>
		<layer id="251" name="1480125302" type="Const" version="opset1">
			<data element_type="i64" offset="12" shape="4" size="32"/>
			<output>
				<port id="0" precision="I64">
					<dim>4</dim>
				</port>
			</output>
		</layer>
		<layer id="252" name="1480725128" type="Const" version="opset1">
			<data element_type="i64" offset="12" shape="4" size="32"/>
			<output>
				<port id="0" precision="I64">
					<dim>4</dim>
				</port>
			</output>
		</layer>
		<layer id="253" name="Constant_489" type="Const" version="opset1">
			<data element_type="f16" offset="44" shape="" size="2"/>
			<output>
				<port id="0" precision="FP16"/>
			</output>
		</layer>
		<layer id="254" name="model_1/model/zero_padding2d_18/Pad" type="Pad" version="opset1">
			<data pad_mode="constant"/>
			<input>
				<port id="0" precision="FP16">
					<dim>1</dim>
					<dim>48</dim>
					<dim>12</dim>
					<dim>12</dim>
				</port>
				<port id="1" precision="I64">
					<dim>4</dim>
				</port>
				<port id="2" precision="I64">
					<dim>4</dim>
				</port>
				<port id="3" precision="FP16"/>
			</input>
			<output>
				<port id="4" names="model_1/model/zero_padding2d_18/Pad:0" precision="FP16">
					<dim>1</dim>
					<dim>48</dim>
					<dim>14</dim>
					<dim>14</dim>
				</port>
			</output>
		</layer>
		<layer id="255" name="depthwise_17/filter_in" type="Const" version="opset1">
			<data element_type="f16" offset="113582" shape="48, 1, 1, 3, 3" size="864"/>
			<output>
				<port id="0" names="depthwise_17/filter_in:0" precision="FP16">
					<dim>48</dim>
					<dim>1</dim>
					<dim>1</dim>
					<dim>3</dim>
					<dim>3</dim>
				</port>
			</output>
		</layer>
		<layer id="256" name="depthwise_17" type="GroupConvolution" version="opset1">
			<data auto_pad="valid" dilations="1, 1" pads_begin="0, 0" pads_end="0, 0" strides="1, 1"/>
			<input>
				<port id="0" precision="FP16">
					<dim>1</dim>
					<dim>48</dim>
					<dim>14</dim>
					<dim>14</dim>
				</port>
				<port id="1" precision="FP16">
					<dim>48</dim>
					<dim>1</dim>
					<dim>1</dim>
					<dim>3</dim>
					<dim>3</dim>
				</port>
			</input>
			<output>
				<port id="2" names="depthwise_17:0" precision="FP16">
					<dim>1</dim>
					<dim>48</dim>
					<dim>12</dim>
					<dim>12</dim>
				</port>
			</output>
		</layer>
		<layer id="257" name="model_1/model/batch_normalization_35/FusedBatchNormV3_model_1/model/batch_normalization_83/FusedBatchNormV3_model_1/model/depthwise_conv2d_38/depthwise_model_1/model/conv2d_46/Conv2D_model_1/model/depthwise_conv2d_17/depthwise/y" type="Const" version="opset1">
			<data element_type="f16" offset="114446" shape="1, 48, 1, 1" size="96"/>
			<output>
				<port id="0" names="model_1/model/batch_normalization_35/FusedBatchNormV3_model_1/model/batch_normalization_83/FusedBatchNormV3_model_1/model/depthwise_conv2d_38/depthwise_model_1/model/conv2d_46/Conv2D_model_1/model/depthwise_conv2d_17/depthwise/y:0" precision="FP16">
					<dim>1</dim>
					<dim>48</dim>
					<dim>1</dim>
					<dim>1</dim>
				</port>
			</output>
		</layer>
		<layer id="258" name="model_1/model/batch_normalization_35/FusedBatchNormV3_model_1/model/batch_normalization_83/FusedBatchNormV3_model_1/model/depthwise_conv2d_38/depthwise_model_1/model/conv2d_46/Conv2D_model_1/model/depthwise_conv2d_17/depthwise" type="Add" version="opset1">
			<data auto_broadcast="numpy"/>
			<input>
				<port id="0" precision="FP16">
					<dim>1</dim>
					<dim>48</dim>
					<dim>12</dim>
					<dim>12</dim>
				</port>
				<port id="1" precision="FP16">
					<dim>1</dim>
					<dim>48</dim>
					<dim>1</dim>
					<dim>1</dim>
				</port>
			</input>
			<output>
				<port id="2" names="model_1/model/batch_normalization_35/FusedBatchNormV3_model_1/model/batch_normalization_83/FusedBatchNormV3_model_1/model/depthwise_conv2d_38/depthwise_model_1/model/conv2d_46/Conv2D_model_1/model/depthwise_conv2d_17/depthwise:0" precision="FP16">
					<dim>1</dim>
					<dim>48</dim>
					<dim>12</dim>
					<dim>12</dim>
				</port>
			</output>
		</layer>
		<layer id="259" name="Conv2D_20/filter" type="Const" version="opset1">
			<data element_type="f16" offset="114542" shape="192, 48, 1, 1" size="18432"/>
			<output>
				<port id="0" names="Conv2D_20/filter:0" precision="FP16">
					<dim>192</dim>
					<dim>48</dim>
					<dim>1</dim>
					<dim>1</dim>
				</port>
			</output>
		</layer>
		<layer id="260" name="Conv2D_20" type="Convolution" version="opset1">
			<data auto_pad="valid" dilations="1, 1" pads_begin="0, 0" pads_end="0, 0" strides="1, 1"/>
			<input>
				<port id="0" precision="FP16">
					<dim>1</dim>
					<dim>48</dim>
					<dim>12</dim>
					<dim>12</dim>
				</port>
				<port id="1" precision="FP16">
					<dim>192</dim>
					<dim>48</dim>
					<dim>1</dim>
					<dim>1</dim>
				</port>
			</input>
			<output>
				<port id="2" names="Conv2D_20:0" precision="FP16">
					<dim>1</dim>
					<dim>192</dim>
					<dim>12</dim>
					<dim>12</dim>
				</port>
			</output>
		</layer>
		<layer id="261" name="Add_20/y" type="Const" version="opset1">
			<data element_type="f16" offset="132974" shape="1, 192, 1, 1" size="384"/>
			<output>
				<port id="0" names="Add_20/y:0" precision="FP16">
					<dim>1</dim>
					<dim>192</dim>
					<dim>1</dim>
					<dim>1</dim>
				</port>
			</output>
		</layer>
		<layer id="262" name="Add_20" type="Add" version="opset1">
			<data auto_broadcast="numpy"/>
			<input>
				<port id="0" precision="FP16">
					<dim>1</dim>
					<dim>192</dim>
					<dim>12</dim>
					<dim>12</dim>
				</port>
				<port id="1" precision="FP16">
					<dim>1</dim>
					<dim>192</dim>
					<dim>1</dim>
					<dim>1</dim>
				</port>
			</input>
			<output>
				<port id="2" names="Add_20:0" precision="FP16">
					<dim>1</dim>
					<dim>192</dim>
					<dim>12</dim>
					<dim>12</dim>
				</port>
			</output>
		</layer>
		<layer id="263" name="model_1/model/activation_18/Relu_model_1/model/batch_normalization_36/FusedBatchNormV3_model_1/model/batch_normalization_45/FusedBatchNormV3_model_1/model/depthwise_conv2d_22/depthwise_model_1/model/conv2d_18/Conv2D" type="ReLU" version="opset1">
			<input>
				<port id="0" precision="FP16">
					<dim>1</dim>
					<dim>192</dim>
					<dim>12</dim>
					<dim>12</dim>
				</port>
			</input>
			<output>
				<port id="1" names="model_1/model/activation_18/Relu_model_1/model/batch_normalization_36/FusedBatchNormV3_model_1/model/batch_normalization_45/FusedBatchNormV3_model_1/model/depthwise_conv2d_22/depthwise_model_1/model/conv2d_18/Conv2D:0" precision="FP16">
					<dim>1</dim>
					<dim>192</dim>
					<dim>12</dim>
					<dim>12</dim>
				</port>
			</output>
		</layer>
		<layer id="264" name="1481325020" type="Const" version="opset1">
			<data element_type="i64" offset="12" shape="4" size="32"/>
			<output>
				<port id="0" precision="I64">
					<dim>4</dim>
				</port>
			</output>
		</layer>
		<layer id="265" name="1481925203" type="Const" version="opset1">
			<data element_type="i64" offset="12" shape="4" size="32"/>
			<output>
				<port id="0" precision="I64">
					<dim>4</dim>
				</port>
			</output>
		</layer>
		<layer id="266" name="Constant_514" type="Const" version="opset1">
			<data element_type="f16" offset="44" shape="" size="2"/>
			<output>
				<port id="0" precision="FP16"/>
			</output>
		</layer>
		<layer id="267" name="model_1/model/zero_padding2d_19/Pad" type="Pad" version="opset1">
			<data pad_mode="constant"/>
			<input>
				<port id="0" precision="FP16">
					<dim>1</dim>
					<dim>192</dim>
					<dim>12</dim>
					<dim>12</dim>
				</port>
				<port id="1" precision="I64">
					<dim>4</dim>
				</port>
				<port id="2" precision="I64">
					<dim>4</dim>
				</port>
				<port id="3" precision="FP16"/>
			</input>
			<output>
				<port id="4" names="model_1/model/zero_padding2d_19/Pad:0" precision="FP16">
					<dim>1</dim>
					<dim>192</dim>
					<dim>14</dim>
					<dim>14</dim>
				</port>
			</output>
		</layer>
		<layer id="268" name="depthwise_18/filter_in" type="Const" version="opset1">
			<data element_type="f16" offset="133358" shape="192, 1, 1, 3, 3" size="3456"/>
			<output>
				<port id="0" names="depthwise_18/filter_in:0" precision="FP16">
					<dim>192</dim>
					<dim>1</dim>
					<dim>1</dim>
					<dim>3</dim>
					<dim>3</dim>
				</port>
			</output>
		</layer>
		<layer id="269" name="depthwise_18" type="GroupConvolution" version="opset1">
			<data auto_pad="valid" dilations="1, 1" pads_begin="0, 0" pads_end="0, 0" strides="1, 1"/>
			<input>
				<port id="0" precision="FP16">
					<dim>1</dim>
					<dim>192</dim>
					<dim>14</dim>
					<dim>14</dim>
				</port>
				<port id="1" precision="FP16">
					<dim>192</dim>
					<dim>1</dim>
					<dim>1</dim>
					<dim>3</dim>
					<dim>3</dim>
				</port>
			</input>
			<output>
				<port id="2" names="depthwise_18:0" precision="FP16">
					<dim>1</dim>
					<dim>192</dim>
					<dim>12</dim>
					<dim>12</dim>
				</port>
			</output>
		</layer>
		<layer id="270" name="model_1/model/batch_normalization_37/FusedBatchNormV3_model_1/model/batch_normalization_45/FusedBatchNormV3_model_1/model/depthwise_conv2d_22/depthwise_model_1/model/depthwise_conv2d_18/depthwise/y" type="Const" version="opset1">
			<data element_type="f16" offset="136814" shape="1, 192, 1, 1" size="384"/>
			<output>
				<port id="0" names="model_1/model/batch_normalization_37/FusedBatchNormV3_model_1/model/batch_normalization_45/FusedBatchNormV3_model_1/model/depthwise_conv2d_22/depthwise_model_1/model/depthwise_conv2d_18/depthwise/y:0" precision="FP16">
					<dim>1</dim>
					<dim>192</dim>
					<dim>1</dim>
					<dim>1</dim>
				</port>
			</output>
		</layer>
		<layer id="271" name="model_1/model/batch_normalization_37/FusedBatchNormV3_model_1/model/batch_normalization_45/FusedBatchNormV3_model_1/model/depthwise_conv2d_22/depthwise_model_1/model/depthwise_conv2d_18/depthwise" type="Add" version="opset1">
			<data auto_broadcast="numpy"/>
			<input>
				<port id="0" precision="FP16">
					<dim>1</dim>
					<dim>192</dim>
					<dim>12</dim>
					<dim>12</dim>
				</port>
				<port id="1" precision="FP16">
					<dim>1</dim>
					<dim>192</dim>
					<dim>1</dim>
					<dim>1</dim>
				</port>
			</input>
			<output>
				<port id="2" names="model_1/model/batch_normalization_37/FusedBatchNormV3_model_1/model/batch_normalization_45/FusedBatchNormV3_model_1/model/depthwise_conv2d_22/depthwise_model_1/model/depthwise_conv2d_18/depthwise:0" precision="FP16">
					<dim>1</dim>
					<dim>192</dim>
					<dim>12</dim>
					<dim>12</dim>
				</port>
			</output>
		</layer>
		<layer id="272" name="Conv2D_21/filter" type="Const" version="opset1">
			<data element_type="f16" offset="137198" shape="48, 192, 1, 1" size="18432"/>
			<output>
				<port id="0" names="Conv2D_21/filter:0" precision="FP16">
					<dim>48</dim>
					<dim>192</dim>
					<dim>1</dim>
					<dim>1</dim>
				</port>
			</output>
		</layer>
		<layer id="273" name="Conv2D_21" type="Convolution" version="opset1">
			<data auto_pad="valid" dilations="1, 1" pads_begin="0, 0" pads_end="0, 0" strides="1, 1"/>
			<input>
				<port id="0" precision="FP16">
					<dim>1</dim>
					<dim>192</dim>
					<dim>12</dim>
					<dim>12</dim>
				</port>
				<port id="1" precision="FP16">
					<dim>48</dim>
					<dim>192</dim>
					<dim>1</dim>
					<dim>1</dim>
				</port>
			</input>
			<output>
				<port id="2" names="Conv2D_21:0" precision="FP16">
					<dim>1</dim>
					<dim>48</dim>
					<dim>12</dim>
					<dim>12</dim>
				</port>
			</output>
		</layer>
		<layer id="274" name="Add_21/y" type="Const" version="opset1">
			<data element_type="f16" offset="155630" shape="1, 48, 1, 1" size="96"/>
			<output>
				<port id="0" names="Add_21/y:0" precision="FP16">
					<dim>1</dim>
					<dim>48</dim>
					<dim>1</dim>
					<dim>1</dim>
				</port>
			</output>
		</layer>
		<layer id="275" name="Add_21" type="Add" version="opset1">
			<data auto_broadcast="numpy"/>
			<input>
				<port id="0" precision="FP16">
					<dim>1</dim>
					<dim>48</dim>
					<dim>12</dim>
					<dim>12</dim>
				</port>
				<port id="1" precision="FP16">
					<dim>1</dim>
					<dim>48</dim>
					<dim>1</dim>
					<dim>1</dim>
				</port>
			</input>
			<output>
				<port id="2" names="Add_21:0" precision="FP16">
					<dim>1</dim>
					<dim>48</dim>
					<dim>12</dim>
					<dim>12</dim>
				</port>
			</output>
		</layer>
		<layer id="276" name="model_1/model/activation_19/Relu_model_1/model/batch_normalization_38/FusedBatchNormV3_model_1/model/batch_normalization_83/FusedBatchNormV3_model_1/model/depthwise_conv2d_38/depthwise_model_1/model/conv2d_46/Conv2D_model_1/model/conv2d_19/Conv2D" type="ReLU" version="opset1">
			<input>
				<port id="0" precision="FP16">
					<dim>1</dim>
					<dim>48</dim>
					<dim>12</dim>
					<dim>12</dim>
				</port>
			</input>
			<output>
				<port id="1" names="model_1/model/activation_19/Relu_model_1/model/batch_normalization_38/FusedBatchNormV3_model_1/model/batch_normalization_83/FusedBatchNormV3_model_1/model/depthwise_conv2d_38/depthwise_model_1/model/conv2d_46/Conv2D_model_1/model/conv2d_19/Conv2D:0" precision="FP16">
					<dim>1</dim>
					<dim>48</dim>
					<dim>12</dim>
					<dim>12</dim>
				</port>
			</output>
		</layer>
		<layer id="277" name="1482524852" type="Const" version="opset1">
			<data element_type="i64" offset="12" shape="4" size="32"/>
			<output>
				<port id="0" precision="I64">
					<dim>4</dim>
				</port>
			</output>
		</layer>
		<layer id="278" name="1483124786" type="Const" version="opset1">
			<data element_type="i64" offset="12" shape="4" size="32"/>
			<output>
				<port id="0" precision="I64">
					<dim>4</dim>
				</port>
			</output>
		</layer>
		<layer id="279" name="Constant_539" type="Const" version="opset1">
			<data element_type="f16" offset="44" shape="" size="2"/>
			<output>
				<port id="0" precision="FP16"/>
			</output>
		</layer>
		<layer id="280" name="model_1/model/zero_padding2d_20/Pad" type="Pad" version="opset1">
			<data pad_mode="constant"/>
			<input>
				<port id="0" precision="FP16">
					<dim>1</dim>
					<dim>48</dim>
					<dim>12</dim>
					<dim>12</dim>
				</port>
				<port id="1" precision="I64">
					<dim>4</dim>
				</port>
				<port id="2" precision="I64">
					<dim>4</dim>
				</port>
				<port id="3" precision="FP16"/>
			</input>
			<output>
				<port id="4" names="model_1/model/zero_padding2d_20/Pad:0" precision="FP16">
					<dim>1</dim>
					<dim>48</dim>
					<dim>14</dim>
					<dim>14</dim>
				</port>
			</output>
		</layer>
		<layer id="281" name="depthwise_19/filter_in" type="Const" version="opset1">
			<data element_type="f16" offset="155726" shape="48, 1, 1, 3, 3" size="864"/>
			<output>
				<port id="0" names="depthwise_19/filter_in:0" precision="FP16">
					<dim>48</dim>
					<dim>1</dim>
					<dim>1</dim>
					<dim>3</dim>
					<dim>3</dim>
				</port>
			</output>
		</layer>
		<layer id="282" name="depthwise_19" type="GroupConvolution" version="opset1">
			<data auto_pad="valid" dilations="1, 1" pads_begin="0, 0" pads_end="0, 0" strides="1, 1"/>
			<input>
				<port id="0" precision="FP16">
					<dim>1</dim>
					<dim>48</dim>
					<dim>14</dim>
					<dim>14</dim>
				</port>
				<port id="1" precision="FP16">
					<dim>48</dim>
					<dim>1</dim>
					<dim>1</dim>
					<dim>3</dim>
					<dim>3</dim>
				</port>
			</input>
			<output>
				<port id="2" names="depthwise_19:0" precision="FP16">
					<dim>1</dim>
					<dim>48</dim>
					<dim>12</dim>
					<dim>12</dim>
				</port>
			</output>
		</layer>
		<layer id="283" name="model_1/model/batch_normalization_39/FusedBatchNormV3_model_1/model/batch_normalization_83/FusedBatchNormV3_model_1/model/depthwise_conv2d_38/depthwise_model_1/model/conv2d_46/Conv2D_model_1/model/depthwise_conv2d_19/depthwise/y" type="Const" version="opset1">
			<data element_type="f16" offset="156590" shape="1, 48, 1, 1" size="96"/>
			<output>
				<port id="0" names="model_1/model/batch_normalization_39/FusedBatchNormV3_model_1/model/batch_normalization_83/FusedBatchNormV3_model_1/model/depthwise_conv2d_38/depthwise_model_1/model/conv2d_46/Conv2D_model_1/model/depthwise_conv2d_19/depthwise/y:0" precision="FP16">
					<dim>1</dim>
					<dim>48</dim>
					<dim>1</dim>
					<dim>1</dim>
				</port>
			</output>
		</layer>
		<layer id="284" name="model_1/model/batch_normalization_39/FusedBatchNormV3_model_1/model/batch_normalization_83/FusedBatchNormV3_model_1/model/depthwise_conv2d_38/depthwise_model_1/model/conv2d_46/Conv2D_model_1/model/depthwise_conv2d_19/depthwise" type="Add" version="opset1">
			<data auto_broadcast="numpy"/>
			<input>
				<port id="0" precision="FP16">
					<dim>1</dim>
					<dim>48</dim>
					<dim>12</dim>
					<dim>12</dim>
				</port>
				<port id="1" precision="FP16">
					<dim>1</dim>
					<dim>48</dim>
					<dim>1</dim>
					<dim>1</dim>
				</port>
			</input>
			<output>
				<port id="2" names="model_1/model/batch_normalization_39/FusedBatchNormV3_model_1/model/batch_normalization_83/FusedBatchNormV3_model_1/model/depthwise_conv2d_38/depthwise_model_1/model/conv2d_46/Conv2D_model_1/model/depthwise_conv2d_19/depthwise:0" precision="FP16">
					<dim>1</dim>
					<dim>48</dim>
					<dim>12</dim>
					<dim>12</dim>
				</port>
			</output>
		</layer>
		<layer id="285" name="Conv2D_22/filter" type="Const" version="opset1">
			<data element_type="f16" offset="156686" shape="192, 48, 1, 1" size="18432"/>
			<output>
				<port id="0" names="Conv2D_22/filter:0" precision="FP16">
					<dim>192</dim>
					<dim>48</dim>
					<dim>1</dim>
					<dim>1</dim>
				</port>
			</output>
		</layer>
		<layer id="286" name="Conv2D_22" type="Convolution" version="opset1">
			<data auto_pad="valid" dilations="1, 1" pads_begin="0, 0" pads_end="0, 0" strides="1, 1"/>
			<input>
				<port id="0" precision="FP16">
					<dim>1</dim>
					<dim>48</dim>
					<dim>12</dim>
					<dim>12</dim>
				</port>
				<port id="1" precision="FP16">
					<dim>192</dim>
					<dim>48</dim>
					<dim>1</dim>
					<dim>1</dim>
				</port>
			</input>
			<output>
				<port id="2" names="Conv2D_22:0" precision="FP16">
					<dim>1</dim>
					<dim>192</dim>
					<dim>12</dim>
					<dim>12</dim>
				</port>
			</output>
		</layer>
		<layer id="287" name="model_1/model/batch_normalization_40/FusedBatchNormV3_model_1/model/depthwise_conv2d_22/depthwise_model_1/model/conv2d_20/Conv2D1/y" type="Const" version="opset1">
			<data element_type="f16" offset="175118" shape="1, 192, 1, 1" size="384"/>
			<output>
				<port id="0" names="model_1/model/batch_normalization_40/FusedBatchNormV3_model_1/model/depthwise_conv2d_22/depthwise_model_1/model/conv2d_20/Conv2D1/y:0" precision="FP16">
					<dim>1</dim>
					<dim>192</dim>
					<dim>1</dim>
					<dim>1</dim>
				</port>
			</output>
		</layer>
		<layer id="288" name="model_1/model/batch_normalization_40/FusedBatchNormV3_model_1/model/depthwise_conv2d_22/depthwise_model_1/model/conv2d_20/Conv2D1" type="Add" version="opset1">
			<data auto_broadcast="numpy"/>
			<input>
				<port id="0" precision="FP16">
					<dim>1</dim>
					<dim>192</dim>
					<dim>12</dim>
					<dim>12</dim>
				</port>
				<port id="1" precision="FP16">
					<dim>1</dim>
					<dim>192</dim>
					<dim>1</dim>
					<dim>1</dim>
				</port>
			</input>
			<output>
				<port id="2" names="model_1/model/batch_normalization_40/FusedBatchNormV3_model_1/model/depthwise_conv2d_22/depthwise_model_1/model/conv2d_20/Conv2D1:0" precision="FP16">
					<dim>1</dim>
					<dim>192</dim>
					<dim>12</dim>
					<dim>12</dim>
				</port>
			</output>
		</layer>
		<layer id="289" name="Add_22" type="Add" version="opset1">
			<data auto_broadcast="numpy"/>
			<input>
				<port id="0" precision="FP16">
					<dim>1</dim>
					<dim>192</dim>
					<dim>12</dim>
					<dim>12</dim>
				</port>
				<port id="1" precision="FP16">
					<dim>1</dim>
					<dim>192</dim>
					<dim>12</dim>
					<dim>12</dim>
				</port>
			</input>
			<output>
				<port id="2" names="Add_22:0" precision="FP16">
					<dim>1</dim>
					<dim>192</dim>
					<dim>12</dim>
					<dim>12</dim>
				</port>
			</output>
		</layer>
		<layer id="290" name="model_1/model/activation_20/Relu_model_1/model/add_6/add" type="ReLU" version="opset1">
			<input>
				<port id="0" precision="FP16">
					<dim>1</dim>
					<dim>192</dim>
					<dim>12</dim>
					<dim>12</dim>
				</port>
			</input>
			<output>
				<port id="1" names="model_1/model/activation_20/Relu_model_1/model/add_6/add:0" precision="FP16">
					<dim>1</dim>
					<dim>192</dim>
					<dim>12</dim>
					<dim>12</dim>
				</port>
			</output>
		</layer>
		<layer id="291" name="1483725029" type="Const" version="opset1">
			<data element_type="i64" offset="12" shape="4" size="32"/>
			<output>
				<port id="0" precision="I64">
					<dim>4</dim>
				</port>
			</output>
		</layer>
		<layer id="292" name="1484324561" type="Const" version="opset1">
			<data element_type="i64" offset="12" shape="4" size="32"/>
			<output>
				<port id="0" precision="I64">
					<dim>4</dim>
				</port>
			</output>
		</layer>
		<layer id="293" name="Constant_566" type="Const" version="opset1">
			<data element_type="f16" offset="44" shape="" size="2"/>
			<output>
				<port id="0" precision="FP16"/>
			</output>
		</layer>
		<layer id="294" name="model_1/model/zero_padding2d_21/Pad" type="Pad" version="opset1">
			<data pad_mode="constant"/>
			<input>
				<port id="0" precision="FP16">
					<dim>1</dim>
					<dim>192</dim>
					<dim>12</dim>
					<dim>12</dim>
				</port>
				<port id="1" precision="I64">
					<dim>4</dim>
				</port>
				<port id="2" precision="I64">
					<dim>4</dim>
				</port>
				<port id="3" precision="FP16"/>
			</input>
			<output>
				<port id="4" names="model_1/model/zero_padding2d_21/Pad:0" precision="FP16">
					<dim>1</dim>
					<dim>192</dim>
					<dim>14</dim>
					<dim>14</dim>
				</port>
			</output>
		</layer>
		<layer id="295" name="depthwise_20/filter_in" type="Const" version="opset1">
			<data element_type="f16" offset="175502" shape="192, 1, 1, 3, 3" size="3456"/>
			<output>
				<port id="0" names="depthwise_20/filter_in:0" precision="FP16">
					<dim>192</dim>
					<dim>1</dim>
					<dim>1</dim>
					<dim>3</dim>
					<dim>3</dim>
				</port>
			</output>
		</layer>
		<layer id="296" name="depthwise_20" type="GroupConvolution" version="opset1">
			<data auto_pad="valid" dilations="1, 1" pads_begin="0, 0" pads_end="0, 0" strides="1, 1"/>
			<input>
				<port id="0" precision="FP16">
					<dim>1</dim>
					<dim>192</dim>
					<dim>14</dim>
					<dim>14</dim>
				</port>
				<port id="1" precision="FP16">
					<dim>192</dim>
					<dim>1</dim>
					<dim>1</dim>
					<dim>3</dim>
					<dim>3</dim>
				</port>
			</input>
			<output>
				<port id="2" names="depthwise_20:0" precision="FP16">
					<dim>1</dim>
					<dim>192</dim>
					<dim>12</dim>
					<dim>12</dim>
				</port>
			</output>
		</layer>
		<layer id="297" name="model_1/model/batch_normalization_41/FusedBatchNormV3_model_1/model/batch_normalization_45/FusedBatchNormV3_model_1/model/depthwise_conv2d_22/depthwise_model_1/model/depthwise_conv2d_20/depthwise/y" type="Const" version="opset1">
			<data element_type="f16" offset="178958" shape="1, 192, 1, 1" size="384"/>
			<output>
				<port id="0" names="model_1/model/batch_normalization_41/FusedBatchNormV3_model_1/model/batch_normalization_45/FusedBatchNormV3_model_1/model/depthwise_conv2d_22/depthwise_model_1/model/depthwise_conv2d_20/depthwise/y:0" precision="FP16">
					<dim>1</dim>
					<dim>192</dim>
					<dim>1</dim>
					<dim>1</dim>
				</port>
			</output>
		</layer>
		<layer id="298" name="model_1/model/batch_normalization_41/FusedBatchNormV3_model_1/model/batch_normalization_45/FusedBatchNormV3_model_1/model/depthwise_conv2d_22/depthwise_model_1/model/depthwise_conv2d_20/depthwise" type="Add" version="opset1">
			<data auto_broadcast="numpy"/>
			<input>
				<port id="0" precision="FP16">
					<dim>1</dim>
					<dim>192</dim>
					<dim>12</dim>
					<dim>12</dim>
				</port>
				<port id="1" precision="FP16">
					<dim>1</dim>
					<dim>192</dim>
					<dim>1</dim>
					<dim>1</dim>
				</port>
			</input>
			<output>
				<port id="2" names="model_1/model/batch_normalization_41/FusedBatchNormV3_model_1/model/batch_normalization_45/FusedBatchNormV3_model_1/model/depthwise_conv2d_22/depthwise_model_1/model/depthwise_conv2d_20/depthwise:0" precision="FP16">
					<dim>1</dim>
					<dim>192</dim>
					<dim>12</dim>
					<dim>12</dim>
				</port>
			</output>
		</layer>
		<layer id="299" name="Conv2D_23/filter" type="Const" version="opset1">
			<data element_type="f16" offset="179342" shape="48, 192, 1, 1" size="18432"/>
			<output>
				<port id="0" names="Conv2D_23/filter:0" precision="FP16">
					<dim>48</dim>
					<dim>192</dim>
					<dim>1</dim>
					<dim>1</dim>
				</port>
			</output>
		</layer>
		<layer id="300" name="Conv2D_23" type="Convolution" version="opset1">
…
		<layer id="655" name="model_1/model/d2sp_classifier_face_4/d2sp_classifier_face_4" type="DepthToSpace" version="opset1">
			<data block_size="2" mode="blocks_first"/>
			<input>
				<port id="0" precision="FP16">
					<dim>1</dim>
					<dim>4</dim>
					<dim>24</dim>
					<dim>24</dim>
				</port>
			</input>
			<output>
				<port id="1" precision="FP16">
					<dim>1</dim>
					<dim>1</dim>
					<dim>48</dim>
					<dim>48</dim>
				</port>
			</output>
		</layer>
		<layer id="656" name="model_1/model/d2sp_classifier_face_4/d2sp_classifier_face_4/Transpose/value1358824846" type="Const" version="opset1">
			<data element_type="i64" offset="1016318" shape="4" size="32"/>
			<output>
				<port id="0" precision="I64">
					<dim>4</dim>
				</port>
			</output>
		</layer>
		<layer id="657" name="model_1/model/d2sp_classifier_face_4/d2sp_classifier_face_4/Transpose" type="Transpose" version="opset1">
			<input>
				<port id="0" precision="FP16">
					<dim>1</dim>
					<dim>1</dim>
					<dim>48</dim>
					<dim>48</dim>
				</port>
				<port id="1" precision="I64">
					<dim>4</dim>
				</port>
			</input>
			<output>
				<port id="2" names="model_1/model/d2sp_classifier_face_4/d2sp_classifier_face_4:0" precision="FP16">
					<dim>1</dim>
					<dim>48</dim>
					<dim>48</dim>
					<dim>1</dim>
				</port>
			</output>
		</layer>
		<layer id="658" name="Identity_1/shape" type="Const" version="opset1">
			<data element_type="i64" offset="1016846" shape="3" size="24"/>
			<output>
				<port id="0" names="Identity_1/shape:0" precision="I64">
					<dim>3</dim>
				</port>
			</output>
		</layer>
		<layer id="659" name="Identity_1" type="Reshape" version="opset1">
			<data special_zero="false"/>
			<input>
				<port id="0" precision="FP16">
					<dim>1</dim>
					<dim>48</dim>
					<dim>48</dim>
					<dim>1</dim>
				</port>
				<port id="1" precision="I64">
					<dim>3</dim>
				</port>
			</input>
			<output>
				<port id="2" names="Identity_1:0" precision="FP16">
					<dim>1</dim>
					<dim>2304</dim>
					<dim>1</dim>
				</port>
			</output>
		</layer>
		<layer id="660" name="Identity_1:0" type="Result" version="opset1">
			<input>
				<port id="0" precision="FP16">
					<dim>1</dim>
					<dim>2304</dim>
					<dim>1</dim>
				</port>
			</input>
		</layer>
	</layers>
	<edges>
		<edge from-layer="0" from-port="0" to-layer="2" to-port="0"/>
		<edge from-layer="1" from-port="0" to-layer="2" to-port="1"/>
		<edge from-layer="2" from-port="2" to-layer="4" to-port="0"/>
		<edge from-layer="3" from-port="0" to-layer="4" to-port="1"/>
		<edge from-layer="4" from-port="2" to-layer="8" to-port="0"/>
		<edge from-layer="5" from-port="0" to-layer="8" to-port="1"/>
		<edge from-layer="6" from-port="0" to-layer="8" to-port="2"/>
		<edge from-layer="7" from-port="0" to-layer="8" to-port="3"/>
		<edge from-layer="8" from-port="4" to-layer="10" to-port="0"/>
		<edge from-layer="9" from-port="0" to-layer="10" to-port="1"/>
		<edge from-layer="10" from-port="2" to-layer="12" to-port="0"/>
		<edge from-layer="11" from-port="0" to-layer="12" to-port="1"/>
		<edge from-layer="12" from-port="2" to-layer="13" to-port="0"/>
		<edge from-layer="13" from-port="1" to-layer="39" to-port="0"/>
		<edge from-layer="13" from-port="1" to-layer="17" to-port="0"/>
		<edge from-layer="14" from-port="0" to-layer="17" to-port="1"/>
		<edge from-layer="15" from-port="0" to-layer="17" to-port="2"/>
		<edge from-layer="16" from-port="0" to-layer="17" to-port="3"/>
		<edge from-layer="17" from-port="4" to-layer="19" to-port="0"/>
		<edge from-layer="18" from-port="0" to-layer="19" to-port="1"/>
		<edge from-layer="19" from-port="2" to-layer="21" to-port="0"/>
		<edge from-layer="20" from-port="0" to-layer="21" to-port="1"/>
		<edge from-layer="21" from-port="2" to-layer="23" to-port="0"/>
		<edge from-layer="22" from-port="0" to-layer="23" to-port="1"/>
		<edge from-layer="23" from-port="2" to-layer="25" to-port="0"/>
		<edge from-layer="24" from-port="0" to-layer="25" to-port="1"/>
		<edge from-layer="25" from-port="2" to-layer="26" to-port="0"/>
		<edge from-layer="26" from-port="1" to-layer="30" to-port="0"/>
		<edge from-layer="27" from-port="0" to-layer="30" to-port="1"/>
		<edge from-layer="28" from-port="0" to-layer="30" to-port="2"/>
		<edge from-layer="29" from-port="0" to-layer="30" to-port="3"/>
		<edge from-layer="30" from-port="4" to-layer="32" to-port="0"/>
		<edge from-layer="31" from-port="0" to-layer="32" to-port="1"/>
		<edge from-layer="32" from-port="2" to-layer="34" to-port="0"/>
		<edge from-layer="33" from-port="0" to-layer="34" to-port="1"/>
		<edge from-layer="34" from-port="2" to-layer="36" to-port="0"/>
		<edge from-layer="35" from-port="0" to-layer="36" to-port="1"/>
		<edge from-layer="36" from-port="2" to-layer="38" to-port="0"/>
		<edge from-layer="37" from-port="0" to-layer="38" to-port="1"/>
		<edge from-layer="38" from-port="2" to-layer="39" to-port="1"/>
		<edge from-layer="39" from-port="2" to-layer="40" to-port="0"/>
		<edge from-layer="40" from-port="1" to-layer="44" to-port="0"/>
		<edge from-layer="40" from-port="1" to-layer="66" to-port="0"/>
		<edge from-layer="41" from-port="0" to-layer="44" to-port="1"/>
		<edge from-layer="42" from-port="0" to-layer="44" to-port="2"/>
		<edge from-layer="43" from-port="0" to-layer="44" to-port="3"/>
		<edge from-layer="44" from-port="4" to-layer="46" to-port="0"/>
		<edge from-layer="45" from-port="0" to-layer="46" to-port="1"/>
		<edge from-layer="46" from-port="2" to-layer="48" to-port="0"/>
		<edge from-layer="47" from-port="0" to-layer="48" to-port="1"/>
		<edge from-layer="48" from-port="2" to-layer="50" to-port="0"/>
		<edge from-layer="49" from-port="0" to-layer="50" to-port="1"/>
		<edge from-layer="50" from-port="2" to-layer="52" to-port="0"/>
		<edge from-layer="51" from-port="0" to-layer="52" to-port="1"/>
		<edge from-layer="52" from-port="2" to-layer="53" to-port="0"/>
		<edge from-layer="53" from-port="1" to-layer="57" to-port="0"/>
		<edge from-layer="54" from-port="0" to-layer="57" to-port="1"/>
		<edge from-layer="55" from-port="0" to-layer="57" to-port="2"/>
		<edge from-layer="56" from-port="0" to-layer="57" to-port="3"/>
		<edge from-layer="57" from-port="4" to-layer="59" to-port="0"/>
		<edge from-layer="58" from-port="0" to-layer="59" to-port="1"/>
		<edge from-layer="59" from-port="2" to-layer="61" to-port="0"/>
		<edge from-layer="60" from-port="0" to-layer="61" to-port="1"/>
		<edge from-layer="61" from-port="2" to-layer="63" to-port="0"/>
		<edge from-layer="62" from-port="0" to-layer="63" to-port="1"/>
		<edge from-layer="63" from-port="2" to-layer="65" to-port="0"/>
		<edge from-layer="64" from-port="0" to-layer="65" to-port="1"/>
		<edge from-layer="65" from-port="2" to-layer="66" to-port="1"/>
		<edge from-layer="66" from-port="2" to-layer="67" to-port="0"/>
		<edge from-layer="67" from-port="1" to-layer="71" to-port="0"/>
		<edge from-layer="68" from-port="0" to-layer="71" to-port="1"/>
		<edge from-layer="69" from-port="0" to-layer="71" to-port="2"/>
		<edge from-layer="70" from-port="0" to-layer="71" to-port="3"/>
		<edge from-layer="71" from-port="4" to-layer="73" to-port="0"/>
		<edge from-layer="72" from-port="0" to-layer="73" to-port="1"/>
		<edge from-layer="73" from-port="2" to-layer="75" to-port="0"/>
		<edge from-layer="74" from-port="0" to-layer="75" to-port="1"/>
		<edge from-layer="75" from-port="2" to-layer="77" to-port="0"/>
		<edge from-layer="76" from-port="0" to-layer="77" to-port="1"/>
		<edge from-layer="77" from-port="2" to-layer="79" to-port="0"/>
		<edge from-layer="78" from-port="0" to-layer="79" to-port="1"/>
		<edge from-layer="79" from-port="2" to-layer="80" to-port="0"/>
		<edge from-layer="80" from-port="1" to-layer="84" to-port="0"/>
		<edge from-layer="81" from-port="0" to-layer="84" to-port="1"/>
		<edge from-layer="82" from-port="0" to-layer="84" to-port="2"/>
		<edge from-layer="83" from-port="0" to-layer="84" to-port="3"/>
		<edge from-layer="84" from-port="4" to-layer="86" to-port="0"/>
		<edge from-layer="85" from-port="0" to-layer="86" to-port="1"/>
		<edge from-layer="86" from-port="2" to-layer="88" to-port="0"/>
		<edge from-layer="87" from-port="0" to-layer="88" to-port="1"/>
		<edge from-layer="88" from-port="2" to-layer="90" to-port="0"/>
		<edge from-layer="89" from-port="0" to-layer="90" to-port="1"/>
		<edge from-layer="90" from-port="2" to-layer="92" to-port="0"/>
		<edge from-layer="91" from-port="0" to-layer="92" to-port="1"/>
		<edge from-layer="92" from-port="2" to-layer="93" to-port="0"/>
		<edge from-layer="93" from-port="1" to-layer="119" to-port="0"/>
		<edge from-layer="93" from-port="1" to-layer="97" to-port="0"/>
		<edge from-layer="94" from-port="0" to-layer="97" to-port="1"/>
		<edge from-layer="95" from-port="0" to-layer="97" to-port="2"/>
		<edge from-layer="96" from-port="0" to-layer="97" to-port="3"/>
		<edge from-layer="97" from-port="4" to-layer="99" to-port="0"/>
		<edge from-layer="98" from-port="0" to-layer="99" to-port="1"/>
		<edge from-layer="99" from-port="2" to-layer="101" to-port="0"/>
		<edge from-layer="100" from-port="0" to-layer="101" to-port="1"/>
		<edge from-layer="101" from-port="2" to-layer="103" to-port="0"/>
		<edge from-layer="102" from-port="0" to-layer="103" to-port="1"/>
		<edge from-layer="103" from-port="2" to-layer="105" to-port="0"/>
		<edge from-layer="104" from-port="0" to-layer="105" to-port="1"/>
		<edge from-layer="105" from-port="2" to-layer="106" to-port="0"/>
		<edge from-layer="106" from-port="1" to-layer="110" to-port="0"/>
		<edge from-layer="107" from-port="0" to-layer="110" to-port="1"/>
		<edge from-layer="108" from-port="0" to-layer="110" to-port="2"/>
		<edge from-layer="109" from-port="0" to-layer="110" to-port="3"/>
		<edge from-layer="110" from-port="4" to-layer="112" to-port="0"/>
		<edge from-layer="111" from-port="0" to-layer="112" to-port="1"/>
		<edge from-layer="112" from-port="2" to-layer="114" to-port="0"/>
		<edge from-layer="113" from-port="0" to-layer="114" to-port="1"/>
		<edge from-layer="114" from-port="2" to-layer="116" to-port="0"/>
		<edge from-layer="115" from-port="0" to-layer="116" to-port="1"/>
		<edge from-layer="116" from-port="2" to-layer="118" to-port="0"/>
		<edge from-layer="117" from-port="0" to-layer="118" to-port="1"/>
		<edge from-layer="118" from-port="2" to-layer="119" to-port="1"/>
		<edge from-layer="119" from-port="2" to-layer="120" to-port="0"/>
		<edge from-layer="120" from-port="1" to-layer="146" to-port="0"/>
		<edge from-layer="120" from-port="1" to-layer="124" to-port="0"/>
		<edge from-layer="121" from-port="0" to-layer="124" to-port="1"/>
		<edge from-layer="122" from-port="0" to-layer="124" to-port="2"/>
		<edge from-layer="123" from-port="0" to-layer="124" to-port="3"/>
		<edge from-layer="124" from-port="4" to-layer="126" to-port="0"/>
		<edge from-layer="125" from-port="0" to-layer="126" to-port="1"/>
		<edge from-layer="126" from-port="2" to-layer="128" to-port="0"/>
		<edge from-layer="127" from-port="0" to-layer="128" to-port="1"/>
		<edge from-layer="128" from-port="2" to-layer="130" to-port="0"/>
		<edge from-layer="129" from-port="0" to-layer="130" to-port="1"/>
		<edge from-layer="130" from-port="2" to-layer="132" to-port="0"/>
		<edge from-layer="131" from-port="0" to-layer="132" to-port="1"/>
		<edge from-layer="132" from-port="2" to-layer="133" to-port="0"/>
		<edge from-layer="133" from-port="1" to-layer="137" to-port="0"/>
		<edge from-layer="134" from-port="0" to-layer="137" to-port="1"/>
		<edge from-layer="135" from-port="0" to-layer="137" to-port="2"/>
		<edge from-layer="136" from-port="0" to-layer="137" to-port="3"/>
		<edge from-layer="137" from-port="4" to-layer="139" to-port="0"/>
		<edge from-layer="138" from-port="0" to-layer="139" to-port="1"/>
		<edge from-layer="139" from-port="2" to-layer="141" to-port="0"/>
		<edge from-layer="140" from-port="0" to-layer="141" to-port="1"/>
		<edge from-layer="141" from-port="2" to-layer="143" to-port="0"/>
		<edge from-layer="142" from-port="0" to-layer="143" to-port="1"/>
		<edge from-layer="143" from-port="2" to-layer="145" to-port="0"/>
		<edge from-layer="144" from-port="0" to-layer="145" to-port="1"/>
		<edge from-layer="145" from-port="2" to-layer="146" to-port="1"/>
		<edge from-layer="146" from-port="2" to-layer="147" to-port="0"/>
		<edge from-layer="147" from-port="1" to-layer="149" to-port="0"/>
		<edge from-layer="147" from-port="1" to-layer="156" to-port="0"/>
		<edge from-layer="148" from-port="0" to-layer="149" to-port="1"/>
		<edge from-layer="149" from-port="2" to-layer="151" to-port="0"/>
		<edge from-layer="150" from-port="0" to-layer="151" to-port="1"/>
		<edge from-layer="151" from-port="2" to-layer="152" to-port="0"/>
		<edge from-layer="152" from-port="1" to-layer="597" to-port="0"/>
		<edge from-layer="153" from-port="0" to-layer="156" to-port="1"/>
		<edge from-layer="154" from-port="0" to-layer="156" to-port="2"/>
		<edge from-layer="155" from-port="0" to-layer="156" to-port="3"/>
		<edge from-layer="156" from-port="4" to-layer="158" to-port="0"/>
		<edge from-layer="157" from-port="0" to-layer="158" to-port="1"/>
		<edge from-layer="158" from-port="2" to-layer="160" to-port="0"/>
		<edge from-layer="159" from-port="0" to-layer="160" to-port="1"/>
		<edge from-layer="160" from-port="2" to-layer="162" to-port="0"/>
		<edge from-layer="161" from-port="0" to-layer="162" to-port="1"/>
		<edge from-layer="162" from-port="2" to-layer="164" to-port="0"/>
		<edge from-layer="163" from-port="0" to-layer="164" to-port="1"/>
		<edge from-layer="164" from-port="2" to-layer="165" to-port="0"/>
		<edge from-layer="165" from-port="1" to-layer="169" to-port="0"/>
		<edge from-layer="166" from-port="0" to-layer="169" to-port="1"/>
		<edge from-layer="167" from-port="0" to-layer="169" to-port="2"/>
		<edge from-layer="168" from-port="0" to-layer="169" to-port="3"/>
		<edge from-layer="169" from-port="4" to-layer="171" to-port="0"/>
		<edge from-layer="170" from-port="0" to-layer="171" to-port="1"/>
		<edge from-layer="171" from-port="2" to-layer="173" to-port="0"/>
		<edge from-layer="172" from-port="0" to-layer="173" to-port="1"/>
		<edge from-layer="173" from-port="2" to-layer="175" to-port="0"/>
		<edge from-layer="174" from-port="0" to-layer="175" to-port="1"/>
		<edge from-layer="175" from-port="2" to-layer="177" to-port="0"/>
		<edge from-layer="176" from-port="0" to-layer="177" to-port="1"/>
		<edge from-layer="177" from-port="2" to-layer="178" to-port="0"/>
		<edge from-layer="178" from-port="1" to-layer="204" to-port="0"/>
		<edge from-layer="178" from-port="1" to-layer="182" to-port="0"/>
		<edge from-layer="179" from-port="0" to-layer="182" to-port="1"/>
		<edge from-layer="180" from-port="0" to-layer="182" to-port="2"/>
		<edge from-layer="181" from-port="0" to-layer="182" to-port="3"/>
		<edge from-layer="182" from-port="4" to-layer="184" to-port="0"/>
		<edge from-layer="183" from-port="0" to-layer="184" to-port="1"/>
		<edge from-layer="184" from-port="2" to-layer="186" to-port="0"/>
		<edge from-layer="185" from-port="0" to-layer="186" to-port="1"/>
		<edge from-layer="186" from-port="2" to-layer="188" to-port="0"/>
		<edge from-layer="187" from-port="0" to-layer="188" to-port="1"/>
		<edge from-layer="188" from-port="2" to-layer="190" to-port="0"/>
		<edge from-layer="189" from-port="0" to-layer="190" to-port="1"/>
		<edge from-layer="190" from-port="2" to-layer="191" to-port="0"/>
		<edge from-layer="191" from-port="1" to-layer="195" to-port="0"/>
		<edge from-layer="192" from-port="0" to-layer="195" to-port="1"/>
		<edge from-layer="193" from-port="0" to-layer="195" to-port="2"/>
		<edge from-layer="194" from-port="0" to-layer="195" to-port="3"/>
		<edge from-layer="195" from-port="4" to-layer="197" to-port="0"/>
		<edge from-layer="196" from-port="0" to-layer="197" to-port="1"/>
		<edge from-layer="197" from-port="2" to-layer="199" to-port="0"/>
		<edge from-layer="198" from-port="0" to-layer="199" to-port="1"/>
		<edge from-layer="199" from-port="2" to-layer="201" to-port="0"/>
		<edge from-layer="200" from-port="0" to-layer="201" to-port="1"/>
		<edge from-layer="201" from-port="2" to-layer="203" to-port="0"/>
		<edge from-layer="202" from-port="0" to-layer="203" to-port="1"/>
		<edge from-layer="203" from-port="2" to-layer="204" to-port="1"/>
		<edge from-layer="204" from-port="2" to-layer="205" to-port="0"/>
		<edge from-layer="205" from-port="1" to-layer="231" to-port="0"/>
		<edge from-layer="205" from-port="1" to-layer="209" to-port="0"/>
		<edge from-layer="206" from-port="0" to-layer="209" to-port="1"/>
		<edge from-layer="207" from-port="0" to-layer="209" to-port="2"/>
		<edge from-layer="208" from-port="0" to-layer="209" to-port="3"/>
		<edge from-layer="209" from-port="4" to-layer="211" to-port="0"/>
		<edge from-layer="210" from-port="0" to-layer="211" to-port="1"/>
		<edge from-layer="211" from-port="2" to-layer="213" to-port="0"/>
		<edge from-layer="212" from-port="0" to-layer="213" to-port="1"/>
		<edge from-layer="213" from-port="2" to-layer="215" to-port="0"/>
		<edge from-layer="214" from-port="0" to-layer="215" to-port="1"/>
		<edge from-layer="215" from-port="2" to-layer="217" to-port="0"/>
		<edge from-layer="216" from-port="0" to-layer="217" to-port="1"/>
		<edge from-layer="217" from-port="2" to-layer="218" to-port="0"/>
		<edge from-layer="218" from-port="1" to-layer="222" to-port="0"/>
		<edge from-layer="219" from-port="0" to-layer="222" to-port="1"/>
		<edge from-layer="220" from-port="0" to-layer="222" to-port="2"/>
		<edge from-layer="221" from-port="0" to-layer="222" to-port="3"/>
		<edge from-layer="222" from-port="4" to-layer="224" to-port="0"/>
		<edge from-layer="223" from-port="0" to-layer="224" to-port="1"/>
		<edge from-layer="224" from-port="2" to-layer="226" to-port="0"/>
		<edge from-layer="225" from-port="0" to-layer="226" to-port="1"/>
		<edge from-layer="226" from-port="2" to-layer="228" to-port="0"/>
		<edge from-layer="227" from-port="0" to-layer="228" to-port="1"/>
		<edge from-layer="228" from-port="2" to-layer="230" to-port="0"/>
		<edge from-layer="229" from-port="0" to-layer="230" to-port="1"/>
		<edge from-layer="230" from-port="2" to-layer="231" to-port="1"/>
		<edge from-layer="231" from-port="2" to-layer="232" to-port="0"/>
		<edge from-layer="232" from-port="1" to-layer="234" to-port="0"/>
		<edge from-layer="232" from-port="1" to-layer="241" to-port="0"/>
		<edge from-layer="233" from-port="0" to-layer="234" to-port="1"/>
		<edge from-layer="234" from-port="2" to-layer="236" to-port="0"/>
		<edge from-layer="235" from-port="0" to-layer="236" to-port="1"/>
		<edge from-layer="236" from-port="2" to-layer="237" to-port="0"/>
		<edge from-layer="237" from-port="1" to-layer="523" to-port="0"/>
		<edge from-layer="238" from-port="0" to-layer="241" to-port="1"/>
		<edge from-layer="239" from-port="0" to-layer="241" to-port="2"/>
		<edge from-layer="240" from-port="0" to-layer="241" to-port="3"/>
		<edge from-layer="241" from-port="4" to-layer="243" to-port="0"/>
		<edge from-layer="242" from-port="0" to-layer="243" to-port="1"/>
		<edge from-layer="243" from-port="2" to-layer="245" to-port="0"/>
		<edge from-layer="244" from-port="0" to-layer="245" to-port="1"/>
		<edge from-layer="245" from-port="2" to-layer="247" to-port="0"/>
		<edge from-layer="246" from-port="0" to-layer="247" to-port="1"/>
		<edge from-layer="247" from-port="2" to-layer="249" to-port="0"/>
		<edge from-layer="248" from-port="0" to-layer="249" to-port="1"/>
		<edge from-layer="249" from-port="2" to-layer="250" to-port="0"/>
		<edge from-layer="250" from-port="1" to-layer="254" to-port="0"/>
		<edge from-layer="251" from-port="0" to-layer="254" to-port="1"/>
		<edge from-layer="252" from-port="0" to-layer="254" to-port="2"/>
		<edge from-layer="253" from-port="0" to-layer="254" to-port="3"/>
		<edge from-layer="254" from-port="4" to-layer="256" to-port="0"/>
		<edge from-layer="255" from-port="0" to-layer="256" to-port="1"/>
		<edge from-layer="256" from-port="2" to-layer="258" to-port="0"/>
		<edge from-layer="257" from-port="0" to-layer="258" to-port="1"/>
		<edge from-layer="258" from-port="2" to-layer="260" to-port="0"/>
		<edge from-layer="259" from-port="0" to-layer="260" to-port="1"/>
		<edge from-layer="260" from-port="2" to-layer="262" to-port="0"/>
		<edge from-layer="261" from-port="0" to-layer="262" to-port="1"/>
		<edge from-layer="262" from-port="2" to-layer="263" to-port="0"/>
		<edge from-layer="263" from-port="1" to-layer="289" to-port="0"/>
		<edge from-layer="263" from-port="1" to-layer="267" to-port="0"/>
		<edge from-layer="264" from-port="0" to-layer="267" to-port="1"/>
		<edge from-layer="265" from-port="0" to-layer="267" to-port="2"/>
		<edge from-layer="266" from-port="0" to-layer="267" to-port="3"/>
		<edge from-layer="267" from-port="4" to-layer="269" to-port="0"/>
		<edge from-layer="268" from-port="0" to-layer="269" to-port="1"/>
		<edge from-layer="269" from-port="2" to-layer="271" to-port="0"/>
		<edge from-layer="270" from-port="0" to-layer="271" to-port="1"/>
		<edge from-layer="271" from-port="2" to-layer="273" to-port="0"/>
		<edge from-layer="272" from-port="0" to-layer="273" to-port="1"/>
		<edge from-layer="273" from-port="2" to-layer="275" to-port="0"/>
		<edge from-layer="274" from-port="0" to-layer="275" to-port="1"/>
		<edge from-layer="275" from-port="2" to-layer="276" to-port="0"/>
		<edge from-layer="276" from-port="1" to-layer="280" to-port="0"/>
		<edge from-layer="277" from-port="0" to-layer="280" to-port="1"/>
		<edge from-layer="278" from-port="0" to-layer="280" to-port="2"/>
		<edge from-layer="279" from-port="0" to-layer="280" to-port="3"/>
		<edge from-layer="280" from-port="4" to-layer="282" to-port="0"/>
		<edge from-layer="281" from-port="0" to-layer="282" to-port="1"/>
		<edge from-layer="282" from-port="2" to-layer="284" to-port="0"/>
		<edge from-layer="283" from-port="0" to-layer="284" to-port="1"/>
		<edge from-layer="284" from-port="2" to-layer="286" to-port="0"/>
		<edge from-layer="285" from-port="0" to-layer="286" to-port="1"/>
		<edge from-layer="286" from-port="2" to-layer="288" to-port="0"/>
		<edge from-layer="287" from-port="0" to-layer="288" to-port="1"/>
		<edge from-layer="288" from-port="2" to-layer="289" to-port="1"/>
		<edge from-layer="289" from-port="2" to-layer="290" to-port="0"/>
		<edge from-layer="290" from-port="1" to-layer="316" to-port="0"/>
		<edge from-layer="290" from-port="1" to-layer="294" to-port="0"/>
		<edge from-layer="291" from-port="0" to-layer="294" to-port="1"/>
		<edge from-layer="292" from-port="0" to-layer="294" to-port="2"/>
		<edge from-layer="293" from-port="0" to-layer="294" to-port="3"/>
		<edge from-layer="294" from-port="4" to-layer="296" to-port="0"/>
		<edge from-layer="295" from-port="0" to-layer="296" to-port="1"/>
		<edge from-layer="296" from-port="2" to-layer="298" to-port="0"/>
		<edge from-layer="297" from-port="0" to-layer="298" to-port="1"/>
		<edge from-layer="298" from-port="2" to-layer="300" to-port="0"/>
		<edge from-layer="299" from-port="0" to-layer="300" to-port="1"/>
		<edge from-layer="300" from-port="2" to-layer="302" to-port="0"/>
		<edge from-layer="301" from-port="0" to-layer="302" to-port="1"/>
		<edge from-layer="302" from-port="2" to-layer="303" to-port="0"/>
		<edge from-layer="303" from-port="1" to-layer="307" to-port="0"/>
		<edge from-layer="304" from-port="0" to-layer="307" to-port="1"/>
		<edge from-layer="305" from-port="0" to-layer="307" to-port="2"/>
		<edge from-layer="306" from-port="0" to-layer="307" to-port="3"/>
		<edge from-layer="307" from-port="4" to-layer="309" to-port="0"/>
		<edge from-layer="308" from-port="0" to-layer="309" to-port="1"/>
		<edge from-layer="309" from-port="2" to-layer="311" to-port="0"/>
		<edge from-layer="310" from-port="0" to-layer="311" to-port="1"/>
		<edge from-layer="311" from-port="2" to-layer="313" to-port="0"/>
		<edge from-layer="312" from-port="0" to-layer="313" to-port="1"/>
		<edge from-layer="313" from-port="2" to-layer="315" to-port="0"/>
		<edge from-layer="314" from-port="0" to-layer="315" to-port="1"/>
		<edge from-layer="315" from-port="2" to-layer="316" to-port="1"/>
		<edge from-layer="316" from-port="2" to-layer="317" to-port="0"/>
		<edge from-layer="317" from-port="1" to-layer="319" to-port="0"/>
		<edge from-layer="317" from-port="1" to-layer="326" to-port="0"/>
		<edge from-layer="318" from-port="0" to-layer="319" to-port="1"/>
		<edge from-layer="319" from-port="2" to-layer="321" to-port="0"/>
		<edge from-layer="320" from-port="0" to-layer="321" to-port="1"/>
		<edge from-layer="321" from-port="2" to-layer="322" to-port="0"/>
		<edge from-layer="322" from-port="1" to-layer="449" to-port="0"/>
		<edge from-layer="323" from-port="0" to-layer="326" to-port="1"/>
		<edge from-layer="324" from-port="0" to-layer="326" to-port="2"/>
		<edge from-layer="325" from-port="0" to-layer="326" to-port="3"/>
		<edge from-layer="326" from-port="4" to-layer="328" to-port="0"/>
		<edge from-layer="327" from-port="0" to-layer="328" to-port="1"/>
		<edge from-layer="328" from-port="2" to-layer="330" to-port="0"/>
		<edge from-layer="329" from-port="0" to-layer="330" to-port="1"/>
		<edge from-layer="330" from-port="2" to-layer="332" to-port="0"/>
		<edge from-layer="331" from-port="0" to-layer="332" to-port="1"/>
		<edge from-layer="332" from-port="2" to-layer="334" to-port="0"/>
		<edge from-layer="333" from-port="0" to-layer="334" to-port="1"/>
		<edge from-layer="334" from-port="2" to-layer="335" to-port="0"/>
		<edge from-layer="335" from-port="1" to-layer="339" to-port="0"/>
		<edge from-layer="336" from-port="0" to-layer="339" to-port="1"/>
		<edge from-layer="337" from-port="0" to-layer="339" to-port="2"/>
		<edge from-layer="338" from-port="0" to-layer="339" to-port="3"/>
		<edge from-layer="339" from-port="4" to-layer="341" to-port="0"/>
		<edge from-layer="340" from-port="0" to-layer="341" to-port="1"/>
		<edge from-layer="341" from-port="2" to-layer="343" to-port="0"/>
		<edge from-layer="342" from-port="0" to-layer="343" to-port="1"/>
		<edge from-layer="343" from-port="2" to-layer="345" to-port="0"/>
		<edge from-layer="344" from-port="0" to-layer="345" to-port="1"/>
		<edge from-layer="345" from-port="2" to-layer="347" to-port="0"/>
		<edge from-layer="346" from-port="0" to-layer="347" to-port="1"/>
		<edge from-layer="347" from-port="2" to-layer="348" to-port="0"/>
		<edge from-layer="348" from-port="1" to-layer="374" to-port="0"/>
		<edge from-layer="348" from-port="1" to-layer="352" to-port="0"/>
		<edge from-layer="349" from-port="0" to-layer="352" to-port="1"/>
		<edge from-layer="350" from-port="0" to-layer="352" to-port="2"/>
		<edge from-layer="351" from-port="0" to-layer="352" to-port="3"/>
		<edge from-layer="352" from-port="4" to-layer="354" to-port="0"/>
		<edge from-layer="353" from-port="0" to-layer="354" to-port="1"/>
		<edge from-layer="354" from-port="2" to-layer="356" to-port="0"/>
		<edge from-layer="355" from-port="0" to-layer="356" to-port="1"/>
		<edge from-layer="356" from-port="2" to-layer="358" to-port="0"/>
		<edge from-layer="357" from-port="0" to-layer="358" to-port="1"/>
		<edge from-layer="358" from-port="2" to-layer="360" to-port="0"/>
		<edge from-layer="359" from-port="0" to-layer="360" to-port="1"/>
		<edge from-layer="360" from-port="2" to-layer="361" to-port="0"/>
		<edge from-layer="361" from-port="1" to-layer="365" to-port="0"/>
		<edge from-layer="362" from-port="0" to-layer="365" to-port="1"/>
		<edge from-layer="363" from-port="0" to-layer="365" to-port="2"/>
		<edge from-layer="364" from-port="0" to-layer="365" to-port="3"/>
		<edge from-layer="365" from-port="4" to-layer="367" to-port="0"/>
		<edge from-layer="366" from-port="0" to-layer="367" to-port="1"/>
		<edge from-layer="367" from-port="2" to-layer="369" to-port="0"/>
		<edge from-layer="368" from-port="0" to-layer="369" to-port="1"/>
		<edge from-layer="369" from-port="2" to-layer="371" to-port="0"/>
		<edge from-layer="370" from-port="0" to-layer="371" to-port="1"/>
		<edge from-layer="371" from-port="2" to-layer="373" to-port="0"/>
		<edge from-layer="372" from-port="0" to-layer="373" to-port="1"/>
		<edge from-layer="373" from-port="2" to-layer="374" to-port="1"/>
		<edge from-layer="374" from-port="2" to-layer="375" to-port="0"/>
		<edge from-layer="375" from-port="1" to-layer="401" to-port="0"/>
		<edge from-layer="375" from-port="1" to-layer="379" to-port="0"/>
		<edge from-layer="376" from-port="0" to-layer="379" to-port="1"/>
		<edge from-layer="377" from-port="0" to-layer="379" to-port="2"/>
		<edge from-layer="378" from-port="0" to-layer="379" to-port="3"/>
		<edge from-layer="379" from-port="4" to-layer="381" to-port="0"/>
		<edge from-layer="380" from-port="0" to-layer="381" to-port="1"/>
		<edge from-layer="381" from-port="2" to-layer="383" to-port="0"/>
		<edge from-layer="382" from-port="0" to-layer="383" to-port="1"/>
		<edge from-layer="383" from-port="2" to-layer="385" to-port="0"/>
		<edge from-layer="384" from-port="0" to-layer="385" to-port="1"/>
		<edge from-layer="385" from-port="2" to-layer="387" to-port="0"/>
		<edge from-layer="386" from-port="0" to-layer="387" to-port="1"/>
		<edge from-layer="387" from-port="2" to-layer="388" to-port="0"/>
		<edge from-layer="388" from-port="1" to-layer="392" to-port="0"/>
		<edge from-layer="389" from-port="0" to-layer="392" to-port="1"/>
		<edge from-layer="390" from-port="0" to-layer="392" to-port="2"/>
		<edge from-layer="391" from-port="0" to-layer="392" to-port="3"/>
		<edge from-layer="392" from-port="4" to-layer="394" to-port="0"/>
		<edge from-layer="393" from-port="0" to-layer="394" to-port="1"/>
		<edge from-layer="394" from-port="2" to-layer="396" to-port="0"/>
		<edge from-layer="395" from-port="0" to-layer="396" to-port="1"/>
		<edge from-layer="396" from-port="2" to-layer="398" to-port="0"/>
		<edge from-layer="397" from-port="0" to-layer="398" to-port="1"/>
		<edge from-layer="398" from-port="2" to-layer="400" to-port="0"/>
		<edge from-layer="399" from-port="0" to-layer="400" to-port="1"/>
		<edge from-layer="400" from-port="2" to-layer="401" to-port="1"/>
		<edge from-layer="401" from-port="2" to-layer="402" to-port="0"/>
		<edge from-layer="402" from-port="1" to-layer="428" to-port="0"/>
		<edge from-layer="402" from-port="1" to-layer="406" to-port="0"/>
		<edge from-layer="403" from-port="0" to-layer="406" to-port="1"/>
		<edge from-layer="404" from-port="0" to-layer="406" to-port="2"/>
		<edge from-layer="405" from-port="0" to-layer="406" to-port="3"/>
		<edge from-layer="406" from-port="4" to-layer="408" to-port="0"/>
		<edge from-layer="407" from-port="0" to-layer="408" to-port="1"/>
		<edge from-layer="408" from-port="2" to-layer="410" to-port="0"/>
		<edge from-layer="409" from-port="0" to-layer="410" to-port="1"/>
		<edge from-layer="410" from-port="2" to-layer="412" to-port="0"/>
		<edge from-layer="411" from-port="0" to-layer="412" to-port="1"/>
		<edge from-layer="412" from-port="2" to-layer="414" to-port="0"/>
		<edge from-layer="413" from-port="0" to-layer="414" to-port="1"/>
		<edge from-layer="414" from-port="2" to-layer="415" to-port="0"/>
		<edge from-layer="415" from-port="1" to-layer="419" to-port="0"/>
		<edge from-layer="416" from-port="0" to-layer="419" to-port="1"/>
		<edge from-layer="417" from-port="0" to-layer="419" to-port="2"/>
		<edge from-layer="418" from-port="0" to-layer="419" to-port="3"/>
		<edge from-layer="419" from-port="4" to-layer="421" to-port="0"/>
		<edge from-layer="420" from-port="0" to-layer="421" to-port="1"/>
		<edge from-layer="421" from-port="2" to-layer="423" to-port="0"/>
		<edge from-layer="422" from-port="0" to-layer="423" to-port="1"/>
		<edge from-layer="423" from-port="2" to-layer="425" to-port="0"/>
		<edge from-layer="424" from-port="0" to-layer="425" to-port="1"/>
		<edge from-layer="425" from-port="2" to-layer="427" to-port="0"/>
		<edge from-layer="426" from-port="0" to-layer="427" to-port="1"/>
		<edge from-layer="427" from-port="2" to-layer="428" to-port="1"/>
		<edge from-layer="428" from-port="2" to-layer="429" to-port="0"/>
		<edge from-layer="429" from-port="1" to-layer="431" to-port="0"/>
		<edge from-layer="430" from-port="0" to-layer="431" to-port="1"/>
		<edge from-layer="431" from-port="2" to-layer="433" to-port="0"/>
		<edge from-layer="432" from-port="0" to-layer="433" to-port="1"/>
		<edge from-layer="433" from-port="2" to-layer="434" to-port="0"/>
		<edge from-layer="434" from-port="1" to-layer="448" to-port="0"/>
		<edge from-layer="434" from-port="1" to-layer="437" to-port="0"/>
		<edge from-layer="435" from-port="0" to-layer="448" to-port="1"/>
		<edge from-layer="436" from-port="0" to-layer="446" to-port="0"/>
		<edge from-layer="437" from-port="1" to-layer="440" to-port="0"/>
		<edge from-layer="438" from-port="0" to-layer="440" to-port="1"/>
		<edge from-layer="439" from-port="0" to-layer="440" to-port="2"/>
		<edge from-layer="440" from-port="3" to-layer="444" to-port="0"/>
		<edge from-layer="441" from-port="0" to-layer="444" to-port="1"/>
		<edge from-layer="442" from-port="0" to-layer="444" to-port="2"/>
		<edge from-layer="443" from-port="0" to-layer="444" to-port="3"/>
		<edge from-layer="444" from-port="4" to-layer="445" to-port="0"/>
		<edge from-layer="445" from-port="1" to-layer="446" to-port="1"/>
		<edge from-layer="446" from-port="2" to-layer="448" to-port="2"/>
		<edge from-layer="447" from-port="0" to-layer="448" to-port="3"/>
		<edge from-layer="448" from-port="4" to-layer="449" to-port="1"/>
		<edge from-layer="449" from-port="2" to-layer="475" to-port="0"/>
		<edge from-layer="449" from-port="2" to-layer="453" to-port="0"/>
		<edge from-layer="450" from-port="0" to-layer="453" to-port="1"/>
		<edge from-layer="451" from-port="0" to-layer="453" to-port="2"/>
		<edge from-layer="452" from-port="0" to-layer="453" to-port="3"/>
		<edge from-layer="453" from-port="4" to-layer="455" to-port="0"/>
		<edge from-layer="454" from-port="0" to-layer="455" to-port="1"/>
		<edge from-layer="455" from-port="2" to-layer="457" to-port="0"/>
		<edge from-layer="456" from-port="0" to-layer="457" to-port="1"/>
		<edge from-layer="457" from-port="2" to-layer="459" to-port="0"/>
		<edge from-layer="458" from-port="0" to-layer="459" to-port="1"/>
		<edge from-layer="459" from-port="2" to-layer="461" to-port="0"/>
		<edge from-layer="460" from-port="0" to-layer="461" to-port="1"/>
		<edge from-layer="461" from-port="2" to-layer="462" to-port="0"/>
		<edge from-layer="462" from-port="1" to-layer="466" to-port="0"/>
		<edge from-layer="463" from-port="0" to-layer="466" to-port="1"/>
		<edge from-layer="464" from-port="0" to-layer="466" to-port="2"/>
		<edge from-layer="465" from-port="0" to-layer="466" to-port="3"/>
		<edge from-layer="466" from-port="4" to-layer="468" to-port="0"/>
		<edge from-layer="467" from-port="0" to-layer="468" to-port="1"/>
		<edge from-layer="468" from-port="2" to-layer="470" to-port="0"/>
		<edge from-layer="469" from-port="0" to-layer="470" to-port="1"/>
		<edge from-layer="470" from-port="2" to-layer="472" to-port="0"/>
		<edge from-layer="471" from-port="0" to-layer="472" to-port="1"/>
		<edge from-layer="472" from-port="2" to-layer="474" to-port="0"/>
		<edge from-layer="473" from-port="0" to-layer="474" to-port="1"/>
		<edge from-layer="474" from-port="2" to-layer="475" to-port="1"/>
		<edge from-layer="475" from-port="2" to-layer="476" to-port="0"/>
		<edge from-layer="476" from-port="1" to-layer="480" to-port="0"/>
		<edge from-layer="476" from-port="1" to-layer="502" to-port="0"/>
		<edge from-layer="477" from-port="0" to-layer="480" to-port="1"/>
		<edge from-layer="478" from-port="0" to-layer="480" to-port="2"/>
		<edge from-layer="479" from-port="0" to-layer="480" to-port="3"/>
		<edge from-layer="480" from-port="4" to-layer="482" to-port="0"/>
		<edge from-layer="481" from-port="0" to-layer="482" to-port="1"/>
		<edge from-layer="482" from-port="2" to-layer="484" to-port="0"/>
		<edge from-layer="483" from-port="0" to-layer="484" to-port="1"/>
		<edge from-layer="484" from-port="2" to-layer="486" to-port="0"/>
		<edge from-layer="485" from-port="0" to-layer="486" to-port="1"/>
		<edge from-layer="486" from-port="2" to-layer="488" to-port="0"/>
		<edge from-layer="487" from-port="0" to-layer="488" to-port="1"/>
		<edge from-layer="488" from-port="2" to-layer="489" to-port="0"/>
		<edge from-layer="489" from-port="1" to-layer="493" to-port="0"/>
		<edge from-layer="490" from-port="0" to-layer="493" to-port="1"/>
		<edge from-layer="491" from-port="0" to-layer="493" to-port="2"/>
		<edge from-layer="492" from-port="0" to-layer="493" to-port="3"/>
		<edge from-layer="493" from-port="4" to-layer="495" to-port="0"/>
		<edge from-layer="494" from-port="0" to-layer="495" to-port="1"/>
		<edge from-layer="495" from-port="2" to-layer="497" to-port="0"/>
		<edge from-layer="496" from-port="0" to-layer="497" to-port="1"/>
		<edge from-layer="497" from-port="2" to-layer="499" to-port="0"/>
		<edge from-layer="498" from-port="0" to-layer="499" to-port="1"/>
		<edge from-layer="499" from-port="2" to-layer="501" to-port="0"/>
		<edge from-layer="500" from-port="0" to-layer="501" to-port="1"/>
		<edge from-layer="501" from-port="2" to-layer="502" to-port="1"/>
		<edge from-layer="502" from-port="2" to-layer="503" to-port="0"/>
		<edge from-layer="503" from-port="1" to-layer="505" to-port="0"/>
		<edge from-layer="504" from-port="0" to-layer="505" to-port="1"/>
		<edge from-layer="505" from-port="2" to-layer="507" to-port="0"/>
		<edge from-layer="506" from-port="0" to-layer="507" to-port="1"/>
		<edge from-layer="507" from-port="2" to-layer="508" to-port="0"/>
		<edge from-layer="508" from-port="1" to-layer="522" to-port="0"/>
		<edge from-layer="508" from-port="1" to-layer="511" to-port="0"/>
		<edge from-layer="509" from-port="0" to-layer="522" to-port="1"/>
		<edge from-layer="510" from-port="0" to-layer="520" to-port="0"/>
		<edge from-layer="511" from-port="1" to-layer="514" to-port="0"/>
		<edge from-layer="512" from-port="0" to-layer="514" to-port="1"/>
		<edge from-layer="513" from-port="0" to-layer="514" to-port="2"/>
		<edge from-layer="514" from-port="3" to-layer="518" to-port="0"/>
		<edge from-layer="515" from-port="0" to-layer="518" to-port="1"/>
		<edge from-layer="516" from-port="0" to-layer="518" to-port="2"/>
		<edge from-layer="517" from-port="0" to-layer="518" to-port="3"/>
		<edge from-layer="518" from-port="4" to-layer="519" to-port="0"/>
		<edge from-layer="519" from-port="1" to-layer="520" to-port="1"/>
		<edge from-layer="520" from-port="2" to-layer="522" to-port="2"/>
		<edge from-layer="521" from-port="0" to-layer="522" to-port="3"/>
		<edge from-layer="522" from-port="4" to-layer="523" to-port="1"/>
		<edge from-layer="523" from-port="2" to-layer="549" to-port="0"/>
		<edge from-layer="523" from-port="2" to-layer="527" to-port="0"/>
		<edge from-layer="524" from-port="0" to-layer="527" to-port="1"/>
		<edge from-layer="525" from-port="0" to-layer="527" to-port="2"/>
		<edge from-layer="526" from-port="0" to-layer="527" to-port="3"/>
		<edge from-layer="527" from-port="4" to-layer="529" to-port="0"/>
		<edge from-layer="528" from-port="0" to-layer="529" to-port="1"/>
		<edge from-layer="529" from-port="2" to-layer="531" to-port="0"/>
		<edge from-layer="530" from-port="0" to-layer="531" to-port="1"/>
		<edge from-layer="531" from-port="2" to-layer="533" to-port="0"/>
		<edge from-layer="532" from-port="0" to-layer="533" to-port="1"/>
		<edge from-layer="533" from-port="2" to-layer="535" to-port="0"/>
		<edge from-layer="534" from-port="0" to-layer="535" to-port="1"/>
		<edge from-layer="535" from-port="2" to-layer="536" to-port="0"/>
		<edge from-layer="536" from-port="1" to-layer="540" to-port="0"/>
		<edge from-layer="537" from-port="0" to-layer="540" to-port="1"/>
		<edge from-layer="538" from-port="0" to-layer="540" to-port="2"/>
		<edge from-layer="539" from-port="0" to-layer="540" to-port="3"/>
		<edge from-layer="540" from-port="4" to-layer="542" to-port="0"/>
		<edge from-layer="541" from-port="0" to-layer="542" to-port="1"/>
		<edge from-layer="542" from-port="2" to-layer="544" to-port="0"/>
		<edge from-layer="543" from-port="0" to-layer="544" to-port="1"/>
		<edge from-layer="544" from-port="2" to-layer="546" to-port="0"/>
		<edge from-layer="545" from-port="0" to-layer="546" to-port="1"/>
		<edge from-layer="546" from-port="2" to-layer="548" to-port="0"/>
		<edge from-layer="547" from-port="0" to-layer="548" to-port="1"/>
		<edge from-layer="548" from-port="2" to-layer="549" to-port="1"/>
		<edge from-layer="549" from-port="2" to-layer="550" to-port="0"/>
		<edge from-layer="550" from-port="1" to-layer="576" to-port="0"/>
		<edge from-layer="550" from-port="1" to-layer="554" to-port="0"/>
		<edge from-layer="551" from-port="0" to-layer="554" to-port="1"/>
		<edge from-layer="552" from-port="0" to-layer="554" to-port="2"/>
		<edge from-layer="553" from-port="0" to-layer="554" to-port="3"/>
		<edge from-layer="554" from-port="4" to-layer="556" to-port="0"/>
		<edge from-layer="555" from-port="0" to-layer="556" to-port="1"/>
		<edge from-layer="556" from-port="2" to-layer="558" to-port="0"/>
		<edge from-layer="557" from-port="0" to-layer="558" to-port="1"/>
		<edge from-layer="558" from-port="2" to-layer="560" to-port="0"/>
		<edge from-layer="559" from-port="0" to-layer="560" to-port="1"/>
		<edge from-layer="560" from-port="2" to-layer="562" to-port="0"/>
		<edge from-layer="561" from-port="0" to-layer="562" to-port="1"/>
		<edge from-layer="562" from-port="2" to-layer="563" to-port="0"/>
		<edge from-layer="563" from-port="1" to-layer="567" to-port="0"/>
		<edge from-layer="564" from-port="0" to-layer="567" to-port="1"/>
		<edge from-layer="565" from-port="0" to-layer="567" to-port="2"/>
		<edge from-layer="566" from-port="0" to-layer="567" to-port="3"/>
		<edge from-layer="567" from-port="4" to-layer="569" to-port="0"/>
		<edge from-layer="568" from-port="0" to-layer="569" to-port="1"/>
		<edge from-layer="569" from-port="2" to-layer="571" to-port="0"/>
		<edge from-layer="570" from-port="0" to-layer="571" to-port="1"/>
		<edge from-layer="571" from-port="2" to-layer="573" to-port="0"/>
		<edge from-layer="572" from-port="0" to-layer="573" to-port="1"/>
		<edge from-layer="573" from-port="2" to-layer="575" to-port="0"/>
		<edge from-layer="574" from-port="0" to-layer="575" to-port="1"/>
		<edge from-layer="575" from-port="2" to-layer="576" to-port="1"/>
		<edge from-layer="576" from-port="2" to-layer="577" to-port="0"/>
		<edge from-layer="577" from-port="1" to-layer="579" to-port="0"/>
		<edge from-layer="578" from-port="0" to-layer="579" to-port="1"/>
		<edge from-layer="579" from-port="2" to-layer="581" to-port="0"/>
		<edge from-layer="580" from-port="0" to-layer="581" to-port="1"/>
		<edge from-layer="581" from-port="2" to-layer="582" to-port="0"/>
		<edge from-layer="582" from-port="1" to-layer="585" to-port="0"/>
		<edge from-layer="582" from-port="1" to-layer="596" to-port="0"/>
		<edge from-layer="583" from-port="0" to-layer="596" to-port="1"/>
		<edge from-layer="584" from-port="0" to-layer="594" to-port="0"/>
		<edge from-layer="585" from-port="1" to-layer="588" to-port="0"/>
		<edge from-layer="586" from-port="0" to-layer="588" to-port="1"/>
		<edge from-layer="587" from-port="0" to-layer="588" to-port="2"/>
		<edge from-layer="588" from-port="3" to-layer="592" to-port="0"/>
		<edge from-layer="589" from-port="0" to-layer="592" to-port="1"/>
		<edge from-layer="590" from-port="0" to-layer="592" to-port="2"/>
		<edge from-layer="591" from-port="0" to-layer="592" to-port="3"/>
		<edge from-layer="592" from-port="4" to-layer="593" to-port="0"/>
		<edge from-layer="593" from-port="1" to-layer="594" to-port="1"/>
		<edge from-layer="594" from-port="2" to-layer="596" to-port="2"/>
		<edge from-layer="595" from-port="0" to-layer="596" to-port="3"/>
		<edge from-layer="596" from-port="4" to-layer="597" to-port="1"/>
		<edge from-layer="597" from-port="2" to-layer="623" to-port="0"/>
		<edge from-layer="597" from-port="2" to-layer="601" to-port="0"/>
		<edge from-layer="598" from-port="0" to-layer="601" to-port="1"/>
		<edge from-layer="599" from-port="0" to-layer="601" to-port="2"/>
		<edge from-layer="600" from-port="0" to-layer="601" to-port="3"/>
		<edge from-layer="601" from-port="4" to-layer="603" to-port="0"/>
		<edge from-layer="602" from-port="0" to-layer="603" to-port="1"/>
		<edge from-layer="603" from-port="2" to-layer="605" to-port="0"/>
		<edge from-layer="604" from-port="0" to-layer="605" to-port="1"/>
		<edge from-layer="605" from-port="2" to-layer="607" to-port="0"/>
		<edge from-layer="606" from-port="0" to-layer="607" to-port="1"/>
		<edge from-layer="607" from-port="2" to-layer="609" to-port="0"/>
		<edge from-layer="608" from-port="0" to-layer="609" to-port="1"/>
		<edge from-layer="609" from-port="2" to-layer="610" to-port="0"/>
		<edge from-layer="610" from-port="1" to-layer="614" to-port="0"/>
		<edge from-layer="611" from-port="0" to-layer="614" to-port="1"/>
		<edge from-layer="612" from-port="0" to-layer="614" to-port="2"/>
		<edge from-layer="613" from-port="0" to-layer="614" to-port="3"/>
		<edge from-layer="614" from-port="4" to-layer="616" to-port="0"/>
		<edge from-layer="615" from-port="0" to-layer="616" to-port="1"/>
		<edge from-layer="616" from-port="2" to-layer="618" to-port="0"/>
		<edge from-layer="617" from-port="0" to-layer="618" to-port="1"/>
		<edge from-layer="618" from-port="2" to-layer="620" to-port="0"/>
		<edge from-layer="619" from-port="0" to-layer="620" to-port="1"/>
		<edge from-layer="620" from-port="2" to-layer="622" to-port="0"/>
		<edge from-layer="621" from-port="0" to-layer="622" to-port="1"/>
		<edge from-layer="622" from-port="2" to-layer="623" to-port="1"/>
		<edge from-layer="623" from-port="2" to-layer="624" to-port="0"/>
		<edge from-layer="624" from-port="1" to-layer="644" to-port="0"/>
		<edge from-layer="624" from-port="1" to-layer="626" to-port="0"/>
		<edge from-layer="625" from-port="0" to-layer="626" to-port="1"/>
		<edge from-layer="626" from-port="2" to-layer="628" to-port="0"/>
		<edge from-layer="627" from-port="0" to-layer="628" to-port="1"/>
		<edge from-layer="628" from-port="2" to-layer="632" to-port="0"/>
		<edge from-layer="629" from-port="0" to-layer="632" to-port="1"/>
		<edge from-layer="630" from-port="0" to-layer="632" to-port="2"/>
		<edge from-layer="631" from-port="0" to-layer="632" to-port="3"/>
		<edge from-layer="632" from-port="4" to-layer="634" to-port="0"/>
		<edge from-layer="633" from-port="0" to-layer="634" to-port="1"/>
		<edge from-layer="634" from-port="2" to-layer="636" to-port="0"/>
		<edge from-layer="635" from-port="0" to-layer="636" to-port="1"/>
		<edge from-layer="636" from-port="2" to-layer="637" to-port="0"/>
		<edge from-layer="637" from-port="1" to-layer="639" to-port="0"/>
		<edge from-layer="638" from-port="0" to-layer="639" to-port="1"/>
		<edge from-layer="639" from-port="2" to-layer="641" to-port="0"/>
		<edge from-layer="640" from-port="0" to-layer="641" to-port="1"/>
		<edge from-layer="641" from-port="2" to-layer="642" to-port="0"/>
		<edge from-layer="643" from-port="0" to-layer="644" to-port="1"/>
		<edge from-layer="644" from-port="2" to-layer="646" to-port="0"/>
		<edge from-layer="645" from-port="0" to-layer="646" to-port="1"/>
		<edge from-layer="646" from-port="2" to-layer="650" to-port="0"/>
		<edge from-layer="647" from-port="0" to-layer="650" to-port="1"/>
		<edge from-layer="648" from-port="0" to-layer="650" to-port="2"/>
		<edge from-layer="649" from-port="0" to-layer="650" to-port="3"/>
		<edge from-layer="650" from-port="4" to-layer="652" to-port="0"/>
		<edge from-layer="651" from-port="0" to-layer="652" to-port="1"/>
		<edge from-layer="652" from-port="2" to-layer="654" to-port="0"/>
		<edge from-layer="653" from-port="0" to-layer="654" to-port="1"/>
		<edge from-layer="654" from-port="2" to-layer="655" to-port="0"/>
		<edge from-layer="655" from-port="1" to-layer="657" to-port="0"/>
		<edge from-layer="656" from-port="0" to-layer="657" to-port="1"/>
		<edge from-layer="657" from-port="2" to-layer="659" to-port="0"/>
		<edge from-layer="658" from-port="0" to-layer="659" to-port="1"/>
		<edge from-layer="659" from-port="2" to-layer="660" to-port="0"/>
	</edges>
	<meta_data>
		<MO_version value="2021.4.2-3974-e2a469a3450-releases/2021/4"/>
		<cli_parameters>
			<data_type value="FP16"/>
			<disable_nhwc_to_nchw value="False"/>
			<disable_resnet_optimization value="False"/>
			<disable_weights_compression value="False"/>
			<enable_concat_optimization value="False"/>
			<extensions value="DIR"/>
			<framework value="tf"/>
			<freeze_placeholder_with_value value="{}"/>
			<generate_deprecated_IR_V7 value="False"/>
			<input_model_is_text value="False"/>
			<keep_shape_ops value="True"/>
			<legacy_ir_generation value="False"/>
			<log_level value="ERROR"/>
			<mean_scale_values value="[(array([127.5, 127.5, 127.5]), array([127.5, 127.5, 127.5]))]"/>
			<mean_values value="[127.5,127.5,127.5]"/>
			<model_name value="saved_model"/>
			<output_dir value="DIR"/>
			<placeholder_data_types value="{}"/>
			<progress value="False"/>
			<reverse_input_channels value="True"/>
			<saved_model_dir value="DIR"/>
			<scale_values value="[127.5,127.5,127.5]"/>
			<silent value="False"/>
			<static_shape value="False"/>
			<stream_output value="False"/>
			<transform value=""/>
			<unset unset_cli_parameters="batch, disable_fusing, disable_gfusing, finegrain_fusing, input, input_checkpoint, input_meta_graph, input_model, input_shape, move_to_preprocess, output, placeholder_shapes, saved_model_tags, scale, tensorboard_logdir, tensorflow_custom_layer_libraries, tensorflow_custom_operations_config_update, tensorflow_object_detection_api_pipeline_config, tensorflow_use_custom_operations_config, transformations_config"/>
		</cli_parameters>
	</meta_data>
</net>
